model1_Linear1/model1_Linear1_Scripted_cifar10.pt (torch, 165243 bytes, 6 tensors)

weight f4 [36, 1024]
0	0xbba8303e	-0.005132704
1	0x38fe2c57	0.00012119923
2	0x3c566fae	0.01308815
3	0x3b0ceec7	0.0021504627
4	0xbcb999ca	-0.02265634
5	0xbb2d854b	-0.0026477154
6	0x3b36473e	0.002781346
7	0x3c93d94f	0.018047957
8	0x3bdbe0bb	0.0067101396
9	0xbcf7f279	-0.030266987
10	0x3a9e2e6f	0.0012068282
11	0x389cbe51	7.474109e-05
12	0xbce68e10	-0.028143913
13	0xbbb20f45	-0.005433949
14	0x3c188675	0.009309401
15	0xbcba0d04	-0.022711284
16	0xbd15fb8b	-0.036616843
17	0x3caadaf8	0.020856366
18	0x3c7608da	0.015016759
19	0xbbe21206	-0.006899121
20	0xbc61cb35	-0.0137813585
21	0x3c0238cc	0.007948112
22	0x3b3fa948	0.0029245187
23	0xbcc4dd79	-0.024031388
24	0xbc2547f5	-0.010087957
25	0x3c260c13	0.010134715
26	0x3cb13859	0.021633314
27	0x3c5d2f67	0.013500071
28	0x3cae327f	0.021264313
29	0xbcdddead	-0.02708372
30	0xbc55568f	-0.013021125
31	0xbc8a447b	-0.016878357
32	0x3c8e4533	0.017366981
33	0x3c68dc4f	0.014212682
34	0x3c4b8a85	0.012423162
35	0xbc9636b9	-0.01833664
36	0xbd1887dd	-0.037238944
37	0xbcbab90d	-0.022793317
38	0xbbd7bdfd	-0.0065839277
39	0xbc97fcf9	-0.018553244
40	0xbcc5363e	-0.024073716
41	0xbc877611	-0.01653579
42	0xbb375b8b	-0.0027978148
43	0xbcb869c2	-0.022511367
44	0xbc893318	-0.016747996
45	0xbc809b3b	-0.01569902
46	0x3c46fabd	0.012144742
47	0xbce5ba8b	-0.028043052
48	0x3c3aa5b4	0.011392046
49	0x3c25cd30	0.010119721
50	0x3cad381c	0.02114492
51	0xbccd9ebe	-0.025100108
52	0x3c0280ce	0.00796528
53	0xbc166b38	-0.009180836
54	0x3c5dd175	0.013538708
55	0xbc12c32d	-0.008957666
56	0x3c9cd2bd	0.019143457
57	0xbc9b7ae1	-0.018979492
58	0xbcab05aa	-0.020876724
59	0xbc9ea7b8	-0.019367084
60	0x3c7bd61b	0.015370871
61	0x3c88d2cc	0.016702078
62	0xbcb44dc3	-0.022009736
63	0x3c8a0606	0.016848575
64	0x3a39c06e	0.0007085864
65	0xbced7be0	-0.028989732
66	0xbc88e123	-0.016708916
67	0xbcd9b9b9	-0.026577817
68	0x3c60083a	0.013673836
69	0xbc436487	-0.011925823
70	0x3ab860c8	0.0014066929
71	0xbae281fc	-0.001728117
72	0xbbd0c510	-0.006371148
73	0x3c0dd48d	0.008656633
74	0x3c4c3e48	0.012466021
75	0xbcaaddab	-0.020857653
76	0xbcb2b87c	-0.021816485
77	0x3cc9152c	0.024546228
78	0xbcaecd2f	-0.021338074
79	0x3c66c40e	0.014084829
80	0x3ba1ffb5	0.0049438127
81	0xbc9b8496	-0.01898412
82	0x3bdcf29f	0.00674279
83	0xbcbe6f68	-0.023246482
84	0x3c4bb2cc	0.012432765
85	0xbc768b96	-0.015047928
86	0x3c8cae13	0.017172849
87	0xbb05b9b8	-0.0020404886
88	0x3c2b2798	0.010446452
89	0xbc08ac61	-0.00834188
90	0xbcba9ebc	-0.022780769
91	0xbd065448	-0.03279522
92	0xbca95a3f	-0.020672916
93	0x3c354d74	0.01106583
94	0xbccaf67b	-0.024775734
95	0x3baf30db	0.0053464
96	0xbc1fa8f8	-0.009744875
97	0xbc1953ab	-0.009358327
98	0xbc88841e	-0.01666456
99	0xbb4c357d	-0.0031159811
100	0xbccf29f2	-0.025288556
101	0xbc6ee0de	-0.01457998
102	0xbd16a7e8	-0.03678122
103	0x3b3f5efc	0.0029200902
104	0xbc1adb37	-0.009451679
105	0xbcaf5ac5	-0.021405587
106	0x3c540a6e	0.01294194
107	0x3cc23501	0.023706915
108	0xbd05e5e7	-0.032689955
109	0xba9a95ff	-0.001179397
110	0xbd0c23d2	-0.03421385
111	0x3ca72b9d	0.020406539
112	0x3c08098d	0.008303058
113	0xbc810d38	-0.015753374
114	0x3c163f22	0.0091703255
115	0x3a367c93	0.0006961312
116	0xbcc051b3	-0.023476457
117	0x3c8a2981	0.016865494
118	0xbc464a80	-0.012102723
119	0x3c5bb9b6	0.013410976
120	0x3c9211f7	0.017830832
121	0xbcdd2989	-0.026997345
122	0xbc15a0fc	-0.00913262
123	0xbcbff6b7	-0.023433072
124	0xbc528b9b	-0.012850667
125	0xbc1a32db	-0.009411539
126	0x3c5b3678	0.013379686
127	0x3c275b91	0.010214702
128	0x3a55341b	0.00081330695
129	0xbb695188	-0.0035601575
130	0xbb8b5382	-0.0042518983
131	0xbc1b56c1	-0.009481133
132	0x3a6c4356	0.00090127194
133	0xbd01b837	-0.03166982
134	0x3c392509	0.011300334
135	0xbc822408	-0.015886322
136	0xbc4dd773	-0.012563574
137	0xbcc90f13	-0.02454332
138	0x3c936958	0.017994568
139	0xbc78b1da	-0.015179122
140	0xbd10648c	-0.03525214
141	0xbcc0bf01	-0.023528578
142	0xbce5c449	-0.028047698
143	0x39dabfa5	0.00041722986
144	0xbbfef5ae	-0.007780752
145	0xbcfd0253	-0.030884897
146	0xbd0de241	-0.0346396
147	0x3c9098f1	0.017651053
148	0xbca47ec8	-0.020079985
149	0xbd0f7283	-0.035021316
150	0x3a2e4b59	0.0006648801
151	0xbc2e7331	-0.010647581
152	0xbd033be2	-0.03203953
153	0xbcfa78e8	-0.03057523
154	0xbc5e861c	-0.013581779
155	0xbcaeb9e3	-0.021328872
156	0xbcbbf069	-0.022941785
157	0xbd1695ce	-0.03676396
158	0xbcd73140	-0.026268601
159	0xbcd12d24	-0.02553422
160	0x3c9e4801	0.019321444
161	0xbbe882c5	-0.007095667
162	0x3bfa7721	0.007643596
163	0xbce1e403	-0.027574545
164	0xbc3d2983	-0.011545542
165	0x3c538d18	0.012912057
166	0x3caeabee	0.021322217
167	0xbbc8feb0	-0.0061338767
168	0xbbe7cd7a	-0.0070740553
169	0x3c80b571	0.015711518
170	0x3bb90526	0.0056463657
171	0x3c83e7df	0.016101776
172	0xbc820c98	-0.015875146
173	0xbcd22ce9	-0.02565618
174	0x3c2fc3f3	0.01072787
175	0xbc855b0a	-0.016278762
176	0x3c71684a	0.014734337
177	0xbca6af5f	-0.020347295
178	0xbcba128c	-0.022713922
179	0x3bc4ae51	0.0060022254
180	0xbbe22f55	-0.006902615
181	0xbbba6237	-0.0056879777
182	0x3caaaea7	0.020835234
183	0xbbaecd40	-0.0053345263
184	0xbb60756c	-0.0034249676
185	0xbc8bb135	-0.017052272
186	0xbd11f5e1	-0.03563488
187	0x3c15c0dd	0.0091402205
188	0xbc8c2d14	-0.017111339
189	0x3cb0e1f5	0.02159212
190	0xbca79aa3	-0.020459479
191	0xbc0d2110	-0.00861384
192	0xbc45c9b3	-0.012072015
193	0xbcaebcc5	-0.021330247
194	0x3b8f2bca	0.0043692337
195	0xbccd89f6	-0.025090199
196	0x3b4b5ecb	0.0031031843
197	0xbd03608f	-0.032074507
198	0x3ad5d23c	0.0016313265
199	0xbcb6e830	-0.022327513
200	0xbd0b3f25	-0.033995766
201	0x3c97b612	0.018519435
202	0xbcda1461	-0.026621046
203	0xbb6dbd99	-0.003627634
204	0xbc1cc599	-0.009568595
205	0xbd0965b4	-0.033544257
206	0xbcb19894	-0.0216792
207	0xbcd679c5	-0.026181111
208	0x3c829168	0.015938476
209	0xbc821aa7	-0.01588185
210	0xbcba76e9	-0.022761779
211	0xbca8286f	-0.020527093
212	0x3a98a8de	0.0011647006
213	0x3ba815ec	0.0051295664
214	0xbd115a12	-0.03548629
215	0x3c5a2ce6	0.013316369
216	0x3cbb0687	0.02283026
217	0x3bf48c3f	0.0074630077
218	0x3c66d34b	0.014088462
219	0x3971615c	0.0002301982
220	0xbc38ae39	-0.011272007
221	0x3c98415d	0.018585855
222	0xbc2c05ba	-0.010499412
223	0xbb124abd	-0.002232238
224	0x3cbe0ca1	0.023199381
225	0xbc1e89cd	-0.009676409
226	0xbcfba402	-0.030717853
227	0xbc8916ae	-0.016734447
228	0x3c5a1e7a	0.01331293
229	0x3caeaa20	0.021321356
230	0xbc87670c	-0.016528629
231	0x3ca0bdb1	0.019621702
232	0xbcec48a9	-0.02884324
233	0xbaf0131b	-0.0018316241
234	0xbd0bd9eb	-0.03414337
235	0xbc873250	-0.016503483
236	0xbd1357dd	-0.035972465
237	0xb8fac745	-0.00011958046
238	0x3c81d9a8	0.015850857
239	0x39e0a969	0.0004285083
240	0xbce12ff2	-0.027488682
241	0xbd13178b	-0.035911124
242	0x3cc20c24	0.02368743
243	0xbb42d20b	-0.0029727246
244	0xbd0659ed	-0.032800604
245	0xbc258750	-0.010103062
246	0x3c661f1a	0.014045501
247	0x3ccb00a8	0.024780586
248	0xbc5d7e1c	-0.013518836
249	0x3bf01f4d	0.00732795
250	0xbc8c1fda	-0.017105032
251	0x3b5c516a	0.0033617863
252	0x3c694d0f	0.014239564
253	0xbc3455a2	-0.011006745
254	0x3ca8a8c7	0.020588292
255	0x3b068587	0.0020526366

bias f4 [36]
0	0x3c970663	0.018435663
1	0xbc15a859	-0.0091343755
2	0xbe721f02	-0.23644641
3	0x3ec3dfc6	0.38256663
4	0xbcd2bc27	-0.025724484
5	0xbc21be97	-0.0098721
6	0xbcfeeb29	-0.031117992
7	0x3c2e8385	0.010651474
8	0x3c2b6770	0.010461673
9	0xbf8c34e6	-1.0953643
10	0x3f43d743	0.7650034
11	0x3bfe4b9d	0.0077604786
12	0xbccd36ce	-0.025050547
13	0xbc17ef94	-0.0092734285
14	0xbc9dbe41	-0.01925576
15	0x3e2f570f	0.17123054
16	0xbe37677d	-0.17910571
17	0xbd0d6b2f	-0.034526046
18	0x3b8a2508	0.0042158403
19	0xbc8aa15b	-0.016922643
20	0x3fafbe26	1.3729904
21	0xbba0b301	-0.0049041514
22	0xbc40256d	-0.011727673
23	0xbced6834	-0.028980352
24	0xbc9bfd6b	-0.019041738
25	0xbfaf4dee	-1.3695657
26	0x3eafddc1	0.34348872
27	0x3c32bf15	0.010909815
28	0x3ce1933b	0.027536025
29	0x3c7acfd5	0.01530834
30	0x3fa3f2b5	1.2808443
31	0xbbbad29b	-0.0057013757
32	0xbbb3054f	-0.0054632793
33	0x3cad5c80	0.021162271
34	0xbeacb4e0	-0.33731747
35	0xbec95153	-0.39319858

weight f4 [36, 36]
0	0xbe1fd35e	-0.15607974
1	0x3d0f91ea	0.035051264
2	0xbe13c98c	-0.14432353
3	0x3e4e8e0c	0.20171374
4	0xbd3b6ae3	-0.045756232
5	0xbe045369	-0.12922443
6	0x3d318783	0.043342125
7	0x3d4ef151	0.050523106
8	0x3b48dc01	0.003064871
9	0xbd2f6944	-0.042825
10	0xbe3f822e	-0.18702003
11	0xbc94835c	-0.018129043
12	0x3d92a1e0	0.071597815
13	0x3df6d6cd	0.12052689
14	0x3d5ce50d	0.053929377
15	0xbe350515	-0.1767772
16	0x3ded6d8f	0.11593162
17	0xbc9bbfdd	-0.019012386
18	0xbcb59fd1	-0.022170933
19	0xbd7053c2	-0.058673628
20	0x3da60e65	0.08108214
21	0xbd90a8cc	-0.070634454
22	0x3e1e582a	0.1546332
23	0xbcfa6968	-0.03056784
24	0x3e012de6	0.12615165
25	0x3e8ab9ee	0.27094978
26	0x3e60bbdf	0.21946667
27	0xbd1ddcb9	-0.038540576
28	0xbf262aaf	-0.6490888
29	0xbc28c8ac	-0.01030175
30	0x3cff12d2	0.031136904
31	0xbd9a0ad5	-0.07521597
32	0x3dc9adac	0.098475784
33	0xbda5bd09	-0.08092696
34	0x3da88ea1	0.08230329
35	0x3dee7a37	0.116444044
36	0x3db86c64	0.09005049
37	0xbe1f0b32	-0.15531614
38	0xbeee0c71	-0.46493867
39	0xbe878074	-0.2646519
40	0xbd834470	-0.06409538
41	0xbe0dbb23	-0.13840918
42	0xbdde208e	-0.10846053
43	0x3e11867b	0.14211456
44	0x3ce17cb2	0.02752528
45	0xbf348f7b	-0.70531434
46	0xbdd8a0b8	-0.1057753
47	0xbc3c4300	-0.011490583
48	0x3dc9aca8	0.09847385
49	0x3df3d5fa	0.11906047
50	0x3d6919a1	0.056909207
51	0x3ec828e8	0.3909371
52	0xbda36cec	-0.079797596
53	0x3d682000	0.056671143
54	0x3c1d00e6	0.009582734
55	0x3e1c04da	0.15236226
56	0x3ee4574a	0.44597846
57	0xbdec761d	-0.11545966
58	0x3c1a7cdd	0.009429184
59	0xbe2781b2	-0.16358069
60	0xbbf55320	-0.007486716
61	0xbde9ef7d	-0.11422632
62	0x3e5b8b38	0.21439826
63	0xbcb5b64f	-0.022181658
64	0x3e6d80db	0.23193686
65	0x3e1a0a99	0.15043105
66	0x3cfb6bac	0.03069099
67	0x3e213550	0.15742993
68	0xbe29cfd6	-0.1658319
69	0x3d06e48a	0.032932796
70	0x3ced18ae	0.028942432
71	0x3e9edcac	0.31027734
72	0x3d1e4322	0.03863824
73	0x3cf8e158	0.03038089
74	0x3e1d9658	0.15389383
75	0x3e35a0e6	0.17737159
76	0x3c33183a	0.010931069
77	0x3c8501fc	0.016236298
78	0xbdc11691	-0.09428132
79	0x3d183d98	0.037168115
80	0x3dc27ec7	0.09496837
81	0xbe632215	-0.2218097
82	0x3e793524	0.24336678
83	0xbd987d66	-0.07445793
84	0xbd2596b4	-0.040426925
85	0xbd2fba67	-0.042902377
86	0x3ca65c3c	0.020307653
87	0x3eab23e4	0.3342582
88	0xbe10da5a	-0.14145795
89	0x3c225e8c	0.009910237
90	0xbd9d4650	-0.07679427
91	0xbd19ec8e	-0.03757911
92	0x3ee81b2f	0.4533324
93	0xbc70290d	-0.014658225
94	0x3e0091da	0.12555638
95	0x3dd05f94	0.1017448
96	0x3c6e2d50	0.0145371705
97	0xbddd5e53	-0.108090065
98	0xbd163e60	-0.03668058
99	0x3cc86dd8	0.02446644
100	0xbe5a666b	-0.21328132
101	0xbd6924c3	-0.056919824
102	0x3e5b2ab7	0.21403013
103	0xbda4d187	-0.08047777
104	0x3c83435c	0.01602333
105	0x3e00a28f	0.12562011
106	0xbd83f0bf	-0.06442403
107	0xbda930ce	-0.08261262
108	0x3e201197	0.1563171
109	0x3d87f99b	0.06639405
110	0xbf011fda	-0.50439227
111	0x3e46576c	0.19369286
112	0xbdd7d95b	-0.10539504
113	0xbdb4f4ca	-0.08835752
114	0x3dea9188	0.11453539
115	0xbe10325c	-0.1408171
116	0x3de5fcde	0.11229871
117	0xbe5c137a	-0.21491805
118	0x3eb164ee	0.34647316
119	0x3de8f6cc	0.11375198
120	0x3d277eb8	0.040892333
121	0xbd1b16e5	-0.03786363
122	0xbd0ee563	-0.03488673
123	0xbda5b84a	-0.08091791
124	0x3ee1052b	0.43949255
125	0xbe0c837f	-0.13722037
126	0x3a78594d	0.0009473756
127	0x3e1c2528	0.15248549
128	0x3e84e65e	0.25957006
129	0x3a9e498e	0.0012076364
130	0xbd887e6c	-0.06664738
131	0xbda76062	-0.081726804
132	0xbe207a77	-0.15671717
133	0x3e473cd7	0.19456802
134	0x3e2bc648	0.16774857
135	0x3d87c504	0.066293746
136	0x3e90b2fa	0.28261548
137	0xbe204db6	-0.15654644
138	0xbdc0c928	-0.094133675
139	0x3ae10561	0.0017167741
140	0x3e14d7f6	0.14535508
141	0x3dbbf1c6	0.09176974
142	0x3ed40011	0.414063
143	0xbe065839	-0.13119592
144	0x3dcd022a	0.100101784
145	0xbe20898c	-0.1567747
146	0x3e83e9af	0.25764224
147	0x3b0bec4b	0.0021350558
148	0xbc6859a2	-0.014181526
149	0x3b927fe0	0.0044708103
150	0x3df03dc7	0.11730533
151	0xbd1ced44	-0.03831221
152	0xbe0c53b7	-0.1370381
153	0x3e6ab21f	0.2291951
154	0x3d857172	0.065157786
155	0x3d819f40	0.06329203
156	0xbd155624	-0.036459103
157	0x3d9fc9d5	0.07802168
158	0x3e1c668b	0.15273492
159	0x3cb34cc8	0.021887198
160	0xbf7ed378	-0.99541426
161	0xbd235660	-0.039877295
162	0x3e0239ed	0.1271741
163	0xbd917305	-0.07102016
164	0x3edd2246	0.4319021
165	0x3d5d94ac	0.054096863
166	0x3d4bf2dc	0.049792156
167	0xbdc7a7d4	-0.097488075
168	0xbe0935e6	-0.13399467
169	0xbeadbcf8	-0.33933234
170	0x3e8df799	0.27727965
171	0xbe03adbc	-0.12859243
172	0xbe90b0c7	-0.2825987
173	0xbd123cff	-0.0357027
174	0x3e451640	0.19246769
175	0x3e0c0315	0.1367305
176	0xbdc57d3b	-0.096430264
177	0xbdc0b1ce	-0.094089136
178	0x3eb6f83d	0.35736266
179	0xbd57d116	-0.052689634
180	0xbde1c77a	-0.11024375
181	0xbe130867	-0.14358674
182	0x3ee425a7	0.44559976
183	0x3da25f0a	0.079282835
184	0xbc5065f0	-0.012719616
185	0xbdc7063d	-0.09717987
186	0x3a4b1d19	0.00077481713
187	0xbdf1d5ec	-0.118083805
188	0x3d83cd54	0.064356476
189	0x3ba5fdd2	0.005065658
190	0xbedc98ca	-0.4308532
191	0x3ddf5bcd	0.109061815
192	0x3c2b25ff	0.010446071
193	0xbe143200	-0.14472198
194	0xbd8d3ad2	-0.06895985
195	0xbe967d85	-0.2939264
196	0x3e7e7ac8	0.24851525
197	0x3d6e2427	0.058139946
198	0xbc438cd8	-0.011935435
199	0x3bedf0a3	0.007261352
200	0xbe41bb3a	-0.18919078
201	0xbe14a32c	-0.1451537
202	0x3d42093f	0.0473721
203	0x3d4b23fc	0.049594864
204	0xbe07af9e	-0.13250586
205	0x3dad509a	0.08462639
206	0xbe319b7f	-0.17344473
207	0x3d1ca818	0.038246244
208	0x3d869170	0.06570709
209	0xbc1742f4	-0.009232271
210	0x3ec94e41	0.39317515
211	0xbc6596f6	-0.014013043
212	0x3d588e60	0.052870154
213	0x3d1d985d	0.038475383
214	0xbebfb599	-0.37443236
215	0x3e8d21ab	0.2756475
216	0x3d75050e	0.059819274
217	0x3ccbcc07	0.024877561
218	0xbdca834d	-0.09888325
219	0x3c749148	0.014927216
220	0x3dae11b4	0.0849947
221	0xbd8d8986	-0.06910996
222	0x3cb5c953	0.022190725
223	0xbc225ccf	-0.009909823
224	0x3df968ad	0.121781684
225	0xbe485d98	-0.19566953
226	0x3d7ecb96	0.062205873
227	0x3e26e5bd	0.16298576
228	0x3dc833f1	0.09775532
229	0x3d567ffb	0.052368145
230	0xbc90f6a7	-0.017695738
231	0xbe1313c9	-0.14363016
232	0xbe1c7fd9	-0.15283145
233	0x3dcd1c0a	0.10015114
234	0x3da50008	0.080566466
235	0xbdc059bc	-0.093921155
236	0xbddc5608	-0.10758597
237	0xbad01372	-0.0015874936
238	0x3d325bb1	0.043544475
239	0xbd946fad	-0.07247863
240	0xbe1c4919	-0.1526226
241	0x3d4f21c6	0.05056932
242	0xbe29ed85	-0.16594513
243	0x3dbaf4bc	0.09128711
244	0xbdc2198f	-0.09477531
245	0xbd39ad11	-0.045331065
246	0xbdc36356	-0.09540431
247	0xbdc6d7e5	-0.09709147
248	0xbe1721a0	-0.1475892
249	0xbb2b6854	-0.0026154714
250	0xbe27d33d	-0.16389175
251	0xbdc7c1ae	-0.09753738
252	0x3e206c23	0.15666251
253	0xbe1c13c6	-0.15241918
254	0xbd54a924	-0.051919118
255	0xbd5def51	-0.054183308

bias f4 [36]
0	0xbffa2372	-1.9542067
1	0xbf0a63db	-0.5405862
2	0x400bc695	2.1839955
3	0x3efab435	0.48965612
4	0xbe580936	-0.21097264
5	0xbf490136	-0.7851747
6	0x3d82d605	0.06388477
7	0x3f96d4be	1.1783674
8	0x3f15badd	0.58488256
9	0xbea7b1d3	-0.32752857
10	0x3e5c00a8	0.21484625
11	0x3e86b598	0.2631042
12	0x3ed31763	0.4122878
13	0xbd64ddf7	-0.055875745
14	0x3ff115be	1.883476
15	0xbf1c561d	-0.610689
16	0x3f6fd043	0.9367716
17	0x3fdf59f9	1.7449332
18	0x3f680f8a	0.9064871
19	0xbeb377b1	-0.35052255
20	0xbf6674ee	-0.9002217
21	0xbdfd240e	-0.123603925
22	0x3ea5b8d6	0.3236758
23	0xbf2406d5	-0.64072925
24	0xbda338d3	-0.07969823
25	0x3de5738a	0.11203678
26	0xbfd5eaa2	-1.6712229
27	0x3fba38a8	1.454854
28	0xbfefcc32	-1.873419
29	0xbf291eef	-0.66062826
30	0x3f1ae932	0.6051208
31	0xbe5485ed	-0.20754214
32	0xbf81ea98	-1.0149717
33	0xbeda3003	-0.42614755
34	0x3f3afbc0	0.7304039
35	0x3f0c254c	0.5474441

weight f4 [10, 36]
0	0xbd13c7fc	-0.03607939
1	0xbea67c04	-0.3251649
2	0xbe91ea92	-0.28499275
3	0xbe8272a3	-0.25478086
4	0xbd6b0e26	-0.05738654
5	0xbe5c2cb3	-0.21501426
6	0xbe177e29	-0.1479422
7	0xbe0f06ac	-0.13967389
8	0xbe926332	-0.28591305
9	0xbede3856	-0.43402356
10	0xbe0c22de	-0.13685176
11	0xbe93e0bd	-0.288824
12	0xbea21ed1	-0.31664136
13	0xbe3c206b	-0.18371741
14	0xbe1fd5b1	-0.1560886
15	0xbd9595be	-0.07303952
16	0x3c2c2e67	0.01050911
17	0xbe1a9433	-0.15095596
18	0xbda6fc04	-0.08153537
19	0xbe9a3ca5	-0.30124393
20	0xbf89c1d2	-1.0762274
21	0xbe3691f9	-0.17829122
22	0xbee5b550	-0.44864893
23	0xbee05fd2	-0.43823105
24	0x3e11b0df	0.14227627
25	0xbdd38a8b	-0.10329159
26	0xbe7103b1	-0.23536564
27	0xbd31af7c	-0.043380246
28	0xbe937e09	-0.28807095
29	0xbe741979	-0.23837842
30	0xbe8805fb	-0.26567063
31	0xbf2e9f57	-0.68211883
32	0xbe3be261	-0.18348075
33	0xbf37ae5e	-0.7175044
34	0xbeabb0e9	-0.3353341
35	0xbe90b899	-0.28265837
36	0xbef4e185	-0.47828308
37	0x3eeb4972	0.45954472
38	0x3eb7024e	0.35743946
39	0xbf824a1a	-1.0178864
40	0x3ecf8b05	0.4053575
41	0xbf830319	-1.023532
42	0x3cb612a8	0.022225693
43	0x3e8918fb	0.2677687
44	0x3e57b633	0.21065597
45	0x3f894592	1.0724356
46	0xbf192469	-0.5982118
47	0xbde47d31	-0.11156691
48	0xbe4afd75	-0.19823249
49	0x3e926a94	0.28596938
50	0xbe659159	-0.22418727
51	0x3e564e70	0.20928359
52	0xbee099a5	-0.4386722
53	0x3e9362ad	0.2878622
54	0xbf24d9bc	-0.64394736
55	0x3e743332	0.23847654
56	0x3ee70aaa	0.45125324
57	0xbd9265b7	-0.07148307
58	0x3eab7b8e	0.33492702
59	0xbeb099b3	-0.34492263
60	0xbd6f8e5f	-0.058485385
61	0x3e024e9c	0.127253
62	0x3e1b5fdc	0.15173286
63	0x3e12808c	0.14306849
64	0x3e5dcd31	0.21660306
65	0x3e8c1616	0.273606
66	0xbdc7fa8d	-0.09764586
67	0x3d9909b1	0.074725516
68	0xbde1c8fd	-0.110246636
69	0xbd8724da	-0.06598826
70	0xbcc06e49	-0.023490088
71	0xbf2a9396	-0.6663145
72	0xbf01ba36	-0.5067476
73	0xbf56cc55	-0.83905536
74	0x3d89b5cf	0.0672413
75	0xbe578c85	-0.21049698
76	0xbf69753a	-0.911945
77	0x3e4b6f8f	0.19866775
78	0xbde5b85a	-0.11216803
79	0xbe31d0e2	-0.17364839
80	0x3e5617d2	0.20907524
81	0xbf0fc6f0	-0.5616293
82	0x3ea8bc48	0.32956147
83	0xbf591e9c	-0.8481233
84	0x3dad8638	0.08472866
85	0x3df479e1	0.11937309
86	0x3e166d8f	0.14690231
87	0x3d32ce71	0.04365391
88	0xbe6dc23b	-0.23218624
89	0xbd8c7061	-0.06857372
90	0x3ed7620e	0.42066997
91	0xbea25d79	-0.3171194
92	0xbe2cb9af	-0.16867708
93	0xbec95695	-0.3932387
94	0xbc112ae7	-0.008860326
95	0x3e76fa73	0.24118976
96	0xbe0173b9	-0.12641801
97	0xbe1f2334	-0.15540773
98	0xbdec9089	-0.115510054
99	0xbdc51565	-0.09623221
100	0xbefa33e0	-0.48867702
101	0xbe961a3a	-0.29316884
102	0x3e93cadf	0.28865716
103	0xbede8bcc	-0.43466032
104	0xbd09b56f	-0.033620294
105	0xbe3a2855	-0.18179448
106	0x3e608da3	0.2192903
107	0x3e183d0b	0.14867036
108	0x3e1396b4	0.14412957
109	0xbca35701	-0.019938948
110	0x3c7a34f9	0.015271419
111	0x3e4a9a81	0.19785501
112	0xbdfa00ec	-0.12207207
113	0x3db9e5a7	0.09077006
114	0x3d784003	0.06060792
115	0xbe3982c1	-0.18116285
116	0x3d07c183	0.03314353
117	0x3e0e3d2a	0.1389052
118	0xbce3fd81	-0.027830841
119	0x3e49c746	0.19704923
120	0x3d8f123d	0.069859006
121	0xbe62eab8	-0.2215985
122	0x3e24e333	0.16102295
123	0xbf0faca1	-0.56122786
124	0x3e989b02	0.29805762
125	0xbf04a944	-0.5182078
126	0x3e0a50a1	0.1350732
127	0x3ddac449	0.1068197
128	0xbf3894b9	-0.7210193
129	0xbe533e25	-0.20629175
130	0x3eba29c0	0.36359978
131	0x3f5848cd	0.84486085
132	0x3d13dfe0	0.036102176
133	0x3dc55fc8	0.096374094
134	0xbebac628	-0.36479306
135	0x3e194ca9	0.1497065
136	0xbd8eee71	-0.06979073
137	0xbd6eb8b7	-0.058281627
138	0xbdce541a	-0.10074635
139	0x3f063e21	0.5243855
140	0xbe2041f9	-0.15650167
141	0x3ea8affd	0.32946768
142	0x3c43eb24	0.011957917
143	0xbdfe23fb	-0.124092065
144	0xbf5ee803	-0.8707277
145	0xbda1500b	-0.07876595
146	0x3eba4a82	0.3638497
147	0x3d702561	0.058629397
148	0xbed31b40	-0.41231728
149	0x3d001882	0.031273372
150	0x3e009d48	0.12559998
151	0x3eae1e45	0.3400747
152	0x3e21f6be	0.15816781
153	0xbe1459a7	-0.14487325
154	0x3e8a1919	0.26972273
155	0x3e8db31a	0.27675706
156	0xbe45d635	-0.19319995
157	0xbe1f4a8f	-0.15555786
158	0x3e86b91b	0.263131
159	0xbe8d7d6a	-0.27634746
160	0xbcc4a914	-0.024006404
161	0x3e0f43dc	0.1399073
162	0x3f42d23e	0.76102054
163	0x3e5bcba3	0.214644
164	0xbe892e9a	-0.26793367
165	0x3dfd125b	0.12357017
166	0xbf51de90	-0.8198023
167	0x3d35e2ff	0.044405933
168	0xbd36911e	-0.04457199
169	0x3e1a0f5e	0.15044925
170	0xbf0ecf10	-0.557847
171	0x3d01c901	0.031685833
172	0xbcdf56e2	-0.027263109
173	0xbece42db	-0.40285382
174	0x3d1830b1	0.03715581
175	0xbf42daed	-0.76115304
176	0x3e7afb51	0.24509932
177	0xbece685e	-0.40314
178	0x3bb56793	0.0055360286
179	0x3e2afac9	0.1669723
180	0x3f3d0624	0.73837495
181	0x3d45885f	0.048225757
182	0xbf1081c6	-0.5644802
183	0x3d40f61c	0.04710971
184	0xbda64709	-0.08119018
185	0x3e60fcf1	0.2197149
186	0xbdaa26b7	-0.083081655
187	0x3e340c3d	0.17582794
188	0x3e02daa5	0.12778719
189	0xbbdc2ea0	-0.0067194253
190	0x3ccea464	0.025224872
191	0xbe75506b	-0.23956458
192	0x3c7fa9fd	0.015604493
193	0x3e4ed950	0.20200086
194	0xbda3311f	-0.079683535
195	0x3df7ecbc	0.121057004
196	0x3e88918a	0.26673537
197	0xbf2b0529	-0.6680475
198	0x3d6cdce6	0.057827853
199	0x3ebe60a1	0.37183097
200	0x3f0f53f4	0.5598748
201	0xbe7ef2f6	-0.2489737
202	0xbdb0470e	-0.086073026
203	0x3f23273d	0.6373175
204	0xbc00ddcf	-0.007865383
205	0xbd57d442	-0.05269266
206	0x3eb29eee	0.3488688
207	0xbf4bbb68	-0.79582834
208	0x3d9f2b81	0.077719696
209	0x3dd77a45	0.10521368
210	0xbec7ebeb	-0.3904718
211	0x3e53ed8f	0.2069609
212	0xbd2556d8	-0.040366024
213	0xbc87e8a2	-0.01659042
214	0x3d0d5f65	0.034514803
215	0x3d94c030	0.07263219
216	0xbe8ac085	-0.27100006
217	0xbf3d09f9	-0.7384334
218	0x3e96011a	0.29297715
219	0x3df586b2	0.11988582
220	0x3e0af21f	0.13568924
221	0xbc613d02	-0.013747456
222	0x3d89fdc7	0.06737857
223	0x3d7688aa	0.060188927
224	0x3e32ebf3	0.1747282
225	0xbf835a6a	-1.0261967
226	0x3ca50620	0.020144522
227	0xbe048c0c	-0.12944049
228	0xbd31149a	-0.043232538
229	0x3df81215	0.12112824
230	0x3e9608cf	0.29303595
231	0x3df5e3ce	0.12006341
232	0x3f15ebbe	0.5856284
233	0x3ec9cb99	0.39413145
234	0xbeafdccd	-0.34348145
235	0xbf13ca5a	-0.5773064
236	0xbf2b4411	-0.66900736
237	0xbd8ab9c9	-0.06773717
238	0x3ed00db7	0.40635464
239	0xbf5bf14c	-0.85915065
240	0xbe051ac9	-0.12998499
241	0xbe0cdcc6	-0.13756093
242	0xbe35cf1b	-0.17754786
243	0x3e36e776	0.17861733
244	0xbf4b5d50	-0.7943926
245	0x3e327178	0.17426097
246	0xbd1af062	-0.037826903
247	0xbee6d109	-0.45081356
248	0xbf73c2f6	-0.9521936
249	0x3e8575cc	0.26066434
250	0xbdca2cbb	-0.09871813
251	0x3dd99357	0.10623806
252	0xbe28447a	-0.16432372
253	0x3f2ea824	0.6822531
254	0xbe0e1a45	-0.13877209
255	0x3e9c2da9	0.30503586

bias f4 [10]
0	0xbc032aed	-0.00800584
1	0x3e7cf533	0.24702911
2	0x3e727b8a	0.23679939
3	0xbeb7e4a5	-0.3591663
4	0x3f76dac3	0.96427554
5	0xbfcaf6b7	-1.5856541
6	0x3f9554c1	1.166649
7	0x3ec41f6a	0.38305217
8	0xbfaf0f48	-1.3676538
9	0xbe777ca2	-0.24168637
