model1_Linear1/model1_Linear1_Scripted_mnist.pt (torch, 130513 bytes, 6 tensors)

weight f4 [36, 784]
000000 a6 48 ff 3c 03 2d 8e bc 93 73 cd bc 72 f2 ec 3c
       0.031162571 -0.017355448 -0.025079524 0.0289242
000010 d0 2a 22 bb 3e 36 b3 3c 05 a2 d4 bc 20 cf 19 3c
       -0.0024744757 0.02187645 -0.025956163 0.009387761
000020 f8 93 eb bc 50 82 51 3c 18 a4 f3 bc da c4 93 bc
       -0.02875708 0.012787417 -0.029741332 -0.018038202
000030 9d 96 b5 bd 00 27 81 bd 8c e7 87 bc 80 ae d8 3c
       -0.08866618 -0.06306267 -0.016589902 0.026450396
000040 ae 6f 8a bc f3 47 03 3d 10 56 65 3b 10 f8 5e 3c
       -0.016898956 0.032051038 0.0034993924 0.013608947
000050 aa e0 8f 3c c0 18 c8 3c 9e 81 aa 3c f5 f1 88 bc
       0.017563183 0.024425864 0.02081376 -0.016716937
000060 20 cf a0 bc c0 cb 0b 3c f9 1c 0d 3d fb ed 01 3d
       -0.019630015 0.0085324645 0.03445146 0.031721096
000070 49 ef 0d 3d 47 c3 95 bc 38 41 e4 3b 5a 49 cc 3c
       0.03465203 -0.018281592 0.0069657825 0.02493732
000080 cc 87 00 bd f8 c1 ae bc f1 5f be bd e3 3b f1 bd
       -0.031379506 -0.021332726 -0.09295643 -0.117790006
000090 4c c3 05 be 48 2e 6e 3c ca 0c be 3d 60 13 2c 3e
       -0.13062781 0.0145374015 0.09279783 0.16804266
0000a0 11 7e 0c 3e 25 6c 29 3e 78 7b 32 3e 1a 53 0b 3d
       0.13719966 0.1654516 0.17429912 0.0340148
0000b0 3b 86 a1 be fd 2e df bb 1e 06 da 3d 85 c3 a1 bd
       -0.31547722 -0.0068110214 0.10645698 -0.078986205
0000c0 0f c6 0e be 48 f5 f5 bc 92 37 37 be 2c 1e 7c be
       -0.13942741 -0.030024186 -0.17892292 -0.24620885
0000d0 40 cf d6 3b 6e 61 07 bc a6 0e a5 3c 44 ca 11 bc
       0.006555468 -0.008262975 0.020148586 -0.008898322
0000e0 ee a0 04 bd de 56 ee bc ab d3 66 3c 16 4c 38 bd
       -0.032380037 -0.029094156 0.0140885515 -0.044994436
0000f0 80 40 64 bd 24 06 cf 3c e6 8b 89 bc 52 a1 95 3b
       -0.055725574 0.025271483 -0.016790342 0.00456635
000100 49 db 72 3b 91 f2 ee be 56 84 0d bf 4c 8e 64 be
       0.0037056974 -0.46669438 -0.55280054 -0.22319907
000110 32 b2 81 3c 0d c6 12 3e 51 ed 0b be a2 a6 84 be
       0.01583204 0.14333363 -0.13664748 -0.2590838
000120 7f aa 32 be 5c 9e 6d 3e 45 df 72 3e 0c f9 ac 3e
       -0.17447852 0.2320494 0.23717983 0.33783758
000130 0d 52 29 3d 6d 79 b3 3d 3e 9f a5 3e 3b f9 7a ba
       0.041338015 0.087633945 0.32348055 -0.00095738814
000140 2b a6 21 be b1 d3 a1 be 54 81 62 3c 26 b1 a5 3c
       -0.15786044 -0.3160682 0.01382478 0.020226073
000150 a7 53 07 3d 70 0f 07 bb f6 4b eb be 55 7b b9 be
       0.03303876 -0.0020608567 -0.4595639 -0.36226907
000160 f0 ec eb 3c 0e 94 2a 3e 3c 40 c7 3d a5 80 84 be
       0.028799504 0.16658041 0.097290486 -0.25879398
000170 5d a8 b6 be 15 95 46 bf 2d d7 e1 be 14 52 4c 3d
       -0.35675326 -0.7757123 -0.4410948 0.049882963
000180 ae 02 e3 3d 14 ba 20 be aa 7d 5a be af cf ba bd
       0.110844955 -0.15695983 -0.21337 -0.09121644
000190 60 f4 a4 bd ce f8 25 3e 61 d3 42 3e a2 f4 57 be
       -0.08054423 0.16208193 0.19025947 -0.21089414
0001a0 c7 dd 98 3e c5 29 c1 3e 3e 45 8b 3e 05 7e 39 3e
       0.29856703 0.3772718 0.27201265 0.18114479
0001b0 8b b0 f1 bd aa e4 0e 3e 58 4e f6 3e 6e ae df 3c
       -0.11801251 0.13954416 0.48106647 0.027304854
0001c0 df a7 01 3d 5a 75 3a bb 18 eb ae be 6f cb 00 3e
       0.031654235 -0.0028451295 -0.34163737 0.12577604
0001d0 1f dc cc 3e 83 d3 77 3e 13 25 c5 3d 2a 2d cb 3c
       0.4001169 0.24201779 0.09626212 0.02480181
0001e0 d1 5e 24 be 0b 08 11 be df 1e f3 bd 4a 46 78 3e
       -0.16051795 -0.14163224 -0.118711226 0.24245563
0001f0 ac 57 46 3e ff 3f 97 bd 7f 21 98 bd 1f 50 2b bd
       0.19369382 -0.07385253 -0.07428264 -0.041824456
000200 3f de 09 bd e9 19 e8 bd 53 38 c2 bd 53 bf 5b be
       -0.033659216 -0.11333067 -0.09483399 -0.21459703
000210 99 56 15 be d3 09 49 3e f7 2c e2 3e 17 0a 31 3e
       -0.14583816 0.19632654 0.4417493 0.17289005
000220 f7 c7 10 3d d3 8f d8 bc af 34 f5 3d 1c bf bb be
       0.03534695 -0.026435768 0.11972939 -0.36669242
000230 b5 84 aa bc 88 9b bc 3c 5d 56 ae be 07 04 b9 be
       -0.020815233 0.023023382 -0.34050265 -0.36135885
000240 5b 78 5c be 2e 4f 90 bc a4 24 17 be f3 8e 91 be
       -0.21530287 -0.01761588 -0.14760071 -0.28429374
000250 7a 47 89 be b4 41 72 be 9d 60 c7 3c bd da 90 3d
       -0.26812345 -0.23657876 0.024338061 0.07072971
000260 d4 fd e5 3c e4 51 ee bd cc 00 ac 3d c8 b9 92 bd
       0.028075136 -0.11636713 0.083985895 -0.07164341
000270 dd ea c0 3d 72 90 aa 3d 06 db 7c be 4b b5 d5 3c
       0.094197966 0.08328332 -0.24692926 0.026087424
000280 23 83 4d 3e 8d ad 28 3d 08 0d e7 3e 78 d9 ff 3e
       0.20069556 0.041181136 0.4512713 0.49970603
000290 73 c1 45 3e 33 37 9f 3e 20 6c 25 3e b9 d2 12 be
       0.19312076 0.310968 0.16154528 -0.14338197
0002a0 03 12 d0 bc d1 97 59 bd f6 60 e6 3e 83 ba ec be
       -0.025399214 -0.0531233 0.4499585 -0.46236047
0002b0 cf 25 64 be a4 38 5d 3e 85 1b 5c be 97 e2 b8 be
       -0.22280048 0.21603638 -0.21494873 -0.36110374
0002c0 75 d9 91 be 4e 71 37 be 59 98 22 3d 8e 2e 97 3d
       -0.2848622 -0.17914316 0.03969607 0.073819265
0002d0 fe 35 3e 3d e9 e3 1a 3c 6f 08 c2 3c f9 62 3d be
       0.04643821 0.009453752 0.023685662 -0.18494786
0002e0 79 56 44 be 91 00 7c be 68 81 07 be 05 15 76 3e
       -0.19173612 -0.24609591 -0.13232958 0.24031456
0002f0 fe 7e 8b 3e 63 1c 6e bd 4f bb 06 3e d3 7b 08 3f
       0.27245325 -0.05813254 0.1315739 0.5331394
000300 da d4 08 3f 7e f2 34 3f 9c 66 9e 3e 35 c5 e2 3d
       0.53449786 0.70682514 0.3093766 0.110727705
000310 e9 9f 00 3c 91 69 81 be 93 c9 a0 3e 43 12 97 be
       0.007850626 -0.25275853 0.3140379 -0.2950612
000320 e3 49 98 bd fc a0 96 3e 66 ff 47 be 2f 93 4e be
       -0.07435968 0.29419696 -0.1953102 -0.20173334
000330 10 da 52 3d 12 b3 70 3d 97 15 3d 3e 8e 51 53 3e
       0.05147749 0.058764525 0.18465267 0.2063658
000340 c1 41 15 3d 31 36 0f be ca e1 ba bd 18 b7 65 bd
       0.03643966 -0.13985516 -0.09125097 -0.056082815
000350 63 3b 89 bd 41 c1 8d 3b 20 c2 9f bd 18 e4 a5 3d
       -0.0670078 0.004326016 -0.07800698 0.08100146
000360 0a cd c4 3d 1f a4 63 3d 4a 7e 89 3e 6a e1 c0 3e
       0.096094206 0.05557644 0.26854163 0.37671977
000370 3c 10 79 3f d9 4f a7 3f a8 7f 9d 3e 3c d2 cc 3d
       0.97290397 1.3071243 0.30761456 0.100010365
000380 be c2 0c bd 55 2e ad be ec e5 c3 3e 8a 10 f4 3d
       -0.034365408 -0.3382441 0.38261354 0.11917217
000390 61 08 95 bd b9 87 8d be 02 9f 31 be 6c 38 1e be
       -0.07276989 -0.2764261 -0.17345813 -0.1545121
0003a0 da 6a 88 bd f3 0b 08 3e 61 13 60 3c 82 f9 84 3e
       -0.06661005 0.13285808 0.013676495 0.2597161
0003b0 35 af 06 3e 24 ba 7f bc 8e 6b 8d 3d 8b 19 0f 3e
       0.13152774 -0.015608344 0.0690528 0.13974588
0003c0 ad ab 14 3e fd 5f cb 3c 1c 11 a1 3b 07 ae a4 3d
       0.14518614 0.024826044 0.0049153697 0.080410056
0003d0 3b 09 c7 3d b8 a5 b6 3e 66 2e a0 3e 3c 5b 3b 3e
       0.097185574 0.35673308 0.312854 0.18296522
0003e0 68 83 71 3f a4 94 b7 3f 78 c1 f6 3e 81 78 b5 3d
       0.94341135 1.4342237 0.4819448 0.08860875
0003f0 8c a8 05 bd 50 e9 6f be e2 6e 13 3f 0c 45 34 3e
       -0.032631442 -0.23428845 0.5759107 0.17604464

bias f4 [36]
000000 14 d8 40 3d 6e 0c 98 3e 98 9f 2a 3e ad 9a 10 3e
       0.04708107 0.29696983 0.16662443 0.14121504
000010 30 3d 89 3e 8c e8 8c 3e fe 90 2f be 74 20 b1 3e
       0.26804495 0.2752117 -0.17145154 0.34595072
000020 7a 3b 21 be d3 a8 00 bd d0 ee 80 3e 0e 89 bb 3e
       -0.15745345 -0.031411003 0.251822 0.36628002
000030 7f 3c 47 3c 55 20 30 be cc e1 69 be df 96 13 be
       0.0121604195 -0.17199834 -0.22840041 -0.14413022
000040 d6 3f 95 be 1e 92 59 3e c5 b3 f9 3e 9b 06 5f be
       -0.29150265 0.21247146 0.48769966 -0.21779864
000050 dd b4 bb 3e b9 ff 8b bd 8d 80 9c be b1 0a b7 be
       0.36661425 -0.068358846 -0.30566826 -0.35750344
000060 4c 43 03 bd 6e ac 31 bd 16 a1 18 3e 26 ff 9e 3d
       -0.0320466 -0.043377332 0.149052 0.077635095
000070 ea b8 60 3e 9c ad a7 3d c4 d6 f9 3d 01 0b 76 be
       0.21945539 0.0818741 0.121991664 -0.24027635
000080 24 e9 44 be 2b 8d c8 bd b3 dc b5 be 61 62 12 3e
       -0.19229561 -0.09792551 -0.35519943 0.14295341

weight f4 [36, 36]
000000 9d de 0a be 3f e6 a6 3e ff 3d b3 be 0c 3f d1 3e
       -0.13561483 0.3259754 -0.35008237 0.40868413
000010 03 93 17 3e 0b f7 27 3d 98 26 e0 bc e5 fd 7d bd
       0.14802174 0.041007083 -0.027362153 -0.06200971
000020 56 0f a9 3e 82 37 0d 3e 67 8c 1a 3e 8b 95 0a bf
       0.33019513 0.13790706 0.15092622 -0.54134434
000030 75 0b 60 be 62 9c 21 bd 23 f5 d7 3e aa 0e 12 bf
       -0.2187937 -0.03945578 0.42179212 -0.57053626
000040 66 df 48 bd fc 5e 27 3f 4d 17 01 be ac a1 14 3d
       -0.049041174 0.6537931 -0.12606545 0.036286995
000050 5a 75 1a be 2a 13 a6 be ba c9 0d 3f 2a 53 75 be
       -0.15083829 -0.32436496 0.55385935 -0.23957506
000060 bc bb 35 3f 8d b0 99 bc 26 3c 89 3d d7 a1 e5 3d
       0.70989585 -0.018760944 0.067009255 0.11212509
000070 cc 6a 2a bf 2c b2 a1 3e 0e de 58 bf 7b 78 0b 3f
       -0.6656921 0.31581247 -0.8471383 0.54480714
000080 8b b2 b2 3d 52 e5 7d 3e 4f 6c 5f 3f b2 51 a1 3d
       0.087254606 0.2479451 0.8727464 0.0787691
000090 67 e2 ed be 2a cd 84 bd c5 ad 37 3e e4 a3 a7 3e
       -0.46461794 -0.064844444 0.17937382 0.32742226
0000a0 75 d4 88 3d 78 23 12 bf 89 35 49 3e de 46 62 3e
       0.06681148 -0.5708537 0.19649328 0.22097346
0000b0 8d dd a9 bc 34 da 8a 3d 1e e8 94 be a3 57 20 3f
       -0.020735526 0.067799 -0.2908334 0.62633723
0000c0 a5 64 9a 3e 13 6b c8 bc 02 fc f6 be 06 81 a2 3d
       0.3015491 -0.02446512 -0.48239142 0.079347655
0000d0 8c aa c1 3d fc 03 13 3f b9 bb 12 3f 7f 99 c9 bd
       0.09456357 0.57427955 0.5731769 -0.0984373
0000e0 f4 e3 02 bf b8 b8 09 3e 9b 7c 6b be c3 68 18 3f
       -0.5112908 0.13449371 -0.22996752 0.59534854
0000f0 c9 af be 3e 2d ec 0f 3e bd 87 00 3b 25 7f 81 3d
       0.37243488 0.14054938 0.0019612156 0.06323079
000100 5c 52 fb be 37 0b 1b 3e 49 7c fe 3e 39 18 3f 3d
       -0.49086273 0.15140997 0.49704197 0.04665396
000110 5c d0 f7 3e dc 2a 7c be 56 bd b8 be 15 5e 83 3e
       0.48401153 -0.24625725 -0.36081952 0.25657716
000120 d7 66 89 be 21 32 3f be 40 f5 d6 3e 5d 30 48 be
       -0.26836273 -0.18671466 0.41983986 -0.19549699
000130 91 b1 92 be 43 2c 1e 3c b3 c7 a5 3e c7 27 5a 3e
       -0.28651097 0.0096541075 0.3237892 0.21304236
000140 14 48 2c bd 39 88 a7 3e 72 75 97 3e a9 5c 31 3e
       -0.042060927 0.32721117 0.2958179 0.17320503
000150 0e 0b ca 3e 13 5b 0b bd a0 24 17 be 67 bd 62 3e
       0.3946156 -0.034022402 -0.14760065 0.22142564
000160 6d 0c 00 3f b2 f8 99 3d 90 c2 ab be c9 1f 99 be
       0.5001896 0.07518138 -0.33546877 -0.29907063
000170 9d a8 3c bc 5f fd 47 be 72 51 8d bd 65 f3 1f 3f
       -0.01151481 -0.19530247 -0.069003 0.62480766
000180 15 2c 32 3e 42 de e5 3d 5a 6b 97 bd 82 fb ee bc
       0.17399628 0.11224033 -0.073935226 -0.029172663
000190 ab c1 9d 3f be 6f a8 3d 10 e2 9e 3e 49 06 cf 3e
       1.2324728 0.08224438 0.31031847 0.40434483
0001a0 8b 40 79 3b 42 82 e4 3d ff f5 5e bd 2c 13 77 3f
       0.0038032855 0.11157657 -0.05443382 0.9651363
0001b0 8d b0 42 3e 16 bb db 3e c7 a7 f3 3e 64 db a7 3e
       0.19012661 0.42916173 0.4758894 0.3278457
0001c0 41 54 0a 3f 08 16 8e 3e 4c 94 34 3e be 63 e5 3e
       0.5403481 0.27751184 0.17634696 0.4480266
0001d0 d4 3d 3a bb c4 7e 5b bf 11 a5 80 be cd 92 d3 3e
       -0.00284182 -0.85740304 -0.25125936 0.41322938
0001e0 d0 09 8c bf c4 f3 d1 3e 37 3e d5 bd 25 a9 bf be
       -1.0940495 0.4100629 -0.10412257 -0.37433735
0001f0 e9 b3 b3 be 21 d8 10 3f 72 52 44 3e 95 b2 e9 be
       -0.35098198 0.56579787 0.19172075 -0.4564406
000200 54 84 b7 3e 11 5a 14 3d ff 3e 1d 3e 1a f3 91 be
       0.35843146 0.036218707 0.15356062 -0.28505784
000210 ea 16 22 3f 75 3c 87 bd 0c 84 26 be 63 d1 bc 3c
       0.63316214 -0.06603328 -0.1626131 0.023049062
000220 ad d2 b8 3e c9 30 4a bf 28 72 01 3f 06 d8 ba 3d
       0.36098233 -0.7898069 0.50564814 0.091232345
000230 33 40 99 bf d5 27 28 be 58 a4 0e 3c d5 88 7f 3e
       -1.1972717 -0.16421445 0.008706175 0.24954541
000240 92 b5 14 3f ac 46 2e 3e 09 04 d7 bd fa 97 09 3d
       0.58089554 0.17019147 -0.104988165 0.0335922
000250 98 26 7e be 33 ef 6c 3e 8c 50 1e be a2 81 41 3e
       -0.2481941 0.23138122 -0.15460414 0.18897107
000260 1a 71 b7 be 01 0c e5 3d 54 07 e9 3e a2 dd 0b bf
       -0.35828477 0.1118393 0.45513403 -0.5463506
000270 07 93 23 bc 37 0f 28 bf b7 06 ef 3e 31 4f 46 3e
       -0.0099837845 -0.65648216 0.4668481 0.19366147
000280 77 6c fb bd 0a e5 6c be 85 ae 02 3f 65 a8 77 3e
       -0.122765474 -0.23134246 0.51047546 0.24185331
000290 c5 6e fe 3e 41 48 02 3f 50 0f 86 3e 00 44 1c bf
       0.49693885 0.508915 0.26183558 -0.6104126
0002a0 32 e9 8c be 27 8e cf be 03 41 0c 3f 50 de 71 be
       -0.27521664 -0.4053814 0.547867 -0.23619962
0002b0 68 2a d0 3d de 8a c4 3e c6 71 4e 3e 39 b1 49 bf
       0.10164338 0.38387197 0.20160589 -0.78786045
0002c0 68 eb 69 bd d7 28 10 3d 20 9f ce be 99 77 64 bf
       -0.057109267 0.035195198 -0.40355778 -0.8924499
0002d0 2c c2 e3 3d a3 4d 1e bd 07 fd 01 3f fa 51 8b bd
       0.1112102 -0.03864826 0.50776714 -0.06802745
0002e0 5d 60 33 3d 76 01 9a 3e 63 a5 1e 3f aa c4 b8 bd
       0.04379307 0.3007924 0.6197111 -0.09021886
0002f0 75 41 7b be 6e bc b9 bd 3c e7 73 3e dc 73 99 3e
       -0.24536689 -0.09069143 0.23818678 0.29971206
000300 80 4d 24 bf c3 05 b2 3e 69 d4 43 3e 17 f2 1b 3e
       -0.64180756 0.3477002 0.19123997 0.15229069
000310 75 a5 98 bd 61 a7 77 3e f3 5f 03 be 1d 1e 00 bf
       -0.074534334 0.24184944 -0.1282957 -0.5004595
000320 c4 0f b7 bd b7 79 ac 3e fe 59 e8 3b d9 74 a5 be
       -0.08938554 0.3368661 0.007090806 -0.3231571
000330 b0 92 f1 bd ba 1c ba 3d e2 d7 c3 bc 42 39 1d 3e
       -0.117955565 0.090875104 -0.023906652 0.15353873
000340 ee 9e 0b bf ae 19 60 bf d1 bf 9a 3e 0a bc f4 3d
       -0.5453938 -0.87539184 0.3022447 0.11949928
000350 93 f7 9e bf ad 9f 28 3e 4a 09 c4 be cf de fc 3e
       -1.2419304 0.16467161 -0.38288337 0.4938874
000360 a6 5c 12 bd 6d d0 ce 3e 49 32 3a 3e 5b 9d 6c 3e
       -0.035732888 0.4039339 0.18183245 0.23106901
000370 fb 87 84 3c c1 bd af bd 9e d2 36 be c0 67 2e 3e
       0.016178122 -0.085811146 -0.17853782 0.17031765
000380 49 66 92 3d a8 f0 0f 3f 20 90 32 bf a9 96 27 be
       0.071484156 0.5622659 -0.6975117 -0.16366066
000390 f0 33 1d bd 80 84 82 bd 70 7c 4c 3e 4d ff 9a bd
       -0.03837961 -0.063729286 0.19969344 -0.07568226
0003a0 16 37 3b be 09 af 9e 3e cd f7 25 3e 6a 76 d8 be
       -0.18282732 0.30992916 0.1620781 -0.42277843
0003b0 61 47 91 3d f8 29 0d bd 60 37 89 3e de 8f 8c 3d
       0.070936926 -0.034463853 0.2680006 0.06863378
0003c0 ec 23 df be 9f ef 56 bd 98 b2 3f 3d 01 87 ed 3e
       -0.43582094 -0.052474614 0.04680118 0.46392062
0003d0 b8 c8 ae bd 98 0a c1 3e 87 1c c2 be 81 61 9c 3e
       -0.08534378 0.37703395 -0.3791239 0.3054314
0003e0 06 da 61 bf 01 e2 26 be 61 ef 10 bf 04 91 d4 3e
       -0.882233 -0.16297151 -0.56615263 0.41516888
0003f0 0b 92 9d 3e 9a 97 7c be fa 5c 11 bf bf c0 84 3b
       0.30775484 -0.24667206 -0.56782496 0.0040512974

bias f4 [36]
000000 b6 3a 3f bd ce f1 55 3e e9 5d 8a be 63 ba 67 3e
       -0.04668685 0.20893022 -0.27024773 0.22629695
000010 fb f8 57 3e a3 1c 9a bd e3 ae 0f 3e a8 9d d0 be
       0.21091072 -0.07524993 0.14031558 -0.40745282
000020 07 d1 28 3e 47 bc ab 3d d1 6d f0 3d 60 77 16 3e
       0.16485988 0.083855204 0.11739696 0.14693975
000030 11 e9 d9 bd 5e 04 79 bd 60 c2 0f 3e 6f 0d 80 be
       -0.10640157 -0.06079518 0.14038992 -0.2501025
000040 7f c9 b0 3e dd b7 36 bd ab 07 02 3d 81 0f 43 3e
       0.3452873 -0.04460894 0.031745594 0.19048883
000050 61 cf 41 bc 69 02 6f bc 82 58 55 3c f7 79 e5 bd
       -0.011829228 -0.014587977 0.01302159 -0.112049036
000060 b6 5b 8b 3d 3f 38 54 be d1 48 fb 3e c3 d2 e3 bd
       0.06804602 -0.20724581 0.49078992 -0.11124184
000070 e4 8a 27 3e 1a b7 d0 3e 1f d8 30 be c9 8f 3c bd
       0.16361576 0.40764695 -0.17269944 -0.04603556
000080 0c ab fd 3e e7 87 00 3f e8 1c 18 3e e5 be 0f be
       0.4954456 0.5020737 0.14854777 -0.14037664

weight f4 [10, 36]
000000 a6 46 a6 3d 0a 14 0c 3d e6 93 44 3e c4 bc f2 be
       0.08118944 0.0341988 0.19197044 -0.47409642
000010 10 2b 03 3d 72 7a 89 3d df 09 3d bf 73 c9 a1 bf
       0.03202349 0.06712808 -0.7384319 -1.2639602
000020 3a ed fe 3e 78 2b 94 3e ae 69 07 bf ed 7d 3a bf
       0.49790365 0.28939414 -0.5289563 -0.728484
000030 16 80 44 bf f7 1b 55 3d 9a dd b4 be 4b cb f5 be
       -0.76757944 0.052028622 -0.3532532 -0.48006663
000040 49 62 03 bf b4 8a 61 3e c3 45 30 3d 86 8c 4c bf
       -0.51321846 0.22025567 0.04303528 -0.7990192
000050 97 7c 41 3e c9 13 d3 3e 19 c0 62 3e e7 b2 cf be
       0.18895184 0.41226032 0.22143592 -0.4056618
000060 e5 ec a3 3e e7 25 6d bd 65 99 8f bf 2a fa 99 3e
       0.32016674 -0.057897475 -1.1218687 0.30073673
000070 ad 14 03 bf 98 d2 25 3f 34 27 79 3e 1a db d0 3e
       -0.51203424 0.64774466 0.24331361 0.4079216
000080 95 da db be 15 b6 4e 3d 54 2a 87 3e 6a 4a a0 3c
       -0.42940202 0.050466616 0.2639948 0.019566733
000090 85 e7 8c 3e f4 9f 40 bd 1c ea 58 be 01 1e 18 3f
       0.27520385 -0.047027543 -0.21183056 0.5942078
0000a0 5e e6 25 3f 4c ba ca be ea 4a c7 3e a5 59 ad 3e
       0.6480464 -0.39595258 0.38924342 0.33857456
0000b0 c4 4e 65 bf a1 98 50 bf 0b 17 a3 3e 73 a8 6a 3e
       -0.8957331 -0.81482893 0.31853518 0.22915821
0000c0 e0 de ee 3e 42 0e de bc a3 a4 84 3d 5d 63 07 be
       0.46654415 -0.027106408 0.064767145 -0.13221498
0000d0 5e 36 96 3e 8f 06 93 3e 74 fe 05 be 8e 3a 12 3d
       0.29338354 0.2871594 -0.13085347 0.035700373
0000e0 e1 be fc be c8 f5 d6 be a2 d0 d9 be fc 5e ee be
       -0.4936438 -0.4198439 -0.42541987 -0.46556842
0000f0 4c 1f 8f bf 90 e6 56 3d 8f 3a 05 bf 03 81 28 bf
       -1.1181426 0.052465975 -0.5204248 -0.65821856
000100 f0 88 9c be e0 be fa 3d 3e b3 62 3e c8 43 e4 3e
       -0.30573225 0.12243438 0.22138688 0.44582963
000110 69 f6 49 3e 51 0d c9 3d a2 61 2d bf 4b b1 d4 be
       0.19722904 0.09816993 -0.677271 -0.41541514
000120 64 84 a0 bd d5 96 70 3e 3d 96 04 3f a8 3a 17 bc
       -0.078377515 0.23495038 0.51791745 -0.009230293
000130 07 81 90 bf 53 e5 07 be 5d 96 62 bf 48 81 50 bd
       -1.1289376 -0.13271074 -0.88510686 -0.050904542
000140 24 b4 65 3e 42 83 0c be f1 c3 79 3e a9 83 4c 3e
       0.22432 -0.13721946 0.24391152 0.199721
000150 25 4c ab 3e d7 4f f8 bd 9f e7 d5 be f0 6e 1a 3f
       0.3345653 -0.12124603 -0.41778275 0.6032553
000160 86 48 bb 3e 1b aa e2 be 00 3a 4d bc 71 07 90 bd
       0.36578768 -0.44270405 -0.012526035 -0.07032669
000170 ac 21 3b 3e d1 e5 e4 3d 30 d4 21 3e ba ee e8 3e
       0.18274564 0.111766465 0.158036 0.45494634
000180 38 1e 20 3e 16 b0 70 bd a7 26 00 3e 65 c5 09 bf
       0.15636528 -0.05876168 0.12514745 -0.53816825
000190 6f c7 5a 3e c2 af 36 bd ca 2e 7d be d1 bc 6a 3e
       0.2136514 -0.04460121 -0.2472488 0.2292359
0001a0 b6 6c 48 bf d6 b4 83 bf 88 89 33 be ec b1 82 3e
       -0.7829088 -1.0289562 -0.17532933 0.2552637
0001b0 e6 a1 94 3e 43 47 a2 be b5 92 c3 be 2a 47 6d bf
       0.2902977 -0.31694993 -0.38197866 -0.9268671
0001c0 02 5b 09 bf f8 99 38 3e fe 34 a6 bc ef 4c ca 3e
       -0.5365449 0.18027484 -0.02028894 0.3951182
0001d0 2c fa d0 3d e2 93 65 3e 74 60 ff 3e fd 87 27 3e
       0.102039665 0.22419694 0.49878275 0.16360469
0001e0 2d 7b 6f bd 69 d0 9a 3d 2e a1 4e 3e 54 9d a1 3d
       -0.05846708 0.07559282 0.20178673 0.07891336
0001f0 eb 11 88 bf c4 06 bf 3d dd 7d 0f bd 33 6e 7e 3e
       -1.0630468 0.09327462 -0.035032142 0.24846725
000200 d8 69 03 3f a7 e6 e5 bb b6 a0 b8 3d ab 07 57 bf
       0.5133338 -0.0070160213 0.09015028 -0.83996075
000210 4f b3 c6 bc 5b 43 40 bd da d2 33 bf a2 23 41 be
       -0.024255423 -0.046939235 -0.7024361 -0.18861249
000220 d2 4c df 3d f5 36 10 bd 59 e3 10 3f 74 6a 64 be
       0.10903324 -0.03520866 0.56596905 -0.22306234
000230 b0 6a f6 3d 96 5a 7b be d6 e1 ad be 44 df 16 3e
       0.12032068 -0.24546275 -0.33961362 0.14733607
000240 02 7b f3 bd 65 e5 a8 bf 6d 44 e5 be d0 04 56 3f
       -0.11888696 -1.3195006 -0.44778767 0.83601093
000250 4a e0 c9 bd d3 b4 d9 3e 55 b0 96 bf 53 31 af 3d
       -0.09857233 0.4252077 -1.1772562 0.0855433
000260 5f 01 08 3f cd a3 c0 bd cb 33 ac be 47 04 20 3e
       0.5312709 -0.094062425 -0.33633265 0.15626632
000270 68 f8 9f bf 09 12 ff 3d bb 22 9a 3e ef e6 5a bf
       -1.2497683 0.12454612 0.30104622 -0.85508627
000280 2d d5 0a 3f d8 e2 6c bf f1 d4 0b be a1 b1 9c 3e
       0.5423153 -0.92533636 -0.1365545 0.3060427
000290 08 9b 2c 3e 1e 52 a9 bd 26 98 df 3d 80 46 db be
       0.16856015 -0.08267616 0.10917692 -0.42827225
0002a0 b5 52 af be ac e9 17 bd a9 0d ab 3e 7d 14 08 3e
       -0.34242788 -0.03708808 0.3340886 0.13289066
0002b0 3f 60 77 3d 64 bb 24 bf 22 4f 7e bf 55 ac e6 be
       0.06039452 -0.64348435 -0.993395 -0.45053354
0002c0 25 60 19 be b7 b7 ec 3e 20 86 3b 3e ca f9 9f be
       -0.14978082 0.46233913 0.18312883 -0.3124526
0002d0 54 4a 2d bf 8b 7f 8f 3f 78 ab 88 be 76 1b c5 3d
       -0.6769154 1.1210798 -0.2669332 0.096243784
0002e0 ef 99 fb 3e 2e 4b 44 bf 8c 62 0a 3e 7f d5 eb 3d
       0.4914088 -0.76677215 0.13514155 0.115153305
0002f0 6a 18 3a bf f4 fc 83 3e 43 43 26 be e6 eb 38 3e
       -0.726935 0.25778925 -0.16236596 0.18058738
000300 81 f4 fd bd 3a f0 07 be 18 a0 86 3e b4 a8 74 bf
       -0.12400151 -0.13275233 0.26294017 -0.9556992
000310 ae 10 9a be 1e c1 cd 3e 38 6c d1 3d fe 61 29 bd
       -0.3009085 0.401864 0.10225719 -0.04135322
000320 91 97 43 3b a5 bd e3 3d 99 1b b5 be f4 2b b2 3e
       0.002984498 0.11120156 -0.35372618 0.3479916
000330 2f 06 50 3d 7e 9c 86 bd 7a 3a 48 3f 86 aa fd bd
       0.050787147 -0.06572817 0.7821423 -0.123860404
000340 76 1d 90 be dc 87 e5 3e 57 3e 34 3e a5 cd b3 be
       -0.28147477 0.44830215 0.17601906 -0.35117832
000350 67 0e c8 3b da 58 66 be d2 af 84 3e 64 8d 7e 3e
       0.0061052325 -0.22494832 0.2591539 0.24858624
000360 d8 04 2e bf f2 36 ff bd 21 0e 86 3e ec 74 ef be
       -0.6797614 -0.12461652 0.26182655 -0.46768892
000370 2b 44 b7 3e bb 17 0a 3f 1d 0a 0a 3f 3d 66 19 bf
       0.35794196 0.5394246 0.5392168 -0.5992163
000380 c6 c7 c2 3d a9 e5 81 bf 8e 44 63 bf 2a bd 2a 3e
       0.0951076 -1.0148212 -0.8877648 0.16673723
000390 35 d1 53 3e 06 9f 95 3c f4 c8 f8 3e 08 23 9f bc
       0.20685275 0.018264305 0.48590815 -0.019425884
0003a0 c2 9f 8f 3c 4b f9 aa 3d c8 81 05 3d d4 58 8e 3d
       0.017532233 0.0834833 0.032594472 0.06950536
0003b0 93 3a 14 3e 5c cb 8d 3e a3 09 09 bf 9b 0e b6 3e
       0.1447547 0.27694213 -0.5353033 0.35558018
0003c0 46 d4 32 bf 39 f4 a7 3d ee 59 ab be 17 1b 60 3e
       -0.69855154 0.08200879 -0.33467048 0.21885334
0003d0 0b a0 09 be f5 64 16 3e a0 32 a0 bf 32 64 08 3f
       -0.13439958 0.1468695 -1.251545 0.53277886
0003e0 8e 1f ba be 57 4e a8 3d 24 aa 9c 3e c8 eb ae be
       -0.363522 0.08218067 0.30598557 -0.34164262
0003f0 95 71 a0 3e fc 39 03 3e cb 68 12 3e e4 60 4a bc
       0.31336656 0.12815088 0.14297788 -0.012352202

bias f4 [10]
000000 2b b2 a8 be 23 97 dc 3d a2 01 95 3b 39 ce 20 be
       -0.3294843 0.107710145 0.004547314 -0.15703668
000010 68 0c 90 3e 48 39 ad 3d 00 49 1c be 1d 2c 33 3e
       0.28134465 0.08458191 -0.15262222 0.17497297
000020 a8 b7 f0 3c 06 6b 03 3e
       0.02938445 0.12833795
