model1Linear/model1LinearScripted.pt (torch, 130260 bytes, 6 tensors)

weight f4 [36, 784]
0.025770437 0.0028348751 -0.0030827187 -0.003339894 0.031030241 0.010571975 0.003421452 -0.02380215
-0.024355382 -0.034561053 0.007929821 0.034503903 0.009760238 0.006018758 -0.012142228 -0.025610294
-0.020096887 0.031163272 0.013734613 -0.013698796 0.025369495 0.019269757 -0.0167512 0.016774766
0.027738575 0.016741395 0.023211304 -0.0060760044 -0.013657814 -0.024637815 -0.03246572 -0.01512135
0.014679619 -0.021986317 -0.036803197 -0.061619587 -0.0329905 -0.0492272 -0.09820306 -0.11845655
-0.06131232 -0.064397275 -0.15322013 -0.15374054 -0.22723372 -0.21557829 -0.12753221 -0.14418687
-0.0992394 -0.02682986 -0.084663264 -0.08575756 -0.02814162 0.009559654 0.0032564998 0.016017184
0.034230363 0.0024310239 0.025086429 0.17653203 0.18057229 0.0003206439 -0.03462581 -0.13666888
-0.18218684 -0.24344274 -0.37243947 -0.28532642 -0.26709706 -0.34025714 -0.010637048 0.088620335
-0.1591049 -0.20061988 -0.31917465 -0.17289653 -0.170316 -0.15948942 -0.12563857 -0.17101331
-0.02376653 0.006712429 -0.013064841 0.016225666 0.004028123 -0.017850898 0.16649969 0.16720349
0.124065205 0.05993911 0.028944941 -0.032094993 -0.26335436 -0.2911587 -0.2828109 -0.14530382
-0.17458503 -0.19495492 -0.22408098 -0.375142 -0.46318445 -0.35335523 -0.26294515 -0.26988682
-0.3133925 -0.28072286 -0.12236401 -0.018580854 0.01760531 0.03845375 -0.01633659 -0.025565123
-0.009483045 -0.0034126006 0.1368887 0.07564441 0.108868554 0.07187152 0.07815321 -0.03673319
0.17556694 -0.00411008 0.07686303 0.09483038 0.08437438 0.1263558 -0.008699248 -0.16569926
-0.26107797 -0.29989275 -0.44252118 -0.38904402 -0.51111627 -0.31892732 -0.25000647 -0.11856168
0.013677935 -0.05015979 -0.053843144 0.03353137 0.011261888 0.03356095 0.10931748 0.18758559
0.30837774 0.2601763 0.20344837 0.16090482 0.11316704 0.092985615 0.12958476 0.11282844
0.07269032 -0.03903853 -0.06664769 -0.07587116 -0.20853095 -0.36252832 -0.451466 -0.3927142
-0.64784646 -0.52932537 -0.4078865 -0.36631885 -0.20352907 -0.15370205 -0.13493717 -0.0828808
-0.0036027431 0.01852484 -0.072685055 0.28031746 0.22387753 0.13704975 0.19238277 0.10779479
0.19838747 0.101309955 -0.0017166468 0.05211353 -0.0747371 -0.07066329 -0.060912322 -0.045823038
-0.011372485 -0.109819576 -0.10819738 -0.27383798 -0.3024689 -0.15730645 -0.42979547 -0.3742032
-0.2859942 -0.13314715 -0.1165837 -0.049074687 -0.0008498582 0.1872659 0.07520913 0.38114774
0.22320272 0.07729383 0.13958901 0.02249049 0.07146158 0.04064647 -0.095958956 0.0148656545
0.07063899 0.0711397 0.12874433 0.090649515 0.09455947 0.07608645 -0.13279408 -0.2453925
-0.23536491 -0.22085568 -0.31948724 -0.48823258 -0.50462025 -0.31228614 -0.11947952 -0.11245959
-0.088648014 0.25270844 0.059629146 0.08289688 0.316571 0.119153984 0.16670556 0.11434227
0.025757004 -0.03029939 0.014489029 0.0068802065 0.026172554 0.1498283 0.31303582 0.23867413
0.015705189 -0.08058949 -0.20499438 -0.26862377 -0.2755916 -0.24046835 -0.28798622 -0.33837536
-0.4593988 -0.26675805 -0.07549037 -0.07520954 -0.00470634 0.2437731 0.08305566 0.08170524
00000000: 861c d33c 50c9 393b 7007 4abb 20e2 5abb
00000010: 2233 fe3c 1436 2d3c 703a 603b bafc c2bc
00000020: f084 c7bc e48f 0dbd 14ec 013c f753 0d3d
00000030: 68e9 1f3c 0039 c53b 32f0 46bc aecc d1bc
00000040: 3aa2 a4bc 1e4a ff3c 2407 613c ea70 60bc
00000050: b0d3 cf3c 9cdb 9d3c d039 89bc 3c6b 893c
00000060: 023c e33c 4025 893c a225 be3c 3819 c7bb
00000070: 06c5 5fbc 3ed5 c9bc c6fa 04bd 8abf 77bc
00000080: c982 703c a61c b4bc f3be 16bd d264 7cbd
00000090: 0c21 07bd 76a2 49bd b01e c9bd 5999 f2bd
000000a0: a122 7bbd b8e2 83bd bde5 1cbe 296e 1dbe
000000b0: f5af 68be 8ec0 5cbe ce97 02be b9a5 13be
000000c0: 073e cbbd 4bca dbbc ef63 adbd a9a1 afbd
000000d0: 4189 e6bc 18a0 1c3c 006b 553b 7836 833c
000000e0: 2335 0c3d d051 1f3b 0e82 cd3c d0c4 343e
000000f0: f1e7 383e 191c a839 cbd3 0dbd edf2 0bbe
00000100: 308f 3abe 0e49 79be 63b0 bebe 4e16 92be
00000110: f2c0 88be 2f36 aebe 0347 2ebc 947e b53d
00000120: 65ec 22be 4c6f 4dbe dc6a a3be ca0b 31be
00000130: 5167 2ebe 3251 23be 66a7 00be 1d1e 2fbe
00000140: 07b2 c2bc f0f3 db3b ea0d 56bc b0eb 843c
00000150: 58fe 833b 0c3c 92bc e57e 2a3e 6437 2b3e
00000160: e615 fe3d b682 753d f11d ed3c 0a76 03bd
00000170: 62d6 86be c112 95be 97cc 90be 86ca 14be
00000180: 6bc6 32be 43a2 47be 7c75 65be 9d12 c0be
00000190: 8326 edbe faea b4be bfa0 86be 9b2e 8abe
000001a0: fb74 a0be e8ba 8fbe fb99 fabd e036 98bc
000001b0: 0339 903c ae81 1d3d 50d4 85bc f36d d1bc
000001c0: c65e 1bbc f0a5 5fbb 8d2c 0c3e 75eb 9a3d
000001d0: 7af6 de3d 6031 933d ca0e a03d 8b75 16bd
000001e0: d2c7 333e daad 86bb 5d6a 9d3d 6e36 c23d
000001f0: 7acc ac3d 6a63 013e 4a87 0ebc 11ad 29be
00000200: 03ac 85be 8b8b 99be 2392 e2be c730 c7be
00000210: 84d8 02bf 714a a3be d900 80be 77d0 f2bd
00000220: 6b19 603c 5a74 4dbd a18a 5cbd 3158 093d
00000230: c883 383c 3577 093d d8e1 df3d 7016 403e
00000240: b0e3 9d3e d435 853e c554 503e 3cc4 243e
00000250: 1fc4 e73d 3e6f be3d deb1 043e 9912 e73d
00000260: aade 943d dee6 1fbd 967e 88bd 5762 9bbd
00000270: 2389 55be 509d b9be 8d26 e7be d611 c9be
00000280: 44d9 25bf de81 07bf 80d6 d0be 258e bbbe
00000290: ed69 50be 1264 1dbe f82c 0abe 69bd a9bd
000002a0: 001c 6cbb 68c1 973c e7db 94bd c585 8f3e
000002b0: 2740 653e c556 0c3e fdff 443e 84c3 dc3d
000002c0: 1626 4b3e 987b cf3d 1c01 e1ba ff74 553d
000002d0: c40f 99bd eab7 90bd 337f 79bd f0b0 3bbd
000002e0: a953 3abc 16e9 e0bd 9796 ddbd 7e34 8cbe
000002f0: 34dd 9abe f114 21be 270e dcbe 9097 bfbe
00000300: d56d 92be ba57 08be 6fc3 eebd 8a02 49bd
00000310: 05c9 5eba a2c2 3f3e 3f07 9a3d cc25 c33e
00000320: 418f 643e 3a4c 9e3d 6cf0 0e3e fa3d b83c
00000330: 735a 923d ea7c 263d 2186 c4bd 138f 733c
00000340: 2dab 903d b1b1 913d 8ed5 033e 74a6 b93d
00000350: 65a8 c13d 36d3 9b3d 2cfb 07be 2c48 7bbe
00000360: 8003 71be fe27 62be d593 a3be 9ff9 f9be
00000370: cb2e 01bf f8e3 9fbe aeb1 f4bd 3751 e6bd
00000380: 178d b5bd 0063 813e b13d 743d d7c5 a93d
00000390: 9815 a23e 0107 f43d ddb4 2a3e 482c ea3d
000003a0: 5a00 d33c 6d36 f8bc 6463 6d3c 5b73 e13b
000003b0: d367 d63c 976c 193e 3b46 a03e fe66 743e
000003c0: 2ba8 803c 1a0c a5bd 0cea 51be 0e89 89be
000003d0: 581a 8dbe 563d 76be ee72 93be 893f adbe
000003e0: 5236 ebbe 8394 88be b29a 9abd 7607 9abd
000003f0: a437 9abb a89f 793e 1619 aa3d 1455 a73d

bias f4 [36]
0.19136226 0.17668697 0.0056308387 0.22041012 0.12778164 0.088880956 0.3102875 0.070493184
0.27530253 -0.10235196 0.14466244 0.1806894 -0.3548304 -0.016846467 -0.060860794 0.15045457
0.0573404 0.011991366 -0.002852941 0.12141005 -0.010069729 0.04184294 -0.035701912 -0.14866854
0.13366386 0.17897442 -0.06795601 0.16023603 -0.29038337 0.07467351 0.010899034 0.15221204
0.21495394 -0.033436924 -0.029945644 -0.0061617997
00000000: 78f4 433e 6eed 343e e682 b83b 31b3 613e
00000010: 31d9 023e 3807 b63d 01de 9e3e bb5e 903d
00000020: 74f4 8c3e e89d d1bd 6422 143e a406 393e
00000030: 55ac b5be 9a01 8abc 2b49 79bd c310 1a3e
00000040: c4dd 6a3d 6f77 443c 68f8 3abb d5a5 f83d
00000050: 81fb 24bc 8163 2b3d 2b3c 12bd 913c 18be
00000060: 2edf 083e 1245 373e 852c 8bbd ea14 243e
00000070: 21ad 94be 6dee 983d dd91 323c 79dd 1b3e
00000080: e31c 5c3e 28f5 08bd 9150 f5bc ece8 c9bb

weight f4 [36, 36]
0.2584062 -0.185039 0.080764934 0.23388922 0.60777634 -0.19905725 -0.42520353 0.16231567
0.0638056 0.23246273 0.27700424 0.086866304 0.31646818 -0.020348419 0.0043840813 0.11915847
0.06864844 0.15213743 -0.10447181 0.14977682 0.34042713 0.09793027 0.2234066 -0.77351165
0.1464904 -0.035684224 0.32478362 0.1715822 0.13919201 0.27396506 -0.29635695 0.0915646
0.39685598 -0.18287887 0.16327469 -0.066781044 -0.33498105 -0.014767231 0.027482593 -0.32649088
-0.11913961 0.3530204 -0.102677196 0.36619404 0.3675683 0.062046077 0.051791117 -0.48295876
0.11793161 -0.1573466 -0.24730705 -0.042662177 -0.03204324 0.18421751 0.4795036 0.27955398
0.056890365 -0.22009617 0.36544383 -0.35533324 0.31970105 0.24362706 -0.1765899 0.36000228
0.25280175 0.3031943 -0.0587539 -0.24835193 0.013678886 -0.123244375 0.12565374 0.010545639
-0.24524169 -0.27778417 0.32970074 0.16869938 0.6764903 -0.09081284 -0.16790514 0.15250465
-0.20247465 -0.06241515 -0.06767086 -0.19277339 -0.28876525 0.3239804 0.4427416 -0.112338185
0.233343 0.4092582 -0.34896678 0.028166708 -0.06153743 0.32494178 0.035548307 -0.26286426
-0.22288276 0.21775094 0.27042288 0.33191264 -0.045402363 0.22348274 0.12691422 0.40544847
0.016399156 0.048966493 0.096100464 0.32447687 -0.37971073 -0.23192087 0.18839219 -0.3970462
-0.23307408 0.08972762 0.48865446 0.19690686 0.14145686 -0.28834873 -0.0028102596 -0.3738029
-0.27372664 0.3427201 0.16995487 -0.27732816 0.3059703 0.21332723 -0.09193543 0.24669194
-0.44022167 -0.1917504 0.28143698 -0.14050259 -0.23418295 0.19661924 -0.023190271 0.32238775
0.27216148 0.07266504 0.357684 -0.18091485 -0.32148063 0.30963522 -0.21424307 0.28386799
0.2985731 0.22386967 0.22934513 0.18527031 -0.050788436 -0.096982814 0.37500334 0.30110684
-0.1252425 0.03120909 -0.2610747 -0.38540363 0.21763532 0.22317058 -0.26218587 -0.38202742
0.1584411 0.17162243 -0.14317034 0.32063937 -0.081582054 -0.09750889 0.15821023 0.032980256
-0.48851973 0.13657992 0.18039797 -0.06419533 0.109598145 -0.12604637 0.16684724 0.11978377
-0.3223514 0.065582894 -0.3418421 0.26732674 0.2914848 0.06902392 -0.25968748 -0.47449413
-0.32201833 0.054782327 -0.5265475 -0.2178508 0.26498544 0.32824802 -0.056848574 -0.23815247
-0.038071517 0.3904859 0.5045546 -0.062280633 0.037155066 -0.005504796 0.019017078 0.07984534
0.059454534 0.13705112 0.098455355 -0.9081458 0.2872816 0.054001022 0.29758644 0.13905703
0.11816636 0.25477347 -0.080248 -0.15800044 -0.16997401 0.115188226 0.24830854 -0.08543468
-0.58303064 -0.14377566 0.020069065 0.4441394 0.25236863 -0.01759201 0.30550766 0.21871056
-0.013908873 0.060433634 -0.27842653 0.353697 -0.8465299 -0.02697745 0.20938388 0.2585687
0.052615896 0.033849217 0.2485308 -0.16162711 -0.57052135 0.024836149 -0.2109429 0.36579785
0.26923323 0.26430628 -0.23859935 0.12897667 -0.015259588 -0.05527842 0.253615 0.23468548
0.16137694 0.3409085 0.12519403 0.13271064 0.4177834 0.29185116 0.2909909 -0.35793567
00000000: d14d 843e dd7a 3dbe 1668 a53d a880 6f3e
00000010: 3b97 1b3f aad5 4bbe 47b4 d9be 1436 263e
00000020: 83ac 823d b60a 6e3e 80d3 8d3e f6e6 b13d
00000030: 1e08 a23e bab1 a6bc 57a8 8f3b 5b09 f43d
00000040: 8e97 8c3d eac9 1b3e 51f5 d5bd 185f 193e
00000050: 774c ae3e aa8f c83d b3c4 643e dc04 46bf
00000060: 9401 163e 9f29 12bd 0a4a a63e 3fb3 2f3e
00000070: 5a88 0e3e 2645 8c3e 19bc 97be 3986 bb3d
00000080: b530 cb3e 9944 3bbe 7b31 273e 80c4 88bd
00000090: a382 abbe 42f2 71bc 2d23 e13c d029 a7be
000000a0: 78ff f3bd 17bf b43e 6c48 d2bd c97d bb3e
000000b0: ea31 bc3e 0724 7e3d ec22 543d 5f46 f7be
000000c0: 2186 f13d 781f 21be 0f3e 7dbe 89be 2ebd
000000d0: c63f 03bd 84a3 3c3e 7f81 f53e b321 8f3e
000000e0: df05 693d e460 61be 741b bb3e 3dee b5be
000000f0: dbaf a33e 5f79 793e fcd3 34be 3852 b83e
00000100: 3b6f 813e 493c 9b3e eea7 70bd f84f 7ebe
00000110: 681d 603c 8c67 fcbd 60ab 003e 9ec7 2c3c
00000120: a320 7bbe ba39 8ebe 89ce a83e 88bf 2c3e
00000130: 782e 2d3f 15fc b9bd 53ef 2bbe 2e2a 1c3e
00000140: 8455 4fbe 07a7 7fbd 0597 8abd 6366 45be
00000150: 0ad9 93be c2e0 a53e 07af e23e 9011 e6bd
00000160: 78f1 6e3e 4a8a d13e c6ab b2be debd e63c
00000170: ac0e 7cbd c55e a63e 1a9b 113d 2596 86be
00000180: 613b 64be 1afa 5e3e de74 8a3e 74f0 a93e
00000190: d4f7 39bd a9d8 643e cdf5 013e f196 cf3e
000001a0: 8657 863c 1791 483d 52d0 c43d d521 a63e
000001b0: 7269 c2be aa7c 6dbe e2e9 403e a449 cbbe
000001c0: f9aa 6ebe 1dc3 b73d eb30 fa3e f4a1 493e
000001d0: 11da 103e 72a2 93be 552c 38bb 1863 bfbe
000001e0: e625 8cbe 0279 af3e a608 2e3e f5fd 8dbe
000001f0: 24a8 9c3e 7472 5a3e a548 bcbd d09c 7c3e
00000200: bc64 e1be 385a 44be 8218 903e e9df 0fbe
00000210: a8cd 6fbe 8e56 493e 86f9 bdbc 0210 a53e
00000220: c058 8b3e 69d1 943d 5b22 b73e be41 39be
00000230: 1c99 a4be 8288 9e3e 8962 5bbe 2557 913e
00000240: 93de 983e 173e 653e 73d9 6a3e 80b7 3d3e
00000250: 8907 50bd ed9e c6bd 7000 c03e ad2a 9a3e
00000260: 923f 00be 35aa ff3c 95ab 85be a053 c5be
00000270: cbdb 5e3e d486 643e 3a3d 86be 1999 c3be
00000280: 623e 223e cabd 2f3e 3f9b 12be d82a a43e
00000290: 7e14 a7bd beb2 c7bd dd01 223e 4e16 073d
000002a0: 421f fabe 9bdb 0b3e 3fba 383e d778 83bd
000002b0: fe74 e03d 4d12 01be 01da 2a3e 3151 f53d
000002c0: 3e0b a5be 5350 863d ed05 afbe 0ddf 883e
000002d0: 7f3d 953e 6a5c 8d3d c2f5 84be e5f0 f2be
000002e0: 96df a4be 6f63 603d d1cb 06bf 4814 5fbe
000002f0: 2cac 873e 2010 a83e 0dda 68bd 3ede 73be
00000300: e1f0 1bbd c5ed c73e 7e2a 013f fa19 7fbd
00000310: e92f 183d 9361 b4bb b4c9 9b3c f485 a33d
00000320: 9986 733d 2157 0c3e f6a2 c93d 3e7c 68bf
00000330: 9316 933e 2d30 5d3d 405d 983e f764 0e3e
00000340: 3401 f23d ab71 823e 1059 a4bd deca 21be
00000350: ab0d 2ebe cee7 eb3d 9844 7e3e 61f8 aebd
00000360: 7f41 15bf ed39 13be e167 a43c 3d66 e33e
00000370: 7636 813e 1e1d 90bc 806b 9c3e a9f5 5f3e
00000380: 0be2 63bc 4289 773d ec8d 8ebe c617 b53e
00000390: 2fb6 58bf d0ff dcbc ba68 563e 1e63 843e
000003a0: c483 573d 7aa5 0a3d dc7e 7e3e 9481 25be
000003b0: b00d 12bf 2e75 cb3c 6a01 58be db49 bb3e
000003c0: f0d8 893e 2753 873e 6353 74be 7612 043e
000003d0: 5a03 7abc a06b 62bd d3d9 813e 6451 703e
000003e0: ff3f 253e 8f8b ae3e dd32 003e 4ce5 073e
000003f0: b5e7 d53e 846d 953e c2fc 943e 5843 b7be

bias f4 [36]
0.08839705 0.0024156887 0.1267089 0.16370234 0.07937578 -0.009743526 0.09276468 0.03754839
0.23080516 0.14009407 0.07566023 0.10612118 0.09982752 0.17536339 -0.034599353 -0.042431902
0.25232476 0.22611415 0.07164326 0.10471866 0.04176513 -0.14155103 -0.13917753 -0.0059565543
0.16269481 0.033060424 0.0096519515 0.13218795 0.13206181 -0.1640156 0.24313448 0.15504305
-0.04723046 0.177536 -0.0093902955 -0.10304751
00000000: 8309 b53d 8850 1e3b fabf 013e 96a1 273e
00000010: c58f a23d 4fa3 1fbc 69fb bd3d 57cc 193d
00000020: 3058 6c3e d274 0f3e c0f3 9a3d 1056 d93d
00000030: 5f72 cc3d 7692 333e 0db8 0dbd 13cd 2dbd
00000040: b630 813e 788a 673e b4b9 923d bd76 d63d
00000050: ea11 2b3d c1f2 10be 8e84 0ebe 332f c3bb
00000060: 7899 263e 5e6a 073d 3823 1e3c 475c 073e
00000070: 363b 073e b5f3 27be 3ff8 783e 9bc3 1e3e
00000080: ba74 41bd ffcb 353e c1d9 19bc 930a d3bd

weight f4 [10, 36]
0.12772754 0.057503678 -0.4305716 -0.078823 -0.041007735 -0.16024083 -0.19648631 -0.031796522
-0.4305549 -0.116576396 0.18231055 0.23842295 -0.13155146 -0.05383511 -0.4557129 0.26541162
-0.73447454 0.21333393 -0.29081106 -0.38100448 0.2121125 0.31031328 -0.50049037 0.46599916
0.059114095 0.09568154 -0.43060383 0.1987021 0.17367008 -0.0031046302 0.28146595 0.10852924
0.07413182 0.31220087 0.09590018 -0.15463024 -0.272726 -0.4011419 0.27499533 0.22663382
0.35300303 -0.29898846 -0.31246167 0.14944585 0.09257795 -0.1940806 -0.44897807 -0.25329953
0.16421078 -0.17591728 -0.06369881 -0.40211013 0.038167786 -0.20960867 0.3975524 0.1994424
0.12007403 0.096899 0.11692941 -0.17625357 -0.5075708 -0.272145 0.1149214 -0.20134641
-0.028079577 -0.06550567 0.20825794 -0.39197862 -0.07308064 -0.63158864 -0.007857253 -0.16659458
0.17213008 -0.27350023 0.36752635 -0.07361296 -0.1775642 0.28492278 0.15716346 -0.21353152
0.09186388 -0.37118095 0.27873403 -0.14995018 0.1956054 0.08402081 -0.06990572 -0.23244159
-0.59401447 -0.26309863 -0.8392279 -0.16126731 0.054038014 -0.12149104 0.24939759 0.25943255
-0.27190903 -0.20954634 0.33100927 0.36936635 -0.23024343 -0.026100663 -0.16728088 0.05025699
0.35684112 0.21290207 0.017417153 -0.23823182 -0.122799106 -0.07423107 -0.40242454 -0.67558914
-0.38732734 -0.04117238 0.08522103 -0.08862269 0.05755903 -0.10272468 0.10744197 -0.46080804
-0.26902074 0.07844447 0.1826028 0.116211765 0.13797715 -0.3383504 0.10110321 0.06976575
0.18088911 0.3020809 0.30249822 -0.33159262 -0.0068297656 0.09935003 0.24763256 -0.04675895
0.22467513 -0.1393504 0.113128275 -0.33564213 0.24651693 -0.05440523 0.15396762 0.23330685
0.3288685 0.18967868 0.12545648 -0.31359863 -0.12986991 -0.3585488 -0.13380693 0.05097857
-0.10723505 0.14316373 -0.2913889 0.062434044 0.14689407 -0.006453097 0.41614574 0.064603634
0.12600592 0.27276996 0.13485263 -0.3204383 -0.22502959 -0.7031416 -0.26292685 -0.059653822
0.34970072 0.19909638 -0.43615007 0.06758467 -0.41249743 -0.050153583 -0.5722727 -0.034249354
-0.15416129 0.002444876 -0.047012568 -0.31811363 -0.3497012 0.060816582 0.038879942 0.1063325
-0.35449407 -0.3517618 0.6115262 -0.64910173 -0.18322426 0.3093303 -0.0015806287 0.1151724
-0.3465441 -0.034638405 -0.11998826 0.20201062 0.24786304 0.5043734 -0.29760832 -0.13027194
-0.026496068 0.13301669 -0.17363912 -0.48545265 0.07050348 0.15690257 0.045006752 -0.13274586
0.526825 0.017106686 0.34686336 0.1354609 -0.20041256 0.16813223 0.028121868 -0.017130654
0.13728048 -0.1485692 0.24476252 0.08059877 0.3584088 -0.41743198 0.15952419 -0.04083033
-0.61945665 0.14581737 0.12163947 0.28380722 -0.4178451 -0.7465982 0.122042485 -0.07944706
-0.2745641 0.14887029 -0.30089766 0.080308005 0.19012123 -0.19768906 -0.25199318 0.16041261
-0.0018135495 -0.37339044 -0.4988941 0.34049562 -0.2933689 0.08148983 -0.116691194 0.3486451
0.16407725 -0.27039918 0.11340018 -0.122254245 0.3055534 0.11554003 -0.03566142 -0.35797513
00000000: 02cb 023e fa88 6b3d e173 dcbe f46d a1bd
00000010: baf7 27bd 2c16 24be b533 49be 123d 02bd
00000020: b171 dcbe 9bbf eebd 9eaf 3a3e 2525 743e
00000030: 6db5 06be 3482 5cbd 3453 e9be 08e4 873e
00000040: 8606 3cbf 3674 5a3e 30e5 94be 0513 c3be
00000050: 0534 593e 62e1 9e3e 2320 00bf 7197 ee3e
00000060: 9f21 723d aff4 c33d 1b78 dcbe 9078 4b3e
00000070: 92d6 313e 0d77 4bbb 4e1c 903e 9444 de3d
00000080: 6cd2 973d cbd8 9f3e 5067 c43d 6457 1ebe
00000090: bea2 8bbe 7962 cdbe 30cc 8c3e b212 683e
000000a0: d0bc b43e 0415 99be fafa 9fbe 5508 193e
000000b0: 8299 bd3d 11bd 46be 74e0 e5be 7ab0 81be
000000c0: df26 283e a923 34be 8674 82bd 61e1 cdbe
000000d0: d355 1c3d a8a3 56be fd8b cb3e a13a 4c3e
000000e0: 5fe9 f53d fc72 c63d b078 ef3d d17b 34be
000000f0: 29f0 01bf 9756 8bbe e95b eb3d c12d 4ebe
00000100: 2407 e6bc d627 86bd 9241 553e 6cb1 c8be
00000110: 4dab 95bd cbaf 21bf b5bb 00bc c597 2abe
00000120: de42 303e 3908 8cbe 6a2c bc3e 64c2 96bd
00000130: 64d3 35be 66e1 913e 75ef 203e 02a8 5abe
00000140: 2123 bc3d 6e0b bebe 3ab6 8e3e 8a8c 19be
00000150: c84c 483e 1a13 ac3d bb2a 8fbd 2b05 6ebe
00000160: 5511 18bf ddb4 86be a4d7 56bf 4223 25be
00000170: f756 5d3d 4bd0 f8bd 1562 7f3e 58d4 843e
00000180: a937 8bbe 5193 56be 0c7a a93e 961d bd3e
00000190: efc4 6bbe 0fd1 d5bc ae4b 2bbe 46da 4d3d
000001a0: e1b3 b63e 0003 5a3e 6bae 8e3c 0bf3 73be
000001b0: 197e fbbd 7606 98bd 970a cebe 69f3 2cbf
000001c0: c54f c6be 5fa4 28bd 5d88 ae3d d07f b5bd
000001d0: 04c3 6b3d 5161 d2bd 890a dc3d 08ef ebbe
000001e0: 16bd 89be 7fa7 a03d 3afc 3a3e 6f00 ee3d
000001f0: e249 0d3e 433c adbe 330f cf3d 58e1 8e3d
00000200: ff3a 393e 59aa 9a3e 0ce1 9a3e 82c6 a9be
00000210: 3acc dfbb 0778 cb3d 6493 7d3e 5086 3fbd
00000220: 3d11 663e dfb1 0ebe ccaf e73d 49d9 abbe
00000230: ef6e 7c3e 05d8 5ebd b0a9 1d3e fee7 6e3e
00000240: 7461 a83e 213b 423e aa77 003e 0090 a0be
00000250: 9efc 04be b593 b7be af04 09be e8ce 503d
00000260: 0d9e dbbd 8399 123e ed30 95be d7ba 7f3d
00000270: 666b 163e 8074 d3bb 0e11 d53e e94e 843d
00000280: b207 013e 81a8 8b3e cf16 0a3e 7d10 a4be
00000290: 286e 66be 1701 34bf 599e 86be 9157 74bd
000002a0: f90b b33e ecdf 4b3e 104f dfbe d569 8a3d
000002b0: dd32 d3be d86d 4dbd 7780 12bf 0d49 0cbd
000002c0: 75dc 1dbe 363a 203b 4090 40bd cadf a2be
000002d0: 090c b3be cf1a 793d 9340 1f3d dbc4 d93d
000002e0: 3f80 b5be 1f1a b4be fb8c 1c3f 882b 26bf
000002f0: 249f 3bbe 8b60 9e3e 192d cfba 82df eb3d
00000300: 3a6e b1be 00e1 0dbd 68bc f5bd dfdb 4e3e
00000310: cfcf 7d3e 9d1e 013f 1e60 98be 0266 05be
00000320: 480e d9bc 8735 083e 74ce 31be 408d f8be
00000330: 2164 903d 11ab 203e 0059 383d 88ee 07be
00000340: 01de 063f 5223 8c3c 1398 b13e 43b6 0a3e
00000350: f338 4dbe db2a 2c3e d55f e63c 9655 8cbc
00000360: 4193 0c3e 8622 18be 07a3 7a3e f810 a53d
00000370: 5c81 b73e a5b9 d5be 4f5a 233e b43d 27bd
00000380: b694 1ebf 2651 153e 1d1e f93d 2e4f 913e
00000390: cbef d5be 0f21 3fbf 69f1 f93d 24b5 a2bd
000003a0: aa93 8cbe 7471 183e 420f 9abe 8678 a43d
000003b0: 24af 423e 006f 4abe 4005 81be 3443 243e
000003c0: a0b4 edba 082d bfbe 0c6f ffbe 7155 ae3e
000003d0: 7334 96be 24e4 a63d cbfb eebd 9c81 b23e
000003e0: de03 283e c371 8abe 5b3e e83d 6f60 fabd
000003f0: 7f71 9c3e 40a0 ec3d b611 12bd 8448 b7be

bias f4 [10]
-0.30270022 0.07955515 0.0038007388 -0.30160302 0.20840098 0.21548213 0.033624347 0.29479146
-0.124236315 0.032703795
00000000: 86fb 9abe cfed a23d d115 793b b66b 9abe
00000010: 1167 553e 59a7 5c3e afb9 093d e8ee 963e
00000020: 9c6f febd 6af4 053d
