model1Linear/model1LinearScripted.pt (torch, 130260 bytes, 6 tensors)

weight f4 [36, 784]
00000000: 4efe 69bc 99a6 0a3d e00e 5fbc f0e5 01bd
00000010: 1094 4c3c 8858 8d3b 4091 263c 7cf8 833c
00000020: 00d1 c0bc d276 49bc 083c fd3b 8823 ca3c
00000030: cc66 fabc 2877 553c cefd d43c 5c31 24bc
00000040: 5ad9 af3c bc62 39bc 7bcb 033d 8e5e bd3c
00000050: 40ff 213a dafd 89bc 38be 72bc 28bd 07bd
00000060: 3580 bfbc 80e6 6e3b 1ace bf3c 60ef 5f3c
00000070: 65bd cdbc 89a8 083d 152f bbbc 4c2f 0abd
00000080: 4a47 09bd 1633 f33c f0f1 a83b c00a 6b3a
00000090: 12f2 c63c a0fd f63a 6e64 69bc 30d3 17bb
000000a0: 7e4b 96bc 4e4f acbc 6a30 b8bc 481a f8bc
000000b0: 20af 903c 6870 e7bc 6753 9bbc e0e3 ce3a
000000c0: e1a7 f2bc cc53 bdbc 23ed 85bc 8e77 a93c
000000d0: 4026 6eba dc0d 5a3c 64b4 f0bb 8e75 d6bc
000000e0: 43aa e4bc 5593 f2bc 5cb7 0b3c d043 d63b
000000f0: a633 a33c 8069 cebb 5edc b1bc 35ff 89bc
00000100: 80f4 c8b9 f3fc 87bc 7840 69bc bee5 e43c
00000110: a61b f83c a71e 0d3c 80be 8a3b 90fa eebc
00000120: b80e 003c 70a9 423c e442 1d3c ffb8 c43c
00000130: c96d c7bc b058 a8bc d022 363c 1eda f2bc
00000140: 40ed ea3b 35e8 f8bc ecd4 b93c 947f c3bb
00000150: 08b8 dfbc dc90 1abc a2f3 d03c 78e1 8dbb
00000160: aed2 bebc 9ccb e0bb c279 b23c c6c0 20bc
00000170: 762b 00bd c9ae 5a3c 8d22 053a ffa1 e3bc
00000180: 54d1 543c 78e0 b23c 002f 2c39 0ba1 8bbb
00000190: 771c bb3a 3289 c8bb a30f b5bc bbac aa3c
000001a0: 9238 1f3d 6e6c 3abc 9559 83bc b374 e0bc
000001b0: d715 123d ff19 08bd 8abe 0ebd b8f4 d2bb
000001c0: 4e8c cdbc d03b a73c 54cb 8b3c 64c9 003c
000001d0: ee8d a73c 38dd 0fbc d5a8 27bc b112 8139
000001e0: c9af a23c eeb5 debc f51b fabb d226 f9bc
000001f0: 976e 23bc b289 febc 8501 3239 a5fa fdbc
00000200: 8f0d b2bc 33fd cebc 8d55 0ebd a417 843b
00000210: b532 10bd d906 09bd f219 d4bb 9fd5 4bbc
00000220: 4aed ee3b d344 93bc 58ce a03c 7a37 933c
00000230: a1d4 093d ca9f 94bc d2e5 07bd 8091 48bb
00000240: f4a3 b1bc f613 1dbd 0f41 c33c 52e2 96bc
00000250: 97e7 3f3c 6713 563c 2207 b13c 2c88 603c
00000260: a17e f1bc c41e 623c 6e7e b4bc d6ab 71bc
00000270: 5ebd 893c dd6c da3b 5c4d 37bc 4994 d03c
00000280: f93e 323c 854f 033c d91d f73b 811d 9e3c
00000290: f9c2 a0bc 2d11 543c 5043 02bb 49e3 103d
000002a0: 5ce1 a6bb ee33 7dbc 203a b33c e36c 94bc
000002b0: 9770 963b 2ae3 2ebd c556 bcb9 9d1b c23c
000002c0: 24a0 7bbc 7140 ae3b cf3b 243c 324e 12bc
000002d0: 0916 a2b9 8062 3bbd 1dde 4cbc 4bd4 99bc
000002e0: 3b8d cfbb 3e29 d3bb 0a76 b9bc 2c3d 6abc
000002f0: d08a cd3b 4d0b c93c b86f ad3c 85dc 893c
00000300: e47e 453c 4c07 cc3c b84a cebb dbe9 03bd
00000310: 5628 f53c 4004 baba dd41 83bc 6f74 ee3b
00000320: b315 c9b9 6cbe c83c ed75 09bc 1b2a 06bd
00000330: faa9 ab3c 30f0 653c 5b90 8bba b57b 0abd
00000340: 2e2d c23b cfe5 263c a769 543c 7e70 87bc
00000350: d021 a3bc a231 f8bc 5d75 a2bc c09f c53c
00000360: 9095 853c 6f01 dcbc ec3e 623c 5384 9d3b
00000370: 0dc6 43bc 19cd a0bb 745c 78bb ce0e c73c
00000380: 1e08 b8bc 6eff c2bc f5bc 963c 51c4 b2ba
00000390: 7aed ccbc 880e 53bc f58e 3e3c 6ed9 03bb
000003a0: eb94 afbc 5d62 d13c 5e49 36bd 8a79 803b
000003b0: aad4 0abd dde3 39bc 1675 2bbd 0612 bfbc
000003c0: 2ecd 3e3a 04a8 2abd 4ebf 2bbd 5789 25bd
000003d0: 8ebb 463b bb75 893c bf9e de39 62f0 1b3d
000003e0: 2189 2a3c 3c10 b4bb 2860 6a3c d38b a9bc
000003f0: 3c3d d0bc a016 30bb 0db8 123d 9ac5 643c
-0.014281822 0.033850286 -0.013614386 -0.031713426 0.012486473 0.0043135323 0.010166466 0.016109698
-0.023537159 -0.012296395 0.0077281035 0.024675146 -0.030566595 0.013028897 0.02599993 -0.010021534
0.021465946 -0.011315044 0.032176476 0.023116376 0.0006179698 -0.016844679 -0.0148158595 -0.033139378
-0.023376564 0.0036453307 0.023413707 0.013667911 -0.025114724 0.033363853 -0.022849599 -0.033736512
-0.033515252 0.029687446 0.0051557943 0.00089661404 0.02428535 0.0018843897 -0.014245136 -0.002316665
-0.018346544 -0.02103391 -0.022484023 -0.03028597 0.017661631 -0.028251842 -0.018960668 0.0015784465
-0.029621067 -0.023111247 -0.016348427 0.02068689 -0.0009084679 0.013308968 -0.007345723 -0.026179101
-0.027913218 -0.029611269 0.008527603 0.0065388456 0.019922089 -0.0062991977 -0.021711525 -0.016845325
-0.0003832914 -0.016600108 -0.014236562 0.02794158 0.030286621 0.008613265 0.004234135 -0.029172212
0.007816009 0.011881217 0.0095984675 0.024013994 -0.024344342 -0.020550102 0.011116698 -0.029645022
0.0071693957 -0.030384162 0.022684537 -0.005966136 -0.027309433 -0.009433951 0.025506798 -0.0043298565
-0.02329382 -0.0068602096 0.021786574 -0.009811586 -0.031291448 0.013347336 0.0005078696 -0.027787207
0.012989361 0.02183555 0.00016420707 -0.004261141 0.0014275451 -0.0061198706 -0.022102183 0.020834317
0.03887231 -0.011378391 -0.016033927 -0.027399397 0.03566536 -0.033227917 -0.03484968 -0.006437864
-0.025091317 0.020414263 0.017064728 0.007860515 0.02045342 -0.00878077 -0.010233124 0.00024618724
0.019859212 -0.02718636 -0.0076327273 -0.030414019 -0.009975097 -0.031071518 0.00016975969 -0.031003306
-0.02173498 -0.02526722 -0.034749556 0.0040311385 -0.035204608 -0.033453796 -0.0064728195 -0.012441068
0.0072914707 -0.017977154 0.019629642 0.01797079 0.033650044 -0.0181426 -0.033178158 -0.0030604303
-0.021684624 -0.038349114 0.023834733 -0.018418465 0.01171293 0.013066149 0.021609847 0.013704341
-0.029479327 0.01380128 -0.022032943 -0.014750442 0.01681393 0.0066658095 -0.0111878775 0.025461333
0.010879272 0.008014564 0.0075414 0.019301178 -0.01962422 0.012943548 -0.0019876547 0.035373006
-0.005092783 -0.0154542755 0.021878302 -0.018118327 0.0045910585 -0.04269711 -0.00035922803 0.023694808
-0.015358005 0.0053177406 0.010024025 -0.008929776 -0.00030915465 -0.045748234 -0.012504128 -0.018777987
-0.0063339747 -0.0064441254 -0.022639293 -0.014296811 0.0062726513 0.024541521 0.021171436 0.016828785
0.012054179 0.024905823 -0.0062955283 -0.032205444 0.02992646 -0.001419194 -0.016022617 0.0072770636
-0.00038353875 0.024504863 -0.008389932 -0.032755 0.020955075 0.014034316 -0.001064788 -0.033809382
0.005925796 0.010186627 0.012964643 -0.016533133 -0.019913584 -0.030297104 -0.019831354 0.024124026
0.016306669 -0.026856152 0.013808947 0.004807034 -0.011949074 -0.004907262 -0.0037896903 0.024299052
-0.022464808 -0.023803439 0.018400649 -0.0013638829 -0.025015581 -0.0128818825 0.011630763 -0.0020118612
-0.021433314 0.025559599 -0.044503562 0.0039207386 -0.03389422 -0.011345831 -0.04185971 -0.023324024
0.0007278499 -0.04166414 -0.04193049 -0.04041418 0.0030324194 0.016779771 0.00042461415 0.038071044
0.010408671 -0.0054950994 0.014305152 -0.020696556 -0.025419824 -0.0026868954 0.035820056 0.0139631275

bias f4 [36]
00000000: 7bad 3fbd ec4c 8ebd a78e 703d 868e eb3d
00000010: 6f63 173c 5335 903e f137 a1bd 7d74 7c3e
00000020: bcc4 803e 6d37 41bd 8352 9f3e f3d1 f43c
00000030: 97aa 413e 7fc9 513e d604 313e 9f99 45be
00000040: 01f6 bdbc 53f6 a63c 66fd 2d3e 0a88 b5bd
00000050: 9e76 5c3e a81a da3c 6762 523e f4b8 64bd
00000060: 09af 53bd 12ec 603e 8d0f c63d 14ef 41be
00000070: c719 22bb a8ab 113d f1a5 98bd ce21 0b3d
00000080: 0189 40bd df9e 7cbe 3d5d 983e 7d54 15be
-0.046796303 -0.069482654 0.058729794 0.115017936 0.009240015 0.28165683 -0.07871998 0.24653812
0.25150096 -0.047172 0.3111764 0.029885268 0.18912731 0.20487021 0.17287001 -0.19296883
-0.023188593 0.020381128 0.16991195 -0.08863838 0.21529624 0.026624039 0.2054535 -0.055840448
-0.0516806 0.21965054 0.09670935 -0.18938857 -0.0024734603 0.035564095 -0.07453526 0.033967786
-0.047005657 -0.2466998 0.29758635 -0.14583011

weight f4 [36, 36]
00000000: 9940 1d3e f3b0 8d3c bf5e 0bbe cc14 8e39
00000010: c58b b0bc f1fb dbbd 33d7 be3d af3d 04be
00000020: ee55 b43d f340 c7bd 2786 02be e248 10be
00000030: 3724 19be d02e 033d 24e9 23be c535 46bd
00000040: 460f 61bd 6829 a63d 674e 383c 0a21 79bd
00000050: 3313 07be ab07 853d 8685 343c d8b3 e3bc
00000060: 4ea1 8b3d 1e22 bdbb e74e 94bd 5dfe 45bd
00000070: 830e bcbd 65c4 44bd 407b dcbd fcd5 bf3d
00000080: dbef 8abb b131 36be 9d01 b73c 9095 2cbd
00000090: a3a9 0cbe 4dc2 f03d 15be 113e 67be 3c3e
000000a0: 995e b23d ac40 a6be 41cd 563b 7501 e0be
000000b0: 3265 8abd 00c9 92be c9fa e0be 6830 983e
000000c0: 22d3 233e e706 9bbd de65 1fbe 5a0b 5f3e
000000d0: 1ae2 97b9 9055 283e 6495 953c 5244 febd
000000e0: cbf5 81be 22e0 9fbe de98 0bbe 66d2 28be
000000f0: 68b5 453f 0674 9a3e bf57 913e c2c7 8f3e
00000100: 4f09 d73d 64b9 953e 4a97 5a3e b0a6 cb3c
00000110: fbd7 ad3e 727d b83e 6d41 cd3d 3a8c 073e
00000120: aebc ebbd 1f92 39bd cfee 9fbe e8ce dabd
00000130: 786a 783e 55e8 e43d 425f a0bb 00cb 643e
00000140: 23e7 bc3a e5e8 6b3c cad6 703e 8b74 a9bd
00000150: 30ff bd3e 77c5 103e 5ed9 583c 3b44 553e
00000160: 8587 3fbd f65a 443d 612f 90be d3d3 b23d
00000170: 2e06 a0bc 0e1f f3bc 2dc5 67be 1e53 4abe
00000180: 4bb5 b13e a389 bd3e e031 473e b8f3 213e
00000190: 21f6 82bc b8d4 b03e 78b7 a8be 1905 e53d
000001a0: f06d 703e 1164 febe 8f32 8ebe 14ef 1ebf
000001b0: 8578 8d3d e29d e53b 84b2 34be 2bf4 17be
000001c0: 162c e83d da94 26be d841 773d 8fa5 a3bd
000001d0: a12c 3bbc 78a6 ddbc 74c1 5e3c f7d2 093d
000001e0: 58e1 43bd 56f8 56bd 3f2d 5abd dd96 213d
000001f0: c5d6 083e f6e6 1abe b503 01bc c6b3 5d3c
00000200: 5ad5 20bc 90f9 c23d 3339 0bbe e248 0fbd
00000210: 420c 76bd 5891 0abd b0b8 083e dadf 7dbd
00000220: 0528 1bbd 54fc 06be 12dc 28be 739d e93d
00000230: 9c79 77bd 316b 12be 2f59 c9bd e77a 96bd
00000240: 34fb b43d 6b96 29be e5cd 00bd ca5a 943d
00000250: 9058 dcbd bd22 a53e 21cd f63d e76a e43e
00000260: 582f 3abe cec9 a73e 8006 a03e c305 69be
00000270: 38f1 a83c cc94 d63b 6d0b 313e d138 55be
00000280: 5c55 8c3d 221d c43d 595c a83e deed df3d
00000290: 580f 023e 14f8 2c3f 411b 133e 63c4 d1bd
000002a0: f410 16bf 21c6 c23d 78eb b8be 7d3b 46be
000002b0: 9ed2 153e 60c6 883e 8502 93be cab3 1f3d
000002c0: 5576 2dbe 4939 b1be 51e7 d03d 45f4 ba3c
000002d0: 85db 15bd e1a7 bbbe 8cdb 4ebc 7fed bcbd
000002e0: 0595 313e 39bb 2b3e 8e70 aebe 7934 ba3e
000002f0: a478 e13e 8324 863e f29a 343e 2aa6 e83d
00000300: 760c 393e 5a35 923e d91d 0e3e b480 a63d
00000310: 0375 2fbd 96ac 47be 72b6 30be 1fce babe
00000320: f2fd 87be c6a2 1bbe 0f43 763e 6035 e2be
00000330: 690f 723d dfe1 6c3e 2bdd 6d3e b75f e13b
00000340: a622 9f3e 6882 273d 0c10 0a3e 1082 b1be
00000350: 416c 94be 853c ebbe 05ca 023e d87d f6bd
00000360: ca30 a7bc d6cf 01be 8a1a b73d b160 d93e
00000370: 5950 4bbe 41da b03e 70f4 ed3d e116 b2be
00000380: 572c d1be 93c2 e13d 7b67 3cbe f49a 6ebd
00000390: 982f 1b3e f1ee 8ebe 9c3e 2d3e 55c4 703e
000003a0: cd1c 0dbd 3869 1c3e a8ab a1bd 4e7c 7a3e
000003b0: b8cd 713e c36d f3bd 68ac 4b3e 9c4c 52bd
000003c0: b0ee 45be 41b9 843b 598b d8bc 2889 8f3e
000003d0: ce02 dd3e 37ee 5e3e 363f 14be 7b73 b33e
000003e0: e798 933e 2ef9 983e b3fc 5f3e c8e4 d93d
000003f0: b771 283d bd76 033e e6f1 f83d 45b2 7abe
0.15356673 0.01729629 -0.13610362 0.00027099845 -0.021551022 -0.107414134 0.0931839 -0.12914155
0.08805452 -0.09729185 -0.12746488 -0.14090303 -0.14955221 0.032027066 -0.16006905 -0.048391122
-0.054946207 0.08113366 0.011249161 -0.060822524 -0.13190918 0.06495603 0.011018163 -0.027795717
0.06817876 -0.0057718894 -0.07241612 -0.048338283 -0.091824554 -0.04803886 -0.107656956 0.09366986
-0.004240019 -0.17792393 0.022339636 -0.04213482 -0.13736586 0.1175581 0.14232667 0.18432008
0.08709449 -0.32471216 0.003277615 -0.43751112 -0.06757583 -0.28668976 -0.43941334 0.2972443
0.1599851 -0.07569676 -0.15566203 0.21781674 -0.00028969423 0.1643889 0.018259712 -0.12415375
-0.25382838 -0.31225687 -0.13632533 -0.1648651 0.7722993 0.30166644 0.28387257 0.2808209
0.10499822 0.29243004 0.21346775 0.024859756 0.33953843 0.36033207 0.100222446 0.13237086
-0.11510597 -0.045305368 -0.31236884 -0.106839955 0.24259365 0.11177126 -0.004894168 0.22343063
0.0014412146 0.014398788 0.23519436 -0.08274182 0.37108755 0.14137827 0.013235418 0.20826809
-0.0467601 0.04793831 -0.28161147 0.087318085 -0.019534197 -0.029677894 -0.2263381 -0.19758269
0.34708628 0.3701907 0.1945262 0.15815628 -0.015986504 0.34537292 -0.32952476 0.11182613
0.23479438 -0.4968572 -0.27772948 -0.62083554 0.06907753 0.0070073465 -0.17646223 -0.14839236
0.11336534 -0.1626772 0.060365528 -0.07990562 -0.011424215 -0.027056918 0.0135959275 0.033648457
-0.047822326 -0.052482925 -0.053265806 0.039450515 0.13363178 -0.15127167 -0.007874419 0.013531631
-0.009816492 0.095202565 -0.13596039 -0.034981616 -0.060070284 -0.033830017 0.13351703 -0.06198106
-0.037879962 -0.13182193 -0.164902 0.11406984 -0.06041871 -0.14298703 -0.098314635 -0.073476605
0.08836976 -0.16561286 -0.031446356 0.07243879 -0.107590795 0.32253066 0.12050844 0.4461281
-0.18182123 0.32771152 0.3125496 -0.22756104 0.020622835 0.0065484997 0.17289515 -0.20822455
0.068522185 0.09575869 0.32882956 0.109340414 0.12701166 0.6756604 0.14365865 -0.10242536
-0.5861962 0.09510446 -0.36117148 -0.1935863 0.14631125 0.26713848 -0.2871286 0.03898982
-0.16939671 -0.34614018 0.1020037 0.022821555 -0.036586303 -0.3665152 -0.012625586 -0.09224986
0.17342003 0.16770639 -0.34070247 0.36368158 0.44037354 0.2619973 0.17637232 0.11359818
0.1807116 0.2855633 0.13878573 0.08130017 -0.0428362 -0.1949943 -0.17257097 -0.36485383
-0.26560932 -0.15198812 0.24049018 -0.44181347 0.059096728 0.23133038 0.232289 0.006877865
0.31081122 0.04089585 0.13482684 -0.34669542 -0.2898884 -0.4594461 0.12772377 -0.120357215
-0.020409007 -0.1267694 0.08940609 0.42456582 -0.19854869 0.34541515 0.116188884 -0.3478308
-0.4085414 0.1102344 -0.1839885 -0.058253244 0.15154874 -0.27916673 0.16918415 0.23512395
-0.034451295 0.15274513 -0.07894069 0.24461481 0.23613632 -0.1188617 0.19889987 -0.05134259
-0.19329333 0.0040504043 -0.026433634 0.2803433 0.43166202 0.21770559 -0.14477238 0.35049042
0.28827593 0.2987761 0.21873741 0.1063934 0.041124072 0.12838264 0.121555135 -0.24482067

bias f4 [36]
00000000: 37c4 11be 3652 b9bd aea5 313c fd04 803c
00000010: b25c 263e 5bdd 5b3e c5c8 16be 2791 4fbe
00000020: 4823 01bd 5738 833e cb95 1fbe c754 8abe
00000030: 2c79 6d3e 1ad0 f03d 3163 c63e f449 65be
00000040: 6fea 803e 6189 1d3d 4eca bb3d a848 84bd
00000050: 1314 2cbe 7971 54be f717 c8bd 9acd 983e
00000060: a08a e2bd 67a3 0c3e 67c0 833e fc42 c53e
00000070: 66d9 cdbd f66b 8cbc 49ae 5f3e 2e1b 863d
00000080: f948 e13c ce7d 083d 0341 9cbd 0454 163d
-0.14235006 -0.090488836 0.010842724 0.015627379 0.16246298 0.21471159 -0.14725025 -0.20270215
-0.031527787 0.2562892 -0.15584485 -0.27017805 0.23190755 0.11758442 0.38747552 -0.22391492
0.2517886 0.038461093 0.09169446 -0.064591706 -0.16804533 -0.20746411 -0.09770196 0.29844362
-0.11061597 0.13734208 0.2573273 0.38527668 -0.10051231 -0.017141324 0.21843828 0.06548153
0.027500616 0.0333231 -0.076295875 0.036701217

weight f4 [10, 36]
00000000: 90b5 f3bd 5068 11be 0e5b 663d 6670 563d
00000010: 02c5 973e 4b69 0cbf 2a87 803e 28cb 383e
00000020: d663 49be 7922 59be 432f cfbe 145f 9dbe
00000030: 7fdc 83be fed6 4abe 2c01 d9be fe0d b23e
00000040: d35f 083e 70a0 3fbf 0734 f6be 7156 05bf
00000050: c12a 8ebc 4b38 d03e 5c7d 2cbe a172 97be
00000060: 36c0 d9bd a542 103e f5ac d63d e96b a03c
00000070: 9a90 98be 9bfd b4bd e7a4 a43d 846c a8be
00000080: bea3 953e fa34 373e 93c7 31be d8be 8b3c
00000090: e765 dabd 9d7f a13e 6a04 3c3e 37ac 9ebd
000000a0: abf9 213c 0c78 0cbf 4b3d b2bd 20c9 ba3d
000000b0: 5f74 3fbe 0178 93bd 25be a83e da9a d53e
000000c0: 6939 933e 0ade 69be 1e12 7f3e bc8c a1be
000000d0: 3495 d3bc cf4c b13e b190 f9be 8f58 163f
000000e0: 283d 9b3c 309d 7cbe d4f0 edbe 3d08 1c3e
000000f0: 96e6 a13d ada3 22bf 3d90 d7be 7ab7 6f3e
00000100: bb48 09bf 12fd 06bf b640 eabd 05a3 e03d
00000110: bf56 95be 1f94 92be 8d5e c93d e2c8 aa3d
00000120: c802 cebd 046a a43e b1cf 903d 8b87 86bd
00000130: f097 12bf 3475 35be 1169 883e 0e47 45bf
00000140: 8152 43bc 8875 87bd 9154 5d3e 92bb 8dbe
00000150: 78ed 2a3e 0b3f bb3d 6460 efbe 9e78 4a3e
00000160: b40c 033e 36ce bf3e c957 243d af5e 17be
00000170: ce8a 8abc 302b 12be 02a6 883e 8d8b afbd
00000180: cf4f 953e 3ed8 813e 9d8a 45be e083 733d
00000190: fcdb 0a3e 3dea 5f3e 668f 33be 3ce4 01bf
000001a0: c203 e4be c45f d2be ba2b 963e a374 04be
000001b0: 2b52 23be 229f 583e e344 d4be 4004 14be
000001c0: b177 86be 123b 2bbf daa3 bd3d ad65 b23e
000001d0: d625 0e3e bb0e 3cbd 6134 9b3e 4fe7 a5bd
000001e0: 6655 8ebe 1c20 683e 94cc 8fbe 9746 7fbe
000001f0: 47dc 723e 7b52 9bbe b99a bfbe 60a0 c23e
00000200: fde8 c43d b868 76be 2a00 71be f91b f9be
00000210: 39d4 8dbe 934d a1be c5eb 5b3e 30a6 81be
00000220: b73b f53d 5106 473e dacb 033e c4f1 983b
00000230: b525 f5be f8a5 2b3e 0198 7e3e 9785 24be
00000240: 1aa0 a3bd e184 17bd 3bb8 9f3e f57b 1ebe
00000250: 443d c0bd 09fe dc3e b15c 76be 9b3b c7be
00000260: 1f82 123e 69d3 433c 767b 043e 5d16 dfbd
00000270: 1a84 7dbc 384d a8bd 9d79 d63e 6811 96be
00000280: 2a62 3fbf 1a89 9abe ffe4 173e 793f 89be
00000290: a390 343d 2550 853d abe8 7abe 4bfb 40be
000002a0: 6d57 c5be 84b7 7d3d 1688 b83d cda8 a3be
000002b0: b8dc c7bc 4530 193e 6276 2abf 7314 933e
000002c0: 9cc4 ef3d 82b2 41be ea73 89bc 77cd 20be
000002d0: 8e45 bb3b f240 14bf 6199 80be a190 67bd
000002e0: 121e a53e 0f11 ae3d ce8a 0fbe 5c70 a6bd
000002f0: 63cd a03e e5f7 5d3e 4a7a 00bf 1df6 fbbe
00000300: 86fc d4be e0e9 8d3e b3b0 0b3e 0389 e0be
00000310: 717c ad3e c7eb 053e 388f 60be 2930 48be
00000320: 7c70 55bd e6d8 02bf baa5 2e3d e6ed 723e
00000330: 5296 0abe c5aa 0ebe 84b9 3a3d df9d 8f3e
00000340: 25e0 afbe 4b2a 7b3d b76f 263e 2294 1bbe
00000350: 1510 8c3d 62a7 a23e b943 19be dc7d 11be
00000360: 1ba4 d33d ac48 aebe e729 ad3e 997f a9bd
00000370: 4df2 8b3e bf4a aebe 937a 0c3d 7113 a13d
00000380: 0e8a 6cbe eb62 35bf bd24 5dbe 2e77 a7be
00000390: 645a 1fbf e9c2 a43d bd2f 9abd 0eda e83c
000003a0: 87ec 31be cb01 00bf 0871 2dbe b511 96be
000003b0: f916 393d 9959 a7bd 5480 c13e 7b61 e53d
000003c0: aaaf a73e ac33 53be 93ca 45be 8c7e 893e
000003d0: 4ff4 6c3e 9c7d 85be 87f6 ffbe ea99 b5bc
000003e0: a50c 663e 81aa 8e3e 421b 073d ce79 24be
000003f0: bad3 45bd a7f2 4ebe 2e05 9fbe 715b d3bc
-0.11899865 -0.14199948 0.05623918 0.052353285 0.29642493 -0.54848164 0.25103122 0.18046248
-0.1966699 -0.21204557 -0.40465745 -0.307366 -0.25754163 -0.19808576 -0.42383707 0.347763
0.13317804 -0.74854183 -0.4808657 -0.52085024 -0.017354371 0.40667948 -0.16844696 -0.29579642
-0.106323645 0.14087923 0.10482208 0.019582706 -0.29797822 -0.08837434 0.08039265 -0.3289529
0.29226488 0.17891303 -0.17361288 0.017058775 -0.106639676 0.31542674 0.18361059 -0.07747691
0.009886186 -0.54870677 -0.08703097 0.09120393 -0.18696736 -0.07200623 0.3295757 0.41719705
0.28754738 -0.22838607 0.24909255 -0.31552684 -0.025827982 0.34628913 -0.48743203 0.5872888
0.01895006 -0.24669337 -0.464728 0.15237518 0.07905309 -0.63531 -0.42102233 0.23409835
-0.536266 -0.52729905 -0.11438124 0.109685935 -0.29167745 -0.28628632 0.09832487 0.083390966
-0.10059124 0.32112134 0.07070864 -0.065688215 -0.5726309 -0.1772049 0.2664266 -0.77061546
-0.011921526 -0.06614214 0.21614291 -0.27682167 0.1669215 0.09142884 -0.46753228 0.19772574
0.12797815 0.37462014 0.04012278 -0.14782213 -0.01691189 -0.14274287 0.26689154 -0.08571539
0.29162452 0.25360292 -0.19291158 0.059451938 0.1356048 0.21866699 -0.17535171 -0.50738883
-0.44534117 -0.41088688 0.29330236 -0.12935118 -0.15949313 0.21154454 -0.41458806 -0.14454746
-0.26263192 -0.6688701 0.09259768 0.34843197 0.13881621 -0.045912486 0.303134 -0.08100759
-0.2779953 0.22668499 -0.28085768 -0.24929272 0.23716842 -0.30336365 -0.37422732 0.3801298
0.096147515 -0.24063385 -0.23535219 -0.48654154 -0.27700976 -0.31504497 0.21476658 -0.25322104
0.1197428 0.19436003 0.12870732 0.0046674926 -0.4788033 0.16762531 0.24862672 -0.16066585
-0.07989521 -0.036991958 0.31195244 -0.15476973 -0.093866855 0.43162563 -0.24058796 -0.38912663
0.1430745 0.01195226 0.12937722 -0.10892937 -0.01547339 -0.08217853 0.4188966 -0.29310155
-0.7475916 -0.30182725 0.14833449 -0.26806238 0.04408325 0.06509427 -0.24502818 -0.1884586
-0.38543263 0.061942592 0.09010331 -0.31964722 -0.02439724 0.1495982 -0.6658689 0.2872654
0.11707422 -0.18915752 -0.016778905 -0.15703379 0.0057150787 -0.579116 -0.2511702 -0.056534413
0.32249504 0.084993474 -0.14017794 -0.081268996 0.31406698 0.21676596 -0.501866 -0.49211207
-0.4159891 0.27717495 0.13641624 -0.43854532 0.33884004 0.13078223 -0.21929634 -0.19549622
-0.052109227 -0.5111221 0.042638518 0.23723564 -0.13533905 -0.13932331 0.045587078 0.28050134
-0.34350696 0.06131963 0.16253553 -0.15193227 0.06839005 0.31768328 -0.1496724 -0.14208168
0.10334035 -0.3403982 0.3382103 -0.082762904 0.27333298 -0.34041402 0.034296583 0.07865036
-0.23099539 -0.7085406 -0.21596046 -0.32708114 -0.622473 0.08044989 -0.075286366 0.02842429
-0.17375384 -0.50002736 -0.16937649 -0.29310384 0.045187924 -0.08171386 0.3779322 0.112002335
0.3275121 -0.2062518 -0.19315557 0.2685436 0.23140071 -0.26072395 -0.49992773 -0.022168119
0.22465761 0.2786446 0.03298498 -0.1606209 -0.04829762 -0.20209752 -0.3105864 -0.025800439

bias f4 [10]
00000000: 51f5 68be d0b0 1c3e 7704 94bd 4926 18be
00000010: 0246 8f3d 51c4 8e3e 6785 8a3b ad9a 713e
00000020: ff86 86be 196c 16be
-0.22749831 0.15301824 -0.07227414 -0.14858355 0.06995775 0.27884153 0.0042273286 0.2359416
-0.2627487 -0.14689673
