ensemble_model_stacking/ensemble_model_stacking_mnist.pt (torch, 8384 bytes, 4 tensors)

weight f4 [10, 100]
000000 44 9b 40 3e b2 17 f5 bd 11 6a 73 bd ea 2c cc bd
       0.18809229 -0.1196741 -0.059427325 -0.09969504
000010 e8 d6 cd bd 13 92 87 be 5c 35 98 bc 75 30 b7 bd
       -0.10050756 -0.26478633 -0.018580131 -0.08944789
000020 00 f2 04 be 48 80 48 be 4f 07 31 3e 3e 48 19 be
       -0.1298294 -0.19580185 0.17287944 -0.14968964
000030 e8 41 e4 bd 0f f1 a5 bd 8f 09 94 be 60 82 13 be
       -0.11145383 -0.08102619 -0.28913543 -0.14405203
000040 08 22 84 be d4 b8 57 be 60 08 01 be 00 d0 3a be
       -0.25807214 -0.210666 -0.12600851 -0.18243408
000050 cf 2f 58 3e 99 df 4a be e3 f4 96 be a7 91 4f be
       0.21111988 -0.19811858 -0.2948371 -0.20270406
000060 23 15 85 be b4 8c 9c be 34 34 89 be 19 63 67 be
       -0.2599269 -0.30576098 -0.2679764 -0.22596397
000070 71 9d b9 bd 6b 63 66 be ee 39 75 3e 52 94 de bd
       -0.09063233 -0.22498862 0.2394788 -0.108681336
000080 bd 1c 05 be 11 97 15 be 83 c9 51 be ed ee 3f be
       -0.12999244 -0.14608409 -0.20487027 -0.18743487
000090 68 c4 42 be ea ce e4 bd 8c 64 29 be 2b 95 22 be
       -0.19020236 -0.11172278 -0.16542262 -0.15877216
0000a0 ca 85 3a 3e c5 63 d6 bd db 51 2d be 22 a1 62 bd
       0.18215099 -0.10468248 -0.16925757 -0.05532945
0000b0 59 29 0e be 7a 46 4c be 81 56 e9 bd b1 f5 7a be
       -0.1388296 -0.1994876 -0.113934524 -0.24507786
0000c0 b4 c3 70 be 99 d4 8f be d3 90 a1 3d 93 14 df bd
       -0.23512155 -0.28091887 0.07888951 -0.10892596
0000d0 e1 97 f2 bd 65 55 2b be bb 84 62 be db d5 97 be
       -0.11845375 -0.16731794 -0.22120945 -0.29655346
0000e0 d6 20 72 bc 5b c0 22 be 65 fb f9 bd fb 73 53 be
       -0.0147783365 -0.1589369 -0.12206153 -0.20649712
0000f0 dc f6 1b 3e 07 d2 4d be 2a a9 07 be 92 75 81 bd
       0.15230888 -0.2009965 -0.13248125 -0.06321253
000100 1a c5 45 be e0 ca 52 be fe 3c f6 bc 02 2d 85 be
       -0.1931347 -0.20585203 -0.03005838 -0.260109
000110 56 49 60 be 39 ef 54 be 37 f8 06 3e 8f b2 51 be
       -0.21902975 -0.20794381 0.13180624 -0.20478271
000120 33 94 ee bd 3f 5d 6c be 13 06 46 be cd dc cf bd
       -0.116493605 -0.23082446 -0.19338255 -0.10149536
000130 81 0c 77 be 51 a8 11 be d8 51 14 be 41 51 3b be
       -0.24125864 -0.14224364 -0.14484346 -0.18292715
000140 60 7d e4 3d fc a4 09 be 2b 9c 17 be b1 c9 62 be
       0.11156726 -0.13441843 -0.14805667 -0.22147252
000150 b3 17 04 be 6c 5e 7a be 9f 5b 27 be a0 24 47 be
       -0.12899666 -0.24450082 -0.16343544 -0.19447565
000160 de de 48 be a2 3c 8e be 26 59 27 3e 48 70 75 be
       -0.19616267 -0.27780634 0.16342601 -0.23968613
000170 0c e7 89 bd 14 51 50 be 50 ae 3e be 4a 45 45 be
       -0.06733522 -0.20343429 -0.18621182 -0.19264713
000180 63 9e 39 be c9 29 79 be 65 6e 80 be f7 35 8d be
       -0.18126826 -0.24332346 -0.25084224 -0.27580234
000190 94 aa 63 be a8 b0 13 3e 5d 8d 08 be 52 fd c6 bd
       -0.22233039 0.14422858 -0.13335176 -0.09716286
0001a0 79 2b f8 bd 23 c0 4b be 1e cf 63 be 44 ed 0a be
       -0.12117667 -0.19897513 -0.22246978 -0.13567072
0001b0 c0 d8 1a 3d a9 04 e0 bd 95 af 39 be 62 be 52 3e
       0.037804365 -0.10938389 -0.18133385 0.20580438
0001c0 10 b6 9a be 23 5d a8 bd 2b f5 5c be dd 1a 88 be
       -0.30217028 -0.082208894 -0.21577899 -0.26582995
0001d0 87 6c 80 be 26 7a b5 bd d4 f9 30 be 89 fa ed bd
       -0.250828 -0.088611886 -0.17282802 -0.116200514
0001e0 1b 28 ff bd 35 d2 82 3e 87 77 c4 bd aa dc 55 be
       -0.124588214 0.25551 -0.095931105 -0.20884958
0001f0 2a 28 53 be d4 0b 48 be 76 fb 7e be a7 54 d2 bd
       -0.2062079 -0.19535762 -0.24900612 -0.102700524
000200 9a 71 72 be c7 02 53 be 9d ba 3e be d8 b2 71 3e
       -0.23676148 -0.20606528 -0.18625875 0.2360338
000210 7a 99 87 be fe 6c 6e bd 01 bc df bd dd 7d b4 be
       -0.2648428 -0.05820941 -0.10924531 -0.35252276
000220 8f 5f 70 be fb 07 46 be 4a b8 58 be da 47 a2 be
       -0.23473953 -0.19338982 -0.2116405 -0.31695443
000230 4a 0c 3b be f4 71 e7 3d e9 8a 72 be 6a ed 5c be
       -0.18266407 0.11301032 -0.23685803 -0.21574941
000240 a8 78 3e be 5d d2 35 be d8 58 ea bd 38 d7 64 bd
       -0.18600714 -0.17756028 -0.11442727 -0.05586931
000250 b4 f1 6a be ce 4b 7c be 55 fd 19 be 92 28 2a 3e
       -0.22943765 -0.24638292 -0.15038045 0.16617039
000260 3d 1d 29 be a4 aa 4b bd 37 6f 4a be a6 29 72 be
       -0.1651506 -0.049723282 -0.19768988 -0.236487
000270 44 49 57 be 92 d7 cf bd 04 70 fc bd ac af 53 be
       -0.21024042 -0.10148539 -0.12326053 -0.20672482
000280 51 27 c0 bd 04 4c d2 3d 55 0d 24 be bf 8c 19 be
       -0.09382499 0.10268405 -0.16020711 -0.14995097
000290 92 9c 6b be 7a f4 72 be 5e 24 6e be a5 fd f1 bd
       -0.23008946 -0.23726073 -0.2325606 -0.11815957
0002a0 12 9e 3f be d2 1d 6e be e3 6e 89 be 73 7c f4 3d
       -0.18712643 -0.23253563 -0.26842412 0.11937799
0002b0 c5 74 eb bd 3f 3e c4 bd a1 b2 d1 bd 31 4b 2d be
       -0.114968814 -0.09582185 -0.10239149 -0.16923214
0002c0 30 64 32 be 49 8b 03 be 3a 17 3a be 93 e4 62 be
       -0.17421031 -0.12846102 -0.18172923 -0.22157507
0002d0 db b5 03 be c2 63 2d 3e 9c 4f 78 be fb da 64 be
       -0.12862341 0.16932586 -0.24249119 -0.2234916
0002e0 43 c6 5f bd 9a da 9a be fb c6 a1 be 10 b8 79 bd
       -0.054632436 -0.30244905 -0.31597123 -0.06096655
0002f0 79 80 1a be 74 6b 64 be a2 81 0a be 39 fa 3f 3e
       -0.15088071 -0.22306615 -0.13526013 0.18747796
000300 d2 08 d6 bd cd 51 f0 bd 54 9f 96 be d3 cd 74 be
       -0.10450901 -0.11734352 -0.29418433 -0.2390664
000310 8c 13 54 be a6 3e 97 bd 84 68 4f bd 91 2c 1b be
       -0.20710582 -0.07384996 -0.050636783 -0.1515372
000320 5e 6f 29 be 20 59 07 be a9 40 e3 bd f8 cd 81 be
       -0.1654639 -0.13217592 -0.11096317 -0.25352454
000330 24 0c 61 be c2 12 18 3d d9 7b 62 3d 4b cd d6 bd
       -0.21977288 0.037127264 0.05529389 -0.10488375
000340 f7 cf 99 bc 87 0a 28 be b0 d0 92 be 47 5a 1d be
       -0.018775923 -0.16410266 -0.2867484 -0.1536647
000350 8b 1f 22 3e ed 6f 90 be 59 cb 82 be 36 a6 c8 bd
       0.15832345 -0.28210393 -0.25545767 -0.09797327
000360 0c 81 53 be 09 fd 97 be 2f 10 91 be d6 b3 9e be
       -0.20654696 -0.29685238 -0.2833266 -0.3099658
000370 3a 85 60 be d5 bb 3a be 5c 2a 80 3e 03 c8 88 be
       -0.21925822 -0.18235715 0.25032318 -0.26715097
000380 98 be 48 be fc 8e 2c be fc a9 2e be 78 a2 3b be
       -0.19603956 -0.16851419 -0.17057031 -0.18323696
000390 05 56 4b be 1a 9a 4f be 3f f6 8f be 8c 53 8a be
       -0.19857033 -0.20273629 -0.28117558 -0.27016866
0003a0 36 4e 81 3e a8 b1 64 be 12 6c 1a be a3 54 7a be
       0.25254983 -0.22333395 -0.15080288 -0.24446349
0003b0 9d 4d 84 be 67 ef 13 be 63 4e 50 be 1d fc 08 be
       -0.25840464 -0.14446793 -0.20342402 -0.13377424
0003c0 a8 17 c4 bd f3 5e 80 be be 6f dc 3d a4 e8 33 be
       -0.095748246 -0.2507244 0.10763501 -0.17569214
0003d0 89 d0 cd bd 4f 2b 2f be 72 4b 8b be af 0e e2 bd
       -0.100495405 -0.17106365 -0.27205998 -0.11037957
0003e0 7c 43 57 be fe 49 48 be c9 a2 fc bd e7 f2 a1 be
       -0.21021837 -0.19559476 -0.12335736 -0.31630632
0003f0 16 c4 a9 3d 2e 3d 94 be 1a fe e5 bd 73 46 fa bd
       0.082893535 -0.28952926 -0.11230107 -0.12220468

bias f4 [10]
000000 cb 67 07 bd 49 46 27 bc 93 3e a2 3d 2b a2 71 3d
       -0.03305797 -0.010209628 0.07922091 0.058992546
000010 2d e6 f7 bc 74 5f 23 bd fd 4b a9 bd 54 4c 38 bd
       -0.030261124 -0.039885953 -0.08266447 -0.044994667
000020 e7 0f 81 bd e4 8b b2 bd
       -0.06301861 -0.08718088

weight f4 [100]
000000 4f e7 98 3f 31 8e 9d 3f 3c 90 81 3f 42 0d 97 3f
       1.194559 1.2309018 1.0122142 1.1800921
000010 d4 5f 90 3f c3 3d 93 3f ae 70 93 3f 48 cc 92 3f
       1.1279244 1.1503223 1.1518762 1.1468592
000020 00 12 9e 3f 8e 24 95 3f ab 14 a3 3f 92 a6 a5 3f
       1.2349243 1.1651781 1.2740682 1.2941458
000030 e7 57 ad 3f 9f de a2 3f 38 c9 a0 3f 21 c1 a1 3f
       1.3542451 1.2724189 1.2561407 1.2637063
000040 92 a2 a9 3f fc 56 98 3f 59 db a1 3f e9 5b aa 3f
       1.3252738 1.1901546 1.2645065 1.3309299
000050 6b 5e b4 3f 00 c3 a8 3f 7a c9 b6 3f cf cd ca 3f
       1.4091314 1.3184509 1.4280236 1.5844058
000060 4b 8c a9 3f cd a5 b0 3f dc 07 b6 3f 87 b8 b4 3f
       1.3245939 1.3800598 1.4221148 1.4118813
000070 d5 97 b6 3f a9 4d bb 3f 44 78 a4 3f 03 4a b8 3f
       1.4265085 1.4633075 1.2849202 1.4397587
000080 46 63 b6 3f a4 05 c8 3f 78 e2 b2 3f 1d 6b bd 3f
       1.4249046 1.5626721 1.3975363 1.4798313
000090 e7 9c af 3f 99 a7 b5 3f 7d 45 a9 3f 5d cf a7 3f
       1.3719758 1.4191772 1.3224331 1.3110157
0000a0 a7 b0 9e 3f a5 b1 9d 3f c4 55 9f 3f cf 71 a2 3f
       1.239766 1.2319838 1.2448049 1.2690982
0000b0 f4 79 a4 3f 04 7b 99 3f fd 43 ad 3f 0e de 9a 3f
       1.2849717 1.1990666 1.3536373 1.2099016
0000c0 e9 56 99 3f 08 42 9a 3f 8c d9 a3 3f 8c 72 a8 3f
       1.1979648 1.2051401 1.2800765 1.3159957
0000d0 66 2c a1 3f 2b 35 9b 3f 33 e7 97 3f c3 63 97 3f
       1.2591674 1.21256 1.1867431 1.182732
0000e0 d4 a1 a0 3f 82 ca 9b 3f 66 c6 8c 3f 4f 73 99 3f
       1.2549386 1.2171175 1.0998046 1.1988314
0000f0 89 5a 9b 3f f2 1f a6 3f d5 af 86 3f 6f 45 97 3f
       1.2137004 1.2978499 1.052241 1.1818064
000100 09 e7 9b 3f de 19 90 3f e0 c4 98 3f 62 72 8d 3f
       1.2179881 1.1257894 1.1935081 1.1050532
000110 62 de 8f 3f eb 76 8b 3f 48 c0 ac 3f a1 41 aa 3f
       1.1239741 1.0895666 1.349618 1.3301278
000120 55 33 a2 3f a3 ce af 3f 09 a4 a2 3f 52 c2 a8 3f
       1.2671915 1.3734936 1.270631 1.3184302
000130 2a 79 9d 3f 69 a4 a1 3f 7f 1d b2 3f ef 21 b1 3f
       1.2302601 1.2628299 1.3915251 1.3838481
000140 0d b0 a8 3f 6f b0 a2 3f f3 c1 b1 3f 72 c5 aa 3f
       1.3178726 1.2710093 1.3887314 1.3341506
000150 40 47 a5 3f 7c 43 9c 3f a7 6a aa 3f 97 36 ac 3f
       1.2912369 1.2208095 1.3313798 1.345416
000160 cb c9 a4 3f 65 ef ad 3f 3e 74 a5 3f 81 fa a1 3f
       1.2874082 1.3588682 1.2926099 1.2654573
000170 4a c3 9c 3f f3 b1 a3 3f 77 a2 a4 3f 72 95 9c 3f
       1.2247097 1.2788681 1.286208 1.2233107
000180 25 a3 ab 3f bc 8c 99 3f 22 d1 9a 3f 44 a0 a4 3f
       1.3409163 1.1996074 1.2095072 1.2861409

bias f4 [100]
000000 ee b4 5b 3d 0a 41 72 3d 1f c9 0c 3d 14 54 37 3d
       0.053639345 0.059144057 0.03437149 0.044757918
000010 99 d6 02 3c 98 21 03 3d c2 57 13 3d e4 80 d4 3c
       0.007985734 0.03201446 0.035972364 0.025940366
000020 6c 8f 8b 3d 30 33 4c 3d 64 d4 a6 3e 9d 3f a3 3e
       0.06814465 0.049853504 0.32583916 0.3188447
000030 b6 d3 84 3e 6e 46 ac 3e f6 61 85 3e a8 27 60 3e
       0.25942773 0.33647484 0.260513 0.21890128
000040 c9 72 8e 3e 8b 5a 35 3e 08 1c a3 3e e0 0b b3 3e
       0.2782195 0.1771032 0.31857324 0.34969997
000050 41 00 d3 3e 50 5f b6 3e 4a f6 b1 3e 3c cb 17 3f
       0.4121113 0.35619593 0.34758216 0.59294486
000060 f3 c1 b8 3e e6 b3 a5 3e f6 3d ad 3e 76 e5 b2 3e
       0.36085472 0.32363814 0.33836335 0.3494069
000070 d3 5d bf 3e bc c3 b8 3e 42 2b 95 3e 27 99 d1 3e
       0.3737627 0.36086833 0.29134566 0.40937158
000080 6f c2 8b 3e 0d 43 0e 3f fe b1 c0 3e 25 be a4 3e
       0.2729678 0.5557106 0.37635797 0.3217632
000090 73 c0 92 3e f7 15 d8 3e e8 f7 91 3e 9d 5a 9f 3e
       0.28662452 0.42204258 0.2850945 0.3112382
0000a0 26 fa 83 3e 16 d9 99 3e 27 c8 4d 3e f2 ab b4 3e
       0.25776786 0.30048436 0.20095883 0.35287434
0000b0 80 9b 93 3e 48 97 6f 3e 72 c4 9e 3e 50 eb 55 3e
       0.28829575 0.23397553 0.3100925 0.20890546
0000c0 4c aa 80 3e f9 32 97 3e 68 06 8d 3e d2 b4 a4 3e
       0.25129926 0.29531077 0.2754395 0.32169205
0000d0 03 27 85 3e f4 af a9 3e a3 4f 2f 3e f3 85 65 3e
       0.26006326 0.33142054 0.17120223 0.22414379
0000e0 6d 12 82 3e 85 f2 65 3e d4 17 2a 3e 05 7c 57 3e
       0.25404683 0.22455795 0.16610652 0.21043403
0000f0 12 53 64 3e 81 21 a3 3e e3 71 01 3e 80 05 5b 3e
       0.22297314 0.318615 0.126411 0.21388817
000100 e8 18 83 3e c1 67 38 3e 7e 09 7f 3e 8c 03 3b 3e
       0.2560494 0.18008329 0.24905965 0.18263072
000110 2d 5d 29 3e 7a 56 25 3e bd 00 b3 3e e9 a1 ac 3e
       0.1653945 0.1614627 0.349615 0.33717278
000120 ac 77 73 3e fe fd c8 3e e7 b7 9d 3e 13 cd 8a 3e
       0.2377612 0.3925628 0.3080437 0.27109584
000130 f0 55 82 3e 45 f8 7e 3e d5 ff a7 3e 65 37 a7 3e
       0.2545619 0.24899395 0.32812372 0.3265945
000140 fc b0 c9 3e 4a d7 a7 3e ea 03 ad 3e 8e f7 b7 3e
       0.3939284 0.3278144 0.3379205 0.35931057
000150 84 cd 83 3e 31 d1 28 3e a1 3e 9d 3e 53 cb a3 3e
       0.25742733 0.1648605 0.30711845 0.31991062
000160 81 50 a6 3e 3d 3c c4 3e 65 72 8e 3e bd 36 94 3e
       0.32483295 0.38327208 0.2782165 0.28948012
000170 d3 f9 4d 3e b7 27 98 3e 12 97 8b 3e 8f c4 84 3e
       0.20114832 0.297178 0.27263695 0.25931212
000180 e6 1d aa 3e 2a c8 21 3e 54 e2 80 3e 6d de 9c 3e
       0.33225936 0.15799013 0.25172675 0.30638447
