ensemble_model_stacking/ensemble_model_stacking_cifar10_noLinear.pt (torch, 7952 bytes, 4 tensors)

weight f4 [10, 90]
00000000: 81b1 763e 961e 73be 1ff8 74be 2c58 2ebe
00000010: 2bbd d5bd 19ab bbbd d646 9bbd f0a7 5cbe
00000020: 2e37 77be 3c8e f5bd 13c5 b73e 5491 6ebe
00000030: 8fb4 edbd d60b 56be 830b 91be 6e35 56be
00000040: c1b3 223c b131 a8be 38bc 32be 7384 28be
00000050: 8a95 b83e 31ad 9abe 506d 59be 9297 77be
00000060: 0ac3 ccbe a594 73be 68d3 41be 601a 86be
00000070: 7eab e9be 9d42 a6be 0db7 903e 7384 40be
00000080: ee32 a2be 0781 2bbe 184e 8fbd d819 35be
00000090: 8ed5 52be cbe4 21be b071 29be db1d 27be
000000a0: 52c9 263e 7ad3 0cbe 53ff 13be f8a3 0ebd
000000b0: 50c7 91be eb6e 16bd 0df3 40be 52fd 1cbe
000000c0: 2135 cebd bff0 b63d a1a9 e1bd 8dc3 41be
000000d0: c9c0 563a 3948 ad3d b0b0 233c 66f8 13be
000000e0: 2143 b7bd 14fd 78bd d07f 04be 45cb 263d
000000f0: 270c 893e c3c9 4ebe ab86 89bd df09 6abd
00000100: 957a 13be 8b58 37be b4a1 1ebe e8c2 01be
00000110: f360 2bbe e62a e8bd 82fb 473e 90d6 78be
00000120: 3e22 87be d66c 58bd a488 4fbe 7190 45be
00000130: 6c05 1bbe ac62 89bd 3e19 37bd 8b64 04be
00000140: ba0b 753e fe09 85be 60b6 85be f880 e4bd
00000150: 7ab0 03be 3698 0dbe c6fb 21be 93ee 85be
00000160: 84ad eabd 9caf 86bd 8bf2 5abe 9147 ab3e
00000170: 505f c2bd 2c29 11be 5f98 0ebe ceea abbd
00000180: 9ac6 0fbe 8a60 3fbe 52d3 2fbe c549 65bd
00000190: 49a1 48be 684e a13e e3dd 53be 540f 8ebe
000001a0: 0ae7 4bbe 0b95 27be 7ea6 5abe 2185 d7be
000001b0: 467c 72be 04f9 6ebe 0537 a6be 625e ec3e
000001c0: c340 73be 1055 76be a7f4 b4be f5d9 f9bd
000001d0: 0ed3 90be 235f a6be 94a3 d9be ac97 89be
000001e0: 1dd1 c4bd 6eee 853e cad9 55be 2265 5dbe
000001f0: 614b 79be 0140 2bbe 40bb 44be e6a4 7bbe
00000200: 7cf5 6cbe 4f39 fdbc 394f 26be 90ee 923e
00000210: 964a 45be 090e 5ebe 8349 15be 0052 5bbe
00000220: aecb f2bc dd7c 20be 5f66 33be 0248 e53c
00000230: d4ae 31bd bcff 8e3d 75c8 2abe 40fa 87bd
00000240: cecb 7cbe 147e 59be 8cc5 b6bd abbb b3bc
00000250: 8c87 e5bc 3870 353d c643 72be e6d5 7c3e
00000260: 930c 8fbe 6445 0cbe 0012 86be 20a4 77be
00000270: 85d4 68bc 1a6d 9dbe 153c f7bd 14a7 f7bd
00000280: 39b7 debd d1fa f53d d18c 71be 0a04 debd
00000290: 55c5 55be 6c08 e6bd 109a 6abe 6319 01be
000002a0: 2955 97bd 11c4 7cbd d1b4 d2bc d7bb 0f3e
000002b0: 7025 63be 893d 58be e23c e0bd b0d5 8dbe
000002c0: f5b1 c2bd 0a7b 94be db52 4cbe 0b68 49be
000002d0: 5b69 9fbe 0dcc 63be eb2f b93e b61c 52be
000002e0: 5a8a 0fbe 2bd5 1ebe 519f 8abd 93f7 62be
000002f0: 6399 79be 502b 98bd 6fe2 6cbe 81c4 48be
00000300: 3562 d63e ff8a 33be f310 58be 35d5 88be
00000310: 9de4 a3be 1017 95be 80a2 fbbd 29bb 7abe
00000320: 5a47 90be a79f b3be ae60 043f 70d2 11be
00000330: 73d3 5dbe 8182 97be aea3 2cbe 9493 8ebe
00000340: fb35 73be 64c4 a1be b704 65be 4c0a 79be
00000350: c8a2 883e 9fdc 03be 0284 2cbd 6f97 27be
00000360: b89e f2bd bc76 5cbe bdc0 43be 183b 17be
00000370: 2290 04be de6e 5fbe 7238 143e 8fbd 42be
00000380: 7698 45be fc10 88bd a36f 29be 58c3 efbd
00000390: a9b4 40be bffa f4bd a9ea 153d a98a 99be
000003a0: 2109 ebbd 6142 96bd ce42 a2bc 5271 a9bd
000003b0: e6f6 89bc 6ec6 f4bd 5a08 92bc 71dd 68bd
000003c0: bfb7 0ebe a8f7 3fbe 6919 8c3e db4a 6dbd
000003d0: 49f5 fdbd 7375 86be 65fe e5bd f964 b9be
000003e0: 544a 4ebe 84ea 3fbe 7efc 28be 7310 49be
000003f0: e90f 983e 3858 a7be e157 87bd b036 f9bd
0.2409115 -0.23742136 -0.23922776 -0.17025822 -0.104364716 -0.09163494 -0.0758187 -0.21548438
-0.24142143 -0.1199002 0.35892543 -0.23297626 -0.116067044 -0.20902953 -0.28329095 -0.2091882
0.009930552 -0.32850412 -0.17454612 -0.16456775 0.3605159 -0.3021026 -0.21233106 -0.24178913
-0.39992553 -0.23787172 -0.18928301 -0.26191998 -0.4563865 -0.32472697 0.28264657 -0.18800525
-0.3167948 -0.16748439 -0.06997317 -0.1768564 -0.20589277 -0.15809934 -0.16547275 -0.16319983
0.16287735 -0.13752547 -0.14452867 -0.03482434 -0.28472376 -0.036726873 -0.18842717 -0.15331009
-0.10068727 0.089326374 -0.11018682 -0.18922253 0.00081921794 0.08461041 0.009990856 -0.14450225
-0.08948351 -0.06078823 -0.12939382 0.040721197 0.26767084 -0.20194153 -0.06715139 -0.05713832
-0.1440223 -0.1790487 -0.15491372 -0.12672007 -0.16736202 -0.11336307 0.19529536 -0.24300599
-0.26393312 -0.05283817 -0.20266968 -0.19293381 -0.15138787 -0.06708273 -0.044701807 -0.12928979
0.23930255 -0.25984186 -0.26115704 -0.11157411 -0.12860289 -0.13827595 -0.158187 -0.2615858
-0.11458877 -0.065764636 -0.21381585 0.33453038 -0.09490836 -0.14175862 -0.13925312 -0.08394395
-0.14040604 -0.1868917 -0.17170456 -0.055978555 -0.19592775 0.31505132 -0.20690112 -0.2774607
-0.19912353 -0.16365449 -0.21352574 -0.42093757 -0.23680219 -0.2333718 -0.32463852 0.46165758
-0.23755173 -0.24055886 -0.35342905 -0.12199775 -0.28286022 -0.3249446 -0.42507613 -0.2687353
-0.09610198 0.2615847 -0.20883861 -0.2162061 -0.24345161 -0.16723634 -0.19212055 -0.24574623
-0.2314052 -0.030911116 -0.16241159 0.28697634 -0.19266734 -0.21685041 -0.14578824 -0.21418
-0.029638138 -0.15672632 -0.1751952 0.027988438 -0.04337962 0.06982371 -0.16678031 -0.06639528
-0.2468712 -0.21239501 -0.08924398 -0.021940073 -0.028018735 0.044296473 -0.23658666 0.24690971
-0.2793928 -0.13698345 -0.26185608 -0.24183702 -0.014210825 -0.307473 -0.120720066 -0.120924145
-0.10874791 0.1201073 -0.23588873 -0.10840614 -0.20876057 -0.11232075 -0.22910333 -0.1260734
-0.0738929 -0.06171042 -0.025720986 0.14036499 -0.2218225 -0.21117224 -0.109491125 -0.27702093
-0.09506599 -0.2900012 -0.19953482 -0.19668595 -0.31135067 -0.22245808 0.3616937 -0.20518765
-0.1401762 -0.15511005 -0.067686684 -0.22164755 -0.24374919 -0.07430136 -0.23133253 -0.1960621
0.418718 -0.17533492 -0.21100216 -0.26725164 -0.32010356 -0.29119158 -0.12286854 -0.24485458
-0.28179437 -0.35082743 0.5171002 -0.14240432 -0.21662693 -0.29591754 -0.16859314 -0.27846968
-0.2375106 -0.31595147 -0.2236508 -0.24320334 0.26686692 -0.12877129 -0.04211808 -0.16366361
-0.118466794 -0.21529669 -0.19116493 -0.14768636 -0.12945607 -0.21819636 0.14474657 -0.19017623
-0.1929644 -0.066438645 -0.16546492 -0.11707181 -0.18818916 -0.119618885 0.036600742 -0.29988602
-0.114763506 -0.073368795 -0.019807246 -0.08273567 -0.016841363 -0.1195191 -0.017826248 -0.056851808
-0.13937281 -0.18746817 0.27363136 -0.057932716 -0.124003 -0.26261482 -0.112301625 -0.3620985
-0.20145541 -0.18741804 -0.16502568 -0.19635181 0.29699638 -0.32684493 -0.066085584 -0.12168634

bias f4 [10]
00000000: 9ec4 063e 37ef bf3c af60 0abd 79a1 c6bd
00000010: 01f7 0bbd a48a 87bd 542f f53d 6a8c a3bd
00000020: 2dc2 343e 8468 8f3d
0.13160941 0.023429496 -0.03378361 -0.09698767 -0.03417111 -0.066182405 0.11971918 -0.07985766
0.17652197 0.07002357

weight f4 [90]
00000000: 954a a53f a5b6 a63f 0b73 a93f 8d33 973f
00000010: 6a9a 9e3f 22fb b13f 7032 963f ef1c a73f
00000020: a291 9f3f 62c9 9b3f f307 c43f bd54 c03f
00000030: 387f ce3f 97a3 c33f 24e6 d13f e766 ca3f
00000040: da6e b53f 80a3 bb3f 7efb b53f 7401 bb3f
00000050: 58bf cb3f 85da dc3f a39a f03f b489 d63f
00000060: 9408 d53f 1190 cf3f 6211 c23f 36c7 c83f
00000070: da13 cd3f 4da6 da3f b0ab ab3f d78b b03f
00000080: 6107 a33f 8823 973f 79f9 a03f 1dde 9b3f
00000090: 6654 aa3f bfbb a83f 2dbb 9b3f 296b 9b3f
000000a0: a20c 9a3f 1d7e a23f 9ac4 a43f 3940 8d3f
000000b0: bee2 a03f e35d 843f 5c41 9f3f a698 a03f
000000c0: 33ef 963f 0f9e 8e3f e96d 823f de09 8b3f
000000d0: 2a30 733f 6549 923f d4e1 8e3f ede0 803f
000000e0: b2f7 653f 8799 7a3f 56a6 873f 1cdf 7b3f
000000f0: 49d9 9c3f ef69 b93f a591 ab3f 9df8 a43f
00000100: e0dc aa3f bbcb 993f 952e 983f b4b5 a83f
00000110: 6405 ab3f c594 9f3f 37b1 9d3f b1c7 9c3f
00000120: 6028 a33f 39af aa3f 47ce a13f 0641 b03f
00000130: 9222 a13f 7bd0 aa3f 19df 8e3f d9ae 903f
00000140: 6d71 a93f 6860 ab3f 233a a63f 10d1 a73f
00000150: 4361 9d3f 13a0 aa3f 08c7 a13f 2df8 a93f
00000160: a4c5 ac3f 6d18 9f3f
1.2913386 1.3024489 1.3238233 1.1812607 1.2390873 1.3904765 1.1734142 1.3055705
1.2466319 1.2170832 1.5314926 1.502586 1.6132574 1.5284299 1.6398358 1.5812653
1.4174454 1.4659271 1.4217374 1.4609818 1.5917768 1.7254187 1.8797191 1.6760774
1.6643243 1.621584 1.5161555 1.5685794 1.6021683 1.7082001 1.341177 1.3792676
1.2736627 1.1807718 1.2576133 1.2177159 1.3307006 1.3182296 1.2166497 1.2142078
1.2035105 1.2694737 1.2872498 1.1035224 1.2569196 1.0341152 1.2441821 1.2546585
1.1791748 1.1141986 1.0189792 1.0862386 0.9499537 1.1428648 1.1162667 1.0068642
0.8983108 0.97890514 1.0597637 0.9838731 1.225381 1.4485453 1.3403822 1.2888371
1.3348656 1.2015299 1.1889216 1.3180451 1.336102 1.2467276 1.2319707 1.2248441
1.2746696 1.3334724 1.2641076 1.3769844 1.2588675 1.3344873 1.1161834 1.1303359
1.323774 1.3388796 1.2986492 1.3110676 1.2295307 1.3330101 1.2638865 1.3278862
1.3497815 1.2429329

bias f4 [90]
00000000: e935 e03e 950d ce3e b13a c53e 27c6 c43d
00000010: d73e 983e 88b4 c43e 0abc 823e 9a74 e43e
00000020: 909a a03e 1d20 963e 1b86 f33e 5bad 153f
00000030: 5ffd 0b3f 4fe4 893e c50d 1e3f 0770 c03e
00000040: 5fc8 e33e d37f ff3e 7683 b13e 499b b83e
00000050: df60 ca3e 55cd 113f e1b6 1e3f ea1a b33e
00000060: e505 e93e 31d3 f43e ec24 b93e 8d29 b33e
00000070: e8cb 073f 1126 b63e 87b1 a83e 22d6 e53e
00000080: 3b13 cb3e 16b7 1d3e 724b ab3e 843b 773e
00000090: 0e5d c13e 6fbc e43e cbc9 4d3e ab92 c53e
000000a0: c288 2e3e 358b a93e 6d76 863e 8efb 653e
000000b0: d6a5 893e 5600 ab3d f3cd 7e3e 0302 983e
000000c0: ad78 743e ada3 813e 0cb7 ba3c eb7a 393e
000000d0: 7800 35bc 88be 893d 07de 603e ef26 6bbd
000000e0: 55c9 833b 8bb5 e5ba 14ae fe3d 4621 ac3d
000000f0: c340 a53e d901 d93e 0c74 b53e 0907 4b3e
00000100: 4320 983e ff2e 6b3e 6cee 9b3e f46b da3e
00000110: 374c a83e 5cf2 b23e 94bf bc3e 7d6d d03e
00000120: 43f5 aa3e e126 823e 29ef a33e 3e05 a73e
00000130: b305 b73e 9f69 e13e 2801 4f3e 55ed 813e
00000140: 5bd6 a83e 6e81 d33e e1ea aa3e cbc9 853e
00000150: 6565 8a3e a4cc a63e e85b a43e fc31 de3e
00000160: e0fb c83e 3bc4 9e3e
0.4379113 0.40244737 0.3852134 0.09608107 0.29735443 0.38418984 0.25534087 0.4462021
0.31367922 0.29321375 0.47563252 0.58467644 0.5468349 0.26931998 0.6173976 0.3758547
0.4448881 0.4990221 0.3467061 0.36055973 0.39527032 0.56953937 0.619978 0.3498147
0.4551231 0.47817376 0.36160982 0.34992638 0.5304551 0.35575917 0.32947943 0.44889933
0.3966311 0.15401873 0.33455998 0.24143797 0.37766308 0.44675013 0.20096509 0.3858846
0.17044356 0.3311402 0.26262227 0.22459242 0.26884335 0.083496734 0.24883251 0.29689035
0.23874159 0.25320187 0.022792362 0.18113296 -0.011047475 0.06725794 0.21959697 -0.057410177
0.0040218034 -0.0017525417 0.124355465 0.08404784 0.32275972 0.42384222 0.354401 0.19826902
0.29712114 0.22967146 0.3045534 0.42660487 0.32870647 0.3495053 0.36864913 0.40708533
0.33390245 0.25420287 0.32018402 0.32621187 0.35746536 0.44025895 0.20215285 0.25376382
0.3297604 0.41309685 0.33382323 0.26130518 0.27030483 0.32578003 0.3210137 0.4339751
0.39254665 0.31009087
