ensemble_model_stacking/ensemble_model_stacking_cifar10.pt (torch, 8400 bytes, 4 tensors)

weight f4 [10, 100]
00000000: 8e0e 93be 9c26 073e 2a9b 4a3e 8a15 6f3c
00000010: c538 d3bd 4af7 cc3c 8746 193e c9db 55bc
00000020: b299 f6bc de82 013d 56b5 933e c12d d1bd
00000030: f39e 4dbe b669 cbbd e75f 0cbe ed5c 4c3c
00000040: fd7f aabd 4f5d d5bd 5b6e d9bd 480b 19be
00000050: 3801 b33e 8538 7ebe d074 46be 0d6b 8bbe
00000060: ebb2 9fbe a6ed 32be c381 88bd e75b a2be
00000070: f3cc 89be 09e0 cabd 3156 c53e 78b7 a1be
00000080: abae 82be 47a9 83be 9487 c0be 7ab0 42be
00000090: 2944 50be 88eb cbbd 0d35 b6be 845c 97be
000000a0: c7b2 973e b212 38be 860f 6fbe c2d7 6fbe
000000b0: 42bd 28be fd47 01be badf 91be 6c35 4dbe
000000c0: 2d10 59be aa0a 35be 42fa 033e 4968 71be
000000d0: 6649 b7bd 45fb bdbd 7cb5 66be 88dc 0fbd
000000e0: 0c87 5cbe 859e d2bd 0ecc 2bbe 2db0 1fbe
000000f0: de7e 943c 6a05 3fbe fc67 453d b059 e83d
00000100: c0e9 a7bc f885 cebd 542d efbd 09a5 003c
00000110: 8fb0 25be bc44 e43d 5c37 763e 9a71 93be
00000120: 2f42 0abe 7cae 01be e642 10be 757a 31be
00000130: 8959 96bd 01ff 26be f82e 46be 7a89 86be
00000140: 46b5 2f3e 639f 03be 48d0 e0bd 6a57 1ebd
00000150: 5044 dabd c96a fdbd 0dfb 46bc 384b b4bd
00000160: 104d eabd 10b5 7cbd f683 8d3e 400a 89be
00000170: f4c1 9dbe cac6 b4bd 4f54 3fbe 48b8 21be
00000180: c343 68be 9631 47be 86f9 6ebe c7db 6dbd
00000190: fa92 8a3d 6b09 d9bd fd9e 363d 31f0 973c
000001a0: 6d1b b63b 2f2b 52bd d17c 11be 2b48 07be
000001b0: f62a 933e d077 913e bb0b 62be b4f3 413e
000001c0: 2009 87be c7fc 3fbd 7bd6 34be 8158 01be
000001d0: 16df a4bd 15d4 aabe c563 e3bd a4a0 1fbe
000001e0: a380 26be 0410 cd3e 6fac 13be e2c5 51be
000001f0: 4f27 84be 665e 97be 4ceb 9dbe 8129 97be
00000200: fda3 5ebe f928 4fbe 8a8e 99be 38db c73e
00000210: a6a7 ebbe c027 d3be f68c d9be 8b80 99be
00000220: 069b 7abe 143e 8fbe 912f c9be a040 a6be
00000230: 8d49 d9bc aeea aa3e a775 1ebe aafc 89be
00000240: 29b3 35be 2e82 51be c858 91bd 24df 0bbe
00000250: eccd b1bd fc15 7ebd 4f5b 07be d2ad 8a3e
00000260: 09cf 65be 6f96 20be 2e22 a3bd bc82 3abe
00000270: e169 ecbd 121c 54be 8b88 d1bd 4b34 18be
00000280: d5d2 8e3c b226 953d 5ee2 5fbe 4083 dbbd
00000290: 634b fbbd 426c c5bd 662b e1bd 0072 1ebe
000002a0: 5689 e8bb 1f2b ee3b c9d6 5cbe be29 253e
000002b0: a4a9 92be e6d2 32be b569 19be 4bf3 83be
000002c0: 475a 1fbe f1bb 43be 8556 22be 1ecc 98bd
000002d0: bd43 04be b7aa 3d3e 43bf 22be b662 47be
000002e0: 6b5f 7dbe a647 2bbd 1f15 2bbe bddb 25be
000002f0: 56ae 96bd 35e0 e6bd 5b7d 92bd 8f23 843e
00000300: 9cb9 98be 7046 69be cde0 71be e3e4 30be
00000310: 0565 a4bd a2e5 23be e3d2 36bd 0fda 23be
00000320: 4a84 a63d 16d7 08be f19b 4dbe 9127 683d
00000330: fc69 5abc 877c 48bd cc9e 0e3e 6101 133e
00000340: 900e f93d f8bc 943d 0a65 88be 1ec1 84be
00000350: 9d46 a63e e813 37be 7322 06be d6ca 0cbe
00000360: eabf aabd 6846 4ebe 110a f5bd e0fe 12be
00000370: db1d 80be bbe7 27be 9a9a ba3e 112c f7bd
00000380: ce61 5cbe e54e 82be 208d 8abe 61df 40be
00000390: 6322 50be 40f3 0ebe 3761 80be cea8 9bbe
000003a0: 0a25 023f 72a9 8cbe c1b0 7dbe 861c adbe
000003b0: 6285 9bbe 2a8d a7be 0d3e a9be ae08 aebe
000003c0: 9fc7 95be 45db 5dbe 5659 1a3e 31cb 09be
000003d0: 8589 37be 6172 22be a8d2 f1bd 9f58 e7bd
000003e0: 0978 a0be 0aa4 8dbd 81d6 30be f4ed 7abe
000003f0: 8d16 7c3e 4a6c 24be 71c6 03be 6904 ab3c
-0.28722042 0.13198322 0.19785753 0.014592538 -0.10313562 0.02502026 0.1496831 -0.013052889
-0.030102585 0.031618945 0.28849286 -0.10213805 -0.20080166 -0.09932272 -0.13708459 0.012473327
-0.08325193 -0.10418188 -0.10616752 -0.1494571 0.34961867 -0.24826248 -0.19380498 -0.2723011
-0.3119119 -0.17473468 -0.06665375 -0.3171074 -0.26914176 -0.099060126 0.3854232 -0.31585288
-0.25523886 -0.25715086 -0.37603438 -0.19012633 -0.20338501 -0.099570334 -0.3558735 -0.2956277
0.29628584 -0.17975882 -0.23345765 -0.23422149 -0.16478446 -0.12625118 -0.28491002 -0.2003991
-0.21197577 -0.1767985 0.12888435 -0.23574938 -0.089495465 -0.092764415 -0.22530168 -0.035122424
-0.21535891 -0.102841415 -0.1677706 -0.1559455 0.018126901 -0.18654409 0.04819487 0.113452315
-0.020497203 -0.10084146 -0.116785675 0.007851847 -0.16180633 0.111459225 0.24044555 -0.2879761
-0.1350181 -0.12664217 -0.1408802 -0.1733187 -0.07341296 -0.16308214 -0.19353855 -0.2627676
0.17158994 -0.1285377 -0.109772265 -0.038657583 -0.10657561 -0.12373883 -0.012144816 -0.08803409
-0.1144048 -0.061696112 0.2763974 -0.26765633 -0.30812037 -0.088269785 -0.18684505 -0.15792954
-0.22682099 -0.1945251 -0.23337373 -0.058070924 0.06766315 -0.105974995 0.044585217 0.01854715
0.0055574686 -0.051310714 -0.1420777 -0.13211124 0.28743714 0.28411722 -0.22074787 0.18940622
-0.2637415 -0.046871927 -0.17659943 -0.12631418 -0.08050363 -0.3336493 -0.11103014 -0.15588623
-0.16260009 0.4005128 -0.14421247 -0.20485643 -0.2581124 -0.29564208 -0.3084358 -0.29523852
-0.21742244 -0.20230474 -0.2999156 0.39034438 -0.46026343 -0.41241264 -0.42490357 -0.29980883
-0.24473199 -0.2797705 -0.39294103 -0.3247118 -0.02652433 0.3338217 -0.15474568 -0.2695058
-0.17744125 -0.20459816 -0.07097012 -0.1365934 -0.086818546 -0.062032685 -0.13218425 0.2708574
-0.22442259 -0.15682386 -0.07965504 -0.18213934 -0.11543632 -0.20713833 -0.10231122 -0.14863698
0.017434517 0.07282771 -0.21863696 -0.10718393 -0.12270238 -0.09639789 -0.10994606 -0.15473175
-0.00709645 0.007268324 -0.21566309 0.16129205 -0.2864505 -0.17463264 -0.1498173 -0.25771555
-0.15561782 -0.19114663 -0.15853317 -0.07460807 -0.12916465 0.18522154 -0.15893273 -0.19471249
-0.2474343 -0.041816376 -0.16707276 -0.16197105 -0.07357471 -0.11273233 -0.07152816 0.2580838
-0.2982911 -0.22780776 -0.23620911 -0.17274813 -0.080270804 -0.16005567 -0.04463471 -0.16001152
0.08130701 -0.13363299 -0.20079018 0.05667836 -0.013330933 -0.048946884 0.13927764 0.14355995
0.12160981 0.072626054 -0.26639587 -0.25928587 0.3247575 -0.17878687 -0.13099079 -0.13749251
-0.08337386 -0.20144045 -0.11964811 -0.1435504 -0.25022778 -0.16396992 0.36446077 -0.12068952
-0.21521685 -0.25450817 -0.27060795 -0.18835212 -0.20325617 -0.1395998 -0.2507417 -0.30402225
0.5083777 -0.27473027 -0.24774458 -0.33810824 -0.303752 -0.32724887 -0.33055153 -0.33990997
-0.2925386 -0.21665676 0.15073141 -0.13456418 -0.17923553 -0.15863945 -0.118077576 -0.112962
-0.3134158 -0.069160536 -0.17269327 -0.24504834 0.24617977 -0.16056934 -0.12868668 0.020876126

bias f4 [10]
00000000: e688 0abe 66d7 183e 43a8 9a3c e14b 87bd
00000010: e22f c9bd c4c2 dbbd ceb3 59bd 6dc0 ca3c
00000020: 2c5a f33b 3e9c 713d
-0.13528785 0.14925918 0.018879062 -0.0660627 -0.09823586 -0.10730508 -0.05314999 0.024749959
0.007426521 0.058986895

weight f4 [100]
00000000: ac7c 933f fa0b 913f 9f5f 943f fe9b 963f
00000010: 1693 863f 7370 783f 88ca a83f 94d1 853f
00000020: 5c6c a83f 894d 8f3f cf69 a13f a71a a53f
00000030: eb44 ad3f 5114 8f3f 4313 9f3f 7098 b33f
00000040: 7a58 983f 5f9c 9b3f 5500 9e3f f2bf a63f
00000050: 73e5 b73f 8b52 ca3f 5d93 ce3f bce9 bb3f
00000060: 1c75 c53f dd73 c03f 617b b53f 5da7 b93f
00000070: 00de b13f f152 b13f fe34 d23f 12b7 cf3f
00000080: 2d02 ec3f 4197 db3f 0d13 e63f c563 d23f
00000090: d995 c73f b743 cc3f 1e81 ce3f 8a2b d63f
000000a0: dc9a a53f 0d62 a73f e2a9 a23f d32f 993f
000000b0: f632 a83f a85f a43f ead4 aa3f 1173 a23f
000000c0: 4b22 a13f c59d 9b3f cd1a 913f 99d4 af3f
000000d0: cd88 973f b7f8 8f3f 00c9 a43f e1be 8b3f
000000e0: c29d 973f a08d 9f3f d8f5 a23f 5dfb 8e3f
000000f0: 8860 723f 0276 8b3f 7b84 723f 9a22 883f
00000100: e0fc 7d3f b0f1 7c3f ca39 833f 7ed7 793f
00000110: d9a8 8b3f a87a 853f b8e1 a73f 2031 ae3f
00000120: 25a1 b13f e752 a23f 7fc5 ad3f 2318 a83f
00000130: dc90 9c3f 1672 a53f 046a 9d3f a0ee 933f
00000140: 5285 963f 7a38 9b3f 7a48 a83f a98f a53f
00000150: 46ed 9d3f 588b ad3f d588 9c3f 40c3 a93f
00000160: 5926 943f eb27 9b3f 81a5 a93f 2c7c ad3f
00000170: cbc1 a63f 0698 a83f 9796 9e3f cd51 a13f
00000180: a3d3 a23f 52dc ae3f a7d0 a43f 24c3 9c3f
1.1522422 1.133178 1.1591681 1.1766355 1.0513637 0.97046584 1.3186808 1.0454583
1.3158069 1.1195537 1.2610415 1.2898759 1.3536657 1.1178075 1.2427753 1.4030895
1.1902001 1.2157096 1.2343851 1.3027327 1.4366897 1.580644 1.6138722 1.4680705
1.5426364 1.5035359 1.4178277 1.45042 1.3895874 1.3853437 1.6422422 1.6227744
1.8438164 1.7155534 1.7974564 1.6436697 1.5592605 1.5958165 1.6133153 1.6732037
1.2937884 1.3076798 1.2708094 1.196772 1.3140552 1.2841692 1.3346226 1.2691365
1.258859 1.2157522 1.1336304 1.3736755 1.1838623 1.1247777 1.287384 1.0917627
1.1845019 1.2465096 1.2731276 1.117046 0.94678545 1.0895388 0.947334 1.063556
0.9921398 0.98806286 1.0252011 0.9759444 1.0910903 1.0428057 1.3115759 1.3608742
1.3877302 1.268155 1.3575896 1.3132366 1.2231708 1.2925441 1.2297978 1.1557198
1.1759436 1.212661 1.3147118 1.2934467 1.2338035 1.3558149 1.2229258 1.326271
1.1574203 1.2121557 1.3253633 1.3553519 1.3027891 1.3171394 1.2389706 1.2603089
1.2720836 1.3660986 1.2876176 1.2247052

bias f4 [100]
00000000: 918d b43d b0db b73d 0c46 cb3d 0eb6 b63d
00000010: 7fd6 103d 308e 79bd 215d 003e 73ef 6e3d
00000020: 9502 113e 2bde e03d 1643 b23e 5ca2 e63e
00000030: 83d1 d03e f608 143e 67a1 9b3e 4745 cc3e
00000040: e0be 933e c547 c33e 2510 7a3e 794a c13e
00000050: 1c0e 063f 3a22 223f efd6 fb3e 028b 343e
00000060: 67a7 163f 1257 ae3e 0de5 ae3e e9f6 033f
00000070: 3d7f 903e bceb a63e 098c d93e 429c e63e
00000080: 03b8 1c3f bf35 c03e eeca 073f 2c2a e83e
00000090: 7ea7 c33e 7086 e03e 11cc 0b3f 705a c73e
000000a0: e3c8 a83e 37e0 c63e 3182 ba3e a08d ef3d
000000b0: ac2f cb3e d6d8 963e b9c1 ae3e 5081 b03e
000000c0: 9eef 973e 8440 9a3e 55fd 4d3d 7fa5 b33e
000000d0: e525 563e b6fd 643e d49a 923e d75f 423e
000000e0: b0ba 563e 4656 9a3e 2834 903e d0d1 803d
000000f0: 2428 953c ada9 3a3e 9e41 f03d 88de a73d
00000100: 7e76 1d3d cd94 a33d 4b1b 9c3b a0ea 893d
00000110: 455a 453e 5341 fd3d b68d a53e 6599 b63e
00000120: 94ab ae3e fbe5 8a3e 36a4 cf3e 00d6 993e
00000130: 0d47 b33e b8b0 e53e 1f91 9f3e e433 643e
00000140: ffde 913e 6340 c33e 1b31 bd3e a599 9a3e
00000150: 83a0 773e 1d83 9a3e 1ba6 a53e 6c7d c93e
00000160: 1f87 673e 6b26 b53e 8e3d c93e 8e23 ee3e
00000170: ec13 9d3e 3cf7 943e 5077 ab3e 8bff 853e
00000180: 1add a93e 617b cd3e 3ab3 b23e a704 a83e
0.08816064 0.08977449 0.0992547 0.08921443 0.03536081 -0.060926616 0.12535526 0.058333825
0.14161141 0.10979875 0.34816808 0.45045745 0.40784845 0.14456543 0.30396578 0.39896604
0.28856564 0.38140693 0.24420221 0.3775213 0.5236528 0.63333476 0.4918742 0.17631152
0.58849186 0.34050804 0.34159127 0.5154863 0.28222075 0.32601726 0.4248965 0.4504109
0.6121828 0.37541005 0.5304402 0.45344675 0.38213724 0.43852568 0.54608256 0.38936186
0.32965764 0.38842937 0.36427453 0.11696935 0.39684808 0.29462308 0.34132174 0.34473658
0.29675 0.30127347 0.050290424 0.350872 0.20912893 0.22362408 0.2863375 0.18981872
0.20969653 0.30143946 0.28164792 0.062900186 0.018207617 0.18228789 0.117312655 0.08196741
0.03844308 0.07987366 0.0047639958 0.06734204 0.19272716 0.12365975 0.3233468 0.35663906
0.3411528 0.27128586 0.4055497 0.30046082 0.35015145 0.44861388 0.31165406 0.2228542
0.28490445 0.3813506 0.36951527 0.30195346 0.24182324 0.30178156 0.3235329 0.39353502
0.22610138 0.35380873 0.39304775 0.465115 0.30679262 0.29094875 0.33489466 0.26171526
0.331765 0.40133193 0.34902364 0.3281605
