ensemble_model_stacking/model1_Linear1_Scripted_mnist.pt (torch, 22385 bytes, 6 tensors)

weight f4 [30, 60]
0	0x3cb5dd2c	0.02220019
1	0xbd0915f4	-0.0334682
2	0x3eb4ce2e	0.35313553
3	0x3d8552cf	0.06509935
4	0xbe05af57	-0.13055168
5	0xbdee4c40	-0.11635637
6	0xbd4b1c67	-0.049587633
7	0x3da11c35	0.07866708
8	0xbc1709e5	-0.009218668
9	0x3d7e1d2e	0.062039547
10	0x3c4cc9e4	0.012499306
11	0xbe565de6	-0.20934257
12	0x3ee91901	0.4552689
13	0xbe0c3528	-0.13692153
14	0xbe6ac149	-0.22925295
15	0xbec5de22	-0.38646036
16	0xbea0209c	-0.3127488
17	0xbe6fb92a	-0.23410478
18	0xbe6d55b5	-0.23177226
19	0x3f389822	0.72107136
20	0xbddf6ea3	-0.10909774
21	0xbdf9e7be	-0.122024044
22	0x3f133f46	0.5751842
23	0xbe32b4a5	-0.17451723
24	0xbe1af41d	-0.15132184
25	0xbe0f1fd8	-0.13976991
26	0xbead6181	-0.33863452
27	0xbe5efaed	-0.21775408
28	0xbe2da0d6	-0.16955885
29	0x3efcc51f	0.4936914
30	0xbd6c274c	-0.057654664
31	0xbd3687ba	-0.044563033
32	0x3e91abd1	0.28451398
33	0xbe657f8b	-0.22411935
34	0xbd8fa1b2	-0.07013263
35	0xbe056fd9	-0.13030948
36	0x3d84e0b2	0.0648817
37	0xbdd2540a	-0.102699354
38	0x3d262612	0.04056365
39	0x3e7db1c3	0.24774842
40	0x3cbb9f85	0.022903213
41	0xbe8697a3	-0.26287565
42	0x3e958db3	0.2920967
43	0xbd21fdf4	-0.03954883
44	0xbe9bed8c	-0.3045467
45	0xbe8a6f4b	-0.27038035
46	0x3dab0ed1	0.083524354
47	0x3d9e0960	0.07716632
48	0xbdbdac2b	-0.09261354
49	0x3eb19666	0.34685057
50	0xbdab9b55	-0.083792366
51	0x3da70cb2	0.08156718
52	0x3dcd9053	0.10037293
53	0xbb56af70	-0.0032758377
54	0xbd9be7dd	-0.07612584
55	0xbcfd1da9	-0.030897932
56	0xbd9a1f54	-0.075255066
57	0xbe113f8e	-0.141844
58	0xbd9562f5	-0.07294265
59	0x3e6d13c3	0.2315207
60	0xbe4eb4b9	-0.20186128
61	0xbe3d50a3	-0.18487792
62	0xbe8d63e0	-0.2761526
63	0xbd9a1ba0	-0.075248
64	0xbe55d396	-0.20881495
65	0xbe3b41a8	-0.18286765
66	0x3e7e72bd	0.24848457
67	0x3dd11087	0.102082305
68	0xbc4a7806	-0.012357717
69	0x3e559e2f	0.20861124
70	0xbe1ca079	-0.1529559
71	0xbe8c4d8b	-0.2740291
72	0xbeb8a03e	-0.36059755
73	0xbe5c1dfb	-0.21495812
74	0xbed445a1	-0.41459373
75	0xbe90ebd6	-0.2830493
76	0x3f21e6d7	0.6324286
77	0x3ed26b04	0.4109727
78	0xbe0de0c8	-0.13855278
79	0x3f005dd4	0.5014317
80	0xbec1cfbe	-0.37853807
81	0xbe8f5867	-0.27997133
82	0xbeb3465c	-0.35014617
83	0xbe6e94fb	-0.23299019
84	0xbebd7e0c	-0.3701023
85	0xbe7b8f75	-0.24566443
86	0x3eee223e	0.465105
87	0x3eb7c909	0.35895565
88	0xbe6c8866	-0.23098907
89	0x3ee50dd6	0.44737118
90	0xbe793260	-0.24335623
91	0xbe484f88	-0.19561589
92	0xbe818bc5	-0.25301948
93	0xbe48d81b	-0.19613688
94	0xbeb14b7f	-0.3462791
95	0xbe73064a	-0.23732868
96	0x3e89ab22	0.26888376
97	0x3e4582ef	0.19288228
98	0xbe4024c0	-0.18764019
99	0x3e023c0a	0.12718216
100	0xbdadbfbc	-0.08483836
101	0xbe3465bd	-0.17616935
102	0xbe3c4fe2	-0.18389848
103	0xbeb8c1bb	-0.36085305
104	0xbe7690a1	-0.24078609
105	0xbea88162	-0.3291121
106	0x3ea6f78a	0.32610732
107	0x3e31d066	0.17364654
108	0xbe2e9656	-0.17049536
109	0x3e71154b	0.23543279
110	0xbe621d24	-0.22081429
111	0xbe4065d9	-0.18788852
112	0xbe6407b6	-0.22268566
113	0xbde702d6	-0.11279838
114	0xbea35c1a	-0.31906205
115	0xbdb59ec8	-0.08868176
116	0x3e225dac	0.15856045
117	0x3d9d98d9	0.07695169
118	0xbd5d0670	-0.053961217
119	0x3e8547da	0.2603138
120	0xbcba6c8b	-0.022756835
121	0x3e4972ff	0.19672774
122	0xbee814e9	-0.45328453
123	0xbd62760b	-0.055288356
124	0xbe951e35	-0.2912461
125	0x3e9d0487	0.30667517
126	0xbd97f505	-0.07419781
127	0xbdc5768e	-0.09641753
128	0xbe83fb91	-0.25777867
129	0x3e7a26a1	0.24428798
130	0xbe01d4da	-0.12678853
131	0x3ee78041	0.45215037
132	0xbebcbe63	-0.36864004
133	0xbed5eb66	-0.41781157
134	0xbe043d67	-0.12914048
135	0x3f079f9c	0.5297792
136	0xbe072aa9	-0.13199867
137	0xbef963a0	-0.4870882
138	0xbe015b1b	-0.1263241
139	0x3f02439b	0.5088441
140	0xbde8f0dc	-0.11374065
141	0x3eb9037c	0.3613547
142	0xbef21ae6	-0.47286147
143	0xbe9f337b	-0.31093964
144	0xbe7da33f	-0.24769305
145	0x3edf8387	0.43655035
146	0xbddf5e8a	-0.10906704
147	0xbe48ec0f	-0.19621299
148	0xbe9f73b0	-0.3114295
149	0x3eb5b230	0.3548751
150	0xbe002743	-0.12514977
151	0x3e1e173d	0.15438552
152	0xbe816aaa	-0.2527669
153	0xbe808246	-0.2509939
154	0xbe74d677	-0.23909937
155	0x3e9ec4d6	0.3100955
156	0xbe8bf5f7	-0.27336094
157	0xbe213ad6	-0.157451
158	0xbe801692	-0.2501722
159	0x3e8c5c8f	0.27414367
160	0xbd9b4e59	-0.07583303
161	0x3ddc800d	0.10766611
162	0xbeb7ed01	-0.35923007
163	0xbe1a9fbc	-0.15099996
164	0xbd54ffc4	-0.05200173
165	0x3e889610	0.2667699
166	0xbe0319d4	-0.12802821
167	0xbdb8ab2d	-0.09017024
168	0xbd9134a7	-0.07090121
169	0x3e49cbe5	0.19706686
170	0xbe14f8c2	-0.14548019
171	0x3e849044	0.25891316
172	0xbe511bf0	-0.20420814
173	0xbe6b7043	-0.22992043
174	0xbe85d497	-0.26138756
175	0x3ea6162f	0.324388
176	0xbe3bf3e1	-0.18354751
177	0xbe548eb8	-0.20757568
178	0xbe3a5b0b	-0.18198793
179	0x3ea71646	0.3263418
180	0xbe957f82	-0.29198843
181	0xbda5dc93	-0.08098712
182	0xbeabbd4c	-0.3354286
183	0x3f1e321f	0.6179523
184	0xbe74343d	-0.23848052
185	0xbe4b8d09	-0.1987802
186	0xbe94af95	-0.29040208
187	0xbde6576f	-0.112471454
188	0x3d813cab	0.063103996
189	0x3e4ec241	0.2019129
190	0xbe8c1817	-0.2736213
191	0xbdccbd6b	-0.09997066
192	0xbede8168	-0.43458104
193	0x3f402935	0.75062877
194	0xbf0ba35d	-0.5454615
195	0xbeccc18e	-0.3999142
196	0xbe96b7e7	-0.2943718
197	0xbec27374	-0.3797871
198	0x3d7f5940	0.062340975
199	0x3eec146a	0.46109325
200	0xbe4be2a6	-0.19910678
201	0xbeaeccc7	-0.34140608
202	0xbe910d7d	-0.28330603
203	0x3f19db5f	0.6010036
204	0xbeb2ae38	-0.34898543
205	0xbeb9b60b	-0.362717
206	0xbe7eb632	-0.2487419
207	0xbecc754e	-0.39933246
208	0x3e895d8d	0.26829186
209	0x3e924fe8	0.2857659
210	0xbe4ab9ec	-0.19797486
211	0xbe72d526	-0.23714122
212	0xbe61466b	-0.21999519
213	0x3f450753	0.769643
214	0xbea8a6fc	-0.329399
215	0xbe907c75	-0.28219953
216	0xbe2719ee	-0.16318485
217	0xbd8b5851	-0.068039544
218	0xbda50b6e	-0.08058821
219	0x3e404316	0.18775591
220	0xbe8cc7f4	-0.27496302
221	0xbd1c12bf	-0.038103815
222	0xbe65f937	-0.22458349
223	0x3ed32193	0.41236553
224	0xbe892eed	-0.26793614
225	0xbeb582c8	-0.3545134
226	0xbe37772d	-0.17916556
227	0xbe53460b	-0.20632188
228	0x3e115e5d	0.14196153
229	0xbc561e5e	-0.013068764
230	0xbe98cc78	-0.29843497
231	0xbe8a483f	-0.27008244
232	0xbe90d9b6	-0.282911
233	0x3f14d8a3	0.5814306
234	0xbe8ef154	-0.27918494
235	0xbe8e2151	-0.27759793
236	0xbe70161f	-0.23445939
237	0xbe73222d	-0.23743506
238	0x3c507a70	0.012724504
239	0x3e3ed665	0.18636473
240	0xbe86c8db	-0.26325116
241	0x3e2de516	0.1698192
242	0xbe381981	-0.17978479
243	0xbe990859	-0.2988918
244	0xbec78d21	-0.3897486
245	0xbe8f28f8	-0.27960944
246	0xbe3b9a16	-0.18320498
247	0x3def31da	0.1167943
248	0x3f1b5fad	0.60692865
249	0xbe8a0fa3	-0.26965055
250	0xbeb2b706	-0.3490526
251	0x3eb713f7	0.3575742
252	0xbed22c14	-0.41049254
253	0xbe8f4e92	-0.27989632
254	0xbeb8aeb1	-0.3607078
255	0xbe8166d7	-0.25273773

bias f4 [30]
0	0xbd40cd73	-0.04707093
1	0x3aaca274	0.0013170973
2	0x3d296c25	0.0413629
3	0x3e94eabd	0.2908534
4	0x3dc60579	0.096690126
5	0x3e8bdc3a	0.27316457
6	0xbd2b77aa	-0.041862167
7	0x3e68c772	0.22732332
8	0x3ec4f9bb	0.3847178
9	0xbd215d6b	-0.03939573
10	0x3df70c54	0.12062898
11	0x3d6fb274	0.058519796
12	0x3d90b5e1	0.07065941
13	0x3e3abe2e	0.1823661
14	0x3e4b6f57	0.19866692
15	0x3e5936a9	0.21212257
16	0x3e192867	0.14956819
17	0x3e23f484	0.16011244
18	0x3ea9d95b	0.33173642
19	0x3e96a054	0.29419196
20	0x3e262bea	0.1622769
21	0x3e36f309	0.17866148
22	0x3da3f15a	0.080050185
23	0x3ed001cc	0.4062637
24	0x3eb1245f	0.3459806
25	0x3e60a858	0.21939218
26	0x3e21ac2d	0.15788336
27	0x3e121fac	0.14269894
28	0x3e80fe51	0.25194028
29	0x3e8221c2	0.2541638

weight f4 [10, 30]
0	0xbeae7b44	-0.3407842
1	0xbf027d93	-0.5097286
2	0xbef2f0c9	-0.4744933
3	0xbf1adc9a	-0.6049286
4	0xbee0b422	-0.4388743
5	0x3eaa4d89	0.3326228
6	0xbf2d5138	-0.67702055
7	0x3eb666b1	0.35625222
8	0xbf5b7629	-0.85727173
9	0xbf03b044	-0.51440835
10	0xbefafbb0	-0.49020147
11	0xbf12e523	-0.57380885
12	0xbf9acdeb	-1.2094091
13	0xbf6c550f	-0.9231729
14	0xbf583776	-0.84459627
15	0xbecd17ee	-0.4005732
16	0xbed8d4d7	-0.42349884
17	0xbf139e5a	-0.576635
18	0xbf57e9c3	-0.8434107
19	0x3eaf8ea0	0.34288502
20	0xbf1f0e09	-0.6213079
21	0x3ec658e6	0.387397
22	0xbf4c1092	-0.79712784
23	0xbf514ba9	-0.81756073
24	0xbf961d33	-1.1727661
25	0xbeff02d2	-0.4980684
26	0xbebe84e5	-0.37210765
27	0xbf860163	-1.0469173
28	0xbf2743c1	-0.6533776
29	0xbf4b7a79	-0.79483753
30	0xbebc8d16	-0.3682639
31	0xbec2fdbd	-0.38084212
32	0x3ea3d9a0	0.32001972
33	0xbf026829	-0.50940186
34	0x3e9d72e7	0.30751726
35	0xbec74ffc	-0.3892821
36	0xbec7da49	-0.39033726
37	0x3e36ebaf	0.17863344
38	0x3e545541	0.20735647
39	0xbec49783	-0.38396844
40	0x3e975f38	0.29564834
41	0xbe8479a7	-0.25874063
42	0x3e99f078	0.30066276
43	0x3e8fe3b7	0.2810342
44	0xbeeced0e	-0.46274608
45	0xbe943d97	-0.2895324
46	0xbeba4f24	-0.36388505
47	0x3eb20fd2	0.34777695
48	0xbee29d27	-0.44260523
49	0xbf16749d	-0.5877169
50	0xbec4a179	-0.38404444
51	0x3eb0b90f	0.34516189
52	0xbf17cbd3	-0.59295386
53	0x3e880ff5	0.26574674
54	0xbf3b6dee	-0.73214614
55	0x3e984f29	0.29747894
56	0xbeafb534	-0.34317935
57	0xbf0d4242	-0.55179226
58	0xbf02d249	-0.5110212
59	0xbed3c0b5	-0.4135796
60	0x3ef03e7d	0.46922675
61	0xbeb7fcaa	-0.35934955
62	0xbe674ad3	-0.22587137
63	0xbefa026c	-0.48829973
64	0xbe6ad7df	-0.22933911
65	0x3ddeff50	0.10888541
66	0x3e8d211d	0.27564326
67	0xbec9aec2	-0.39391142
68	0xbf208cda	-0.6271492
69	0xbed1f806	-0.4100954
70	0xbed1643b	-0.40896782
71	0x3e87b734	0.2650696
72	0xbf050bd8	-0.519712
73	0xbf0a09d0	-0.5392122
74	0xbed94d05	-0.42441574
75	0xbebdffec	-0.37109315
76	0xbe302782	-0.17202571
77	0x3eb435db	0.35197338
78	0x3ebc3946	0.36762446
79	0xbee6f110	-0.4510579
80	0x3ea2a1f6	0.3176419
81	0xbf00557d	-0.50130445
82	0xbecd81f7	-0.40138218
83	0xbebb85f1	-0.36625627
84	0x3e91cdc8	0.2847731
85	0x3ec1718c	0.37781942
86	0xbeda2f26	-0.42614096
87	0xbefdef29	-0.49596527
88	0x3e925374	0.28579295
89	0xbeb8627c	-0.36012638
90	0xbea54437	-0.32278606
91	0xbee182ff	-0.44045255
92	0xbeb6d5b0	-0.35709906
93	0x3ec79670	0.38981962
94	0xbe95b9d3	-0.29243335
95	0xbf29af3c	-0.6628301
96	0x3ec5e242	0.38649184
97	0xbf14c451	-0.58112055
98	0xbf0e0587	-0.55477184
99	0xbef3a873	-0.47589454
100	0xbee9206f	-0.45532557
101	0xbeaadb1e	-0.33370298
102	0x3e3f1b66	0.18662795
103	0x3eb32c9b	0.3499497
104	0xbf3dc03b	-0.74121445
105	0xbec70fe4	-0.3887931
106	0xbed54722	-0.41655833
107	0xbf13882e	-0.5762967
108	0xbf585b44	-0.8451426
109	0xbf254ef5	-0.64573604
110	0xbed179fd	-0.40913382
111	0xbde8382f	-0.11338841
112	0xbf41a0b4	-0.7563584
113	0x3ea3bd0b	0.31980166
114	0x3eaff7ba	0.34368688
115	0xbecc9ca1	-0.39963248
116	0xbec3bc14	-0.3822943
117	0xbf397c6c	-0.7245548
118	0xbf0387f0	-0.513793
119	0x3ec7365e	0.38908666
120	0xbea6ad0a	-0.32553893
121	0xbefb4842	-0.49078566
122	0xbeefddd7	-0.46848938
123	0xbef833e6	-0.48477095
124	0xbf09b54d	-0.5379227
125	0xbf0c559f	-0.5481815
126	0xbf2fd634	-0.68686223
127	0xbf319599	-0.6936889
128	0xbf2adde7	-0.66744846
129	0xbf045945	-0.51698714
130	0x3eae1793	0.3400236
131	0xbef607af	-0.48052737
132	0xbf29cb27	-0.6632561
133	0x3e7f582a	0.24935976
134	0x3e965b8a	0.29366714
135	0x3eaa9f16	0.33324498
136	0xbf0e7389	-0.5564504
137	0x3ec7af64	0.39001
138	0xbf29ed7d	-0.66378003
139	0xbf1f812c	-0.62306476
140	0xbf234831	-0.6378203
141	0xbf1db4ae	-0.6160382
142	0x3ea1fbee	0.3163752
143	0xbf534f5f	-0.82542986
144	0x3e5ad8ef	0.21371816
145	0xbf0e7763	-0.5565092
146	0x3ea4ca0c	0.321854
147	0x3e78daa1	0.2430215
148	0xbef7fbee	-0.48434395
149	0xbf225000	-0.6340332
150	0xbe7aaa1c	-0.24478954
151	0xbe8db02e	-0.27673477
152	0x3ed042ac	0.40675867
153	0xbeac4a22	-0.3365031
154	0xbea05a03	-0.31318673
155	0xbf0c8093	-0.5488369
156	0xbedee81c	-0.4353646
157	0xbf0adaba	-0.5424
158	0x3e8fc329	0.28078583
159	0xbe8d9158	-0.2764995
160	0xbefe879f	-0.49712846
161	0x3ec1bae2	0.37837893
162	0xbf337b53	-0.7011005
163	0xbf0a08c2	-0.53919613
164	0xbed80c97	-0.42197105
165	0xbe76734a	-0.24067417
166	0x3ed559b7	0.4167001
167	0xbee0fc92	-0.43942696
168	0x3e39d1b1	0.18146397
169	0xbed5f05a	-0.41784936
170	0xbec6ecb7	-0.38852474
171	0xbf0ccb60	-0.54997826
172	0xbed694df	-0.41910455
173	0x3e8cdcae	0.27512115
174	0xbf38379a	-0.7195984
175	0xbeacf29f	-0.33778855
176	0xbed59a25	-0.41719165
177	0x3e858253	0.26075992
178	0x3ebd0c7c	0.36923587
179	0x3e973043	0.29529008
180	0xbe520312	-0.20508984
181	0x3ecfdae9	0.40596703
182	0xbec4f907	-0.38471243
183	0xbec154cc	-0.37760007
184	0xbef40d48	-0.47666383
185	0x3e9946bf	0.29936787
186	0xbf13ed78	-0.57784224
187	0x3ea6e08c	0.3259319
188	0xbf08020c	-0.53128123
189	0x3ec4d682	0.38444906
190	0xbf054871	-0.5206366
191	0xbe44acb3	-0.19206505
192	0xbefd9591	-0.49528173
193	0x3da368c1	0.079789646
194	0x3e4ddd4a	0.20103946
195	0xbebb7e84	-0.3661996
196	0x3eaed378	0.34145713
197	0xbe900637	-0.28129742
198	0x3ea36d3e	0.31919283
199	0xbedc8743	-0.43071947
200	0xbf09ef8b	-0.5388114
201	0xbe906356	-0.28200787
202	0x3df1b8b3	0.11802807
203	0x3e6d260f	0.2315905
204	0x3d7dcabc	0.06196092
205	0xbecadfd8	-0.39623904
206	0xbedc9337	-0.43081066
207	0xbf0a4fe1	-0.54028136
208	0xbebe1b28	-0.37130094
209	0xbf25e7bf	-0.6480674
210	0xbeb45c3c	-0.3522662
211	0x3e92a709	0.28643063
212	0xbec68d6e	-0.38779777
213	0xbea825d1	-0.32841352
214	0x3e49949f	0.196856
215	0xbecf3e65	-0.4047729
216	0x3e5a640b	0.21327226
217	0x3e092249	0.13391985
218	0xbecf19eb	-0.4044946
219	0x3e6585e1	0.22414352
220	0x3e004407	0.1252595
221	0xbdfa126b	-0.12210544
222	0xbea29306	-0.31752795
223	0xbee8f1d0	-0.45496988
224	0x3e50a590	0.20375657
225	0x3e81a113	0.25318202
226	0x3ea26fc5	0.31725898
227	0xbecd3811	-0.40081838
228	0xbecac0af	-0.3960013
229	0x3e903934	0.28168643
230	0x3e6fb8ae	0.23410293
231	0xbea5ab60	-0.3235731
232	0xbf16a08a	-0.58838713
233	0xbee87766	-0.45403594
234	0xbf0ce8ed	-0.55042917
235	0x3e6c5875	0.23080619
236	0x3e765b22	0.24058202
237	0xbef407f2	-0.47662312
238	0xbecfefef	-0.40612742
239	0x3e4e4602	0.20143893
240	0xbe60e1c8	-0.21961129
241	0xbefd81af	-0.49513003
242	0xbe98e097	-0.29858848
243	0x3ea3dc2a	0.3200391
244	0x3ed29a93	0.41133556
245	0xbead877d	-0.33892432
246	0xbf0427c2	-0.51623166
247	0xbf389d4c	-0.72115016
248	0x3ebdad24	0.37046158
249	0xbf01365d	-0.50473577
250	0xbeff5fa9	-0.4987767
251	0xbe859032	-0.26086575
252	0xbefc7589	-0.49308422
253	0xbf1163ba	-0.56792796
254	0x3eca41e5	0.395034
255	0xbecb6578	-0.39725852

bias f4 [10]
0	0x409f656f	4.981132
1	0xc004b683	-2.0736396
2	0xbf5f3d05	-0.87202483
3	0xbf347957	-0.7049765
4	0x3f86e7d8	1.0539503
5	0x3eef18b1	0.46698526
6	0xbfbba31a	-1.465915
7	0xbfd88a75	-1.6917254
8	0xbffa2446	-1.954232
9	0xc00ceaf8	-2.2018414

weight f4 [60]
0	0x3fc0378f	1.5016955
1	0x3faa54c1	1.3307115
2	0x3fbcc779	1.4748374
3	0x3ffcff94	1.9765496
4	0x3fc6beae	1.5526941
5	0x3fcaec2d	1.5853325
6	0x3fbcf8c2	1.4763415
7	0x3f9622e5	1.1729399
8	0x40081772	2.126431
9	0x3fa6dc20	1.3035927
10	0x3fde0885	1.734635
11	0x3fddfdf7	1.7343129
12	0x3fdf7cb0	1.7459927
13	0x400a0308	2.156435
14	0x3fe71470	1.8053112
15	0x3fe0ebc8	1.7571955
16	0x3fed3c46	1.8534019
17	0x3fdaadb8	1.7084265
18	0x3ff06dfa	1.8783562
19	0x3ff74b40	1.931984
20	0x3fd78a57	1.6839093
21	0x3fe1c304	1.7637639
22	0x3fdb4bf1	1.713255
23	0x3ff6d91e	1.9285009
24	0x3fd18d0a	1.6371167
25	0x3fe5b546	1.7945945
26	0x3fc3be69	1.5292484
27	0x3fcb1409	1.5865489
28	0x40087eb1	2.1327326
29	0x3fd580cb	1.667993
30	0x3fe237ab	1.7673239
31	0x3fc9647c	1.573379
32	0x3fc4815e	1.535198
33	0x40019951	2.0249827
34	0x3fbe0260	1.4844475
35	0x3fbf30b3	1.4936737
36	0x3fc35264	1.5259519
37	0x3fb24f7d	1.3930508
38	0x3ffef3f2	1.9918196
39	0x3fb9c492	1.4513113
40	0x3fb49fba	1.4111245
41	0x3fb82598	1.4386473
42	0x3fb3636d	1.4014717
43	0x3fd12752	1.6340125
44	0x3fa4020b	1.2813123
45	0x3fb45830	1.4089413
46	0x3fafdf7b	1.3740076
47	0x3f9ea655	1.239451
48	0x3fc90046	1.5703208
49	0x3fa0c5d8	1.2560377
50	0x3fc5972e	1.5436761
51	0x3fb0281d	1.3762242
52	0x3fa46276	1.2842548
53	0x3ff59559	1.9186202
54	0x3fb01a12	1.3757956
55	0x3fb5ec84	1.4212804
56	0x3fa35f0f	1.2763385
57	0x3f98503e	1.1899488
58	0x3fad9683	1.3561558
59	0x3fae8624	1.3634686

bias f4 [60]
0	0xbe707f30	-0.23486018
1	0xbe9ae0d4	-0.30249655
2	0xbe902357	-0.28151962
3	0xbde3f5b5	-0.11130849
4	0xbe5c00df	-0.21484707
5	0xbe84444b	-0.25833353
6	0xbe7a3d92	-0.2443755
7	0xbec8ada1	-0.39194968
8	0xbe233653	-0.15938692
9	0xbe3aa0c4	-0.1822539
10	0xbe921e1a	-0.2853859
11	0x3ca26106	0.019821655
12	0xbe7470e9	-0.23871197
13	0xbe1c9fee	-0.15295383
14	0xbdf12c03	-0.11775973
15	0xbea1c1ce	-0.31593174
16	0xbd2a6495	-0.04159983
17	0xbece7321	-0.4032221
18	0xbe4829a7	-0.19547139
19	0xbe5af4a0	-0.2138238
20	0xbe8d6551	-0.2761636
21	0xbe65a0c7	-0.22424613
22	0xbdee5e42	-0.11639072
23	0xbe23eb30	-0.16007686
24	0xbe281a2a	-0.16416231
25	0xbe00b327	-0.12568341
26	0xbe818d0c	-0.25302923
27	0xbedf6c64	-0.43637383
28	0xbe7571f4	-0.23969251
29	0xbea2405f	-0.31689736
30	0xbe725353	-0.23664598
31	0xbe971b8a	-0.29513198
32	0xbe830800	-0.2559204
33	0xbe0e6a06	-0.13907632
34	0xbdf0b08b	-0.11752423
35	0xbe651e84	-0.22374922
36	0xbe348bc2	-0.17631438
37	0xbef2b210	-0.47401476
38	0xbe38eed7	-0.1805986
39	0xbe119ae5	-0.14219244
40	0xbe87c79d	-0.2651948
41	0xbe80f437	-0.2518632
42	0xbe7d2913	-0.247227
43	0xbd6fcd1e	-0.058545224
44	0xbe0a4239	-0.13501824
45	0xbe7819e3	-0.24228625
46	0xbe7f41de	-0.2492747
47	0xbe5b3947	-0.21408568
48	0xbe4a3037	-0.19744955
49	0xbe8f3c07	-0.27975485
50	0xbe743ff2	-0.23852518
51	0xbe93dea9	-0.28880814
52	0xbea6ebec	-0.3260187
53	0xbd8abe8a	-0.06774624
54	0xbe1e895a	-0.15482083
55	0xbe9df5c7	-0.30851576
56	0xbe0adb9c	-0.13560337
57	0xbeab955f	-0.335124
58	0xbe407382	-0.18794063
59	0xbe67518f	-0.22589706
