ensemble_model_stacking/model1_Linear1_cifar10.pt (torch, 13150 bytes, 6 tensors)

weight f4 [30, 60]
00000000: 44e5 683e eb5b 01be eed7 863e 3f74 943e
00000010: 75f3 c6be 0d10 babe da62 bd3e 2a3d 84be
00000020: cedb 41be 4d7f 4cbe c609 943e 6ed4 9abe
00000030: 5b22 b03e 6a3f 9e3e 8044 e0be 57e4 dcbe
00000040: da5b fc3d b274 9dbe 8e43 90be 9e3d aabe
00000050: 492e 973e e65d a2bd fab0 b43e 94e5 433e
00000060: a5ae b7be 15e3 cabe 089d f53e adb5 a5be
00000070: c94f 12be e938 62be 455e 733e 8bf2 66be
00000080: 8c12 263e c4a1 293e 24a1 5ebe 1932 ccbe
00000090: cb9e e13e 6caf 9fbe aa70 59be 09d3 48be
000000a0: 104c 563e 45ba 71bd abe5 943e 414d 15bd
000000b0: 7d55 43be 9471 62be d857 883e 16fb fcbd
000000c0: 1f7b 42be 06ef a13c 52f4 22be f0d4 d03d
000000d0: 4094 48be 174e 3ebe 1b7a 54bd f35a 6c3d
000000e0: f09f c6bc 71bd 513d bdf8 03bd 5b83 aa3d
000000f0: b7fc 24be 4bb2 01be 3f62 7a3e 82fb 81be
00000100: 3f8b 87be 8847 ae3e 3556 a23e cfd3 dbbd
00000110: 24b2 22bd 9f2f 4f3e 85ff 6dbe 33e7 b8be
00000120: 2797 2e3e b030 dcbe dfce cbbe f466 be3e
00000130: 085f 113e 6536 dcbe d344 4ebe 4fc4 d13e
00000140: ee0a 7fbe c842 8abe 279b 4f3e 705a 8fbe
00000150: c142 16be 6dfb bf3e a129 de3e 0408 88be
00000160: 500e cebd 1c98 883e 32ab 7abe f9b3 63be
00000170: d41b 683e 3821 88be 2b38 99be 27cc d33e
00000180: 7d81 9c3e 481d 91be 8314 babd 550f 943e
00000190: 122f 11be 583c 74be 5293 a33d 227e bbbd
000001a0: ebf2 96be 0b94 013e c9ef 483e 7398 66be
000001b0: a90f 51be 862d f03d b237 493e b2b0 713d
000001c0: a306 fdbc af40 01bc fc4d 293e 52e9 80be
000001d0: f86b 6bbd d654 75bd 4cec a5bd 320a b3bc
000001e0: c6fc e7bd f6af cb3c 4192 6d3e a601 b83e
000001f0: 9ac3 b6be 19bf bfbe 0ce5 8bbe 7cd0 a03e
00000200: 88d2 57bd 3252 1abd fbe3 8cbe 6bc4 30be
00000210: 8b37 783e ea73 f73e a0b6 c0be 80c0 a6be
00000220: e82e 5ebe 6019 043f 3c9d 16bd bc45 ebbd
00000230: 3831 50be f104 cdbd 07fd d23e cb8d aa3e
00000240: 0dc0 89be 03a4 bfbe 0c67 4fbe 6d8f 743e
00000250: 58de 43bd f4b6 babd 4a54 3dbe 4558 8c3d
00000260: 28e1 b13e dca6 b53e effd 81be 528b debe
00000270: dd70 2ebe 2389 853e f57f 1abe 7b1a 0fbe
00000280: 4deb 3bbe d0f0 983c 72ea a03e 2408 213e
00000290: c7da dcbd e153 5abd f2f4 15bd ab2e 243e
000002a0: 2025 03bd 67c8 35bd 16ba 56bd 6b1a 5b3d
000002b0: dc34 89be 1953 a4be a325 373d f9cc fd3c
000002c0: fbe7 ffbc c7dc 343d c8b3 af3d b636 0fbe
000002d0: 4f1c 51be 7710 6c3e 8e67 8abe 99b8 94be
000002e0: b510 7a3e 75c0 223e d36b a6be 7e25 853d
000002f0: 2d76 98bd 8481 92be 4ef3 24be f665 b43e
00000300: a2b2 47be 70a7 bfbe d0b5 863e 200e a93e
00000310: fa72 5fbe 79eb 6d3e 4ff4 90be 5523 03bf
00000320: acfc 05be ccbe f73e 856b 84be 2767 6dbe
00000330: d395 703e a8fa 5c3e 662a 05bf 8e25 0d3e
00000340: 943a 88be b2ad ebbe d5b6 a8bd 14d8 083f
00000350: cd1d 9f3c c18a 95be c5d8 243e be39 633e
00000360: 8c01 4bbe 4fd7 c63d 723f 2bbe 98e0 b9be
00000370: 0e4f e3bc b858 a53e 9bdf 2fbe f188 3d3d
00000380: 29bc be3d 0e94 ce3d 3966 23be 45a2 ff3d
00000390: f215 dcbd d0c2 48be 2a37 053e a4f3 00bd
000003a0: d745 f93d 4d49 e13d b1e9 cc3c 1421 22be
000003b0: 7bcc 0bbd 3ba7 36bd 4371 33be e9d6 0cbd
000003c0: a6d0 5b3e 21e0 d8bd d579 ddbe e6ca df3e
000003d0: d794 95be ad1d 803e 2ffd 35be a712 8e3e
000003e0: 74d7 5cbe 9b88 8ebe 5b56 d13e 0f4a 68be
000003f0: 7caa 4cbe be4e cd3e 2d92 c8be a2e5 003f
0.22743708 -0.1263272 0.26336616 0.2899494 -0.38857618 -0.3634037 0.3698948 -0.25827914
-0.18931505 -0.19970436 0.28913707 -0.30240196 0.3440121 0.30907756 -0.4380226 -0.4314296
0.12322207 -0.30753094 -0.2817654 -0.33250135 0.295275 -0.07928066 0.35291272 0.19130546
-0.3587543 -0.39626375 0.47971368 -0.3236517 -0.14288248 -0.22092022 0.2376643 -0.2255346
0.16218013 0.16565615 -0.21741158 -0.3988197 0.44066462 -0.31188524 -0.21234384 -0.19611754
0.20927453 -0.05901553 0.29081473 -0.03645063 -0.1907558 -0.22113639 0.2662952 -0.12352578
-0.1899228 0.019767296 -0.15913513 0.101968646 -0.19587803 -0.18584476 -0.05187426 0.057703923
-0.024246186 0.051206056 -0.032219637 0.08325835 -0.16112028 -0.1266567 0.2445154 -0.25387198
-0.26473424 0.3403895 0.31706396 -0.10733759 -0.03972067 0.2023301 -0.23242004 -0.3611389
0.17049848 -0.43005896 -0.39806268 0.37187922 0.14196408 -0.4301025 -0.20143442 0.40970084
-0.24906513 -0.27004075 0.2027403 -0.27998686 -0.14673902 0.3749651 0.43391135 -0.26568615
-0.10061324 0.2667855 -0.24479368 -0.22236623 0.22666866 -0.26587844 -0.29925665 0.41366693
0.30567542 -0.28342652 -0.090859435 0.28917947 -0.14178112 -0.23851144 0.079870835 -0.09154917
-0.29482207 0.1265413 0.19622721 -0.22519092 -0.2041613 0.11727433 0.19650152 0.0590064
-0.030886954 -0.007888957 0.16533655 -0.2517801 -0.057476014 -0.05989536 -0.08101711 -0.021855447
-0.113275096 0.024864178 0.23200323 0.35938758 -0.35696107 -0.37450483 -0.27323186 0.3140906
-0.052691013 -0.037676044 -0.27517685 -0.17262428 0.24239938 0.48330623 -0.37639332 -0.3256874
-0.21697581 0.5160122 -0.036771044 -0.1148791 -0.20331275 -0.10010708 0.4120867 0.33311304
-0.26904336 -0.3742982 -0.20254153 0.23882838 -0.047819465 -0.09116927 -0.18489185 0.068527736
0.34742093 0.35478866 -0.25389048 -0.43465668 -0.17035241 0.2608119 -0.15087874 -0.13974945
-0.18351479 0.018669516 0.31428868 0.15725762 -0.10783916 -0.05330265 -0.03661055 0.16033427
-0.032017827 -0.04438057 -0.05242356 0.05349199 -0.2679814 -0.32094648 0.044713628 0.030981528
-0.031238547 0.044155862 0.085792124 -0.13985714 -0.20420955 0.23053156 -0.2703213 -0.29047087
0.24420436 0.15893729 -0.32504138 0.06501292 -0.07444415 -0.28614438 -0.16108438 0.3523404
-0.19501737 -0.37432432 0.26310587 0.3301859 -0.21821204 0.23234357 -0.28311393 -0.5122579
-0.13084668 0.48387754 -0.2586328 -0.23183881 0.23494653 0.21579993 -0.5201782 0.13783857
-0.26607192 -0.46030957 -0.082379974 0.5345471 0.01942339 -0.29207423 0.16098316 0.22189996
-0.19824809 0.097090356 -0.16723421 -0.36304164 -0.027747657 0.3229425 -0.17175142 0.046273176
0.093132325 0.10086833 -0.15956964 0.12482122 -0.10746373 -0.19605565 0.13009325 -0.031482354
0.12171524 0.11000309 0.025013776 -0.15832931 -0.034130555 -0.044593077 -0.17523675 -0.03438464
0.21466312 -0.10589624 -0.43257013 0.43709487 -0.29215118 0.2502264 -0.17772363 0.27748606
-0.21566564 -0.27838597 0.40886196 -0.22684501 -0.1998691 0.40099138 -0.39174023 0.5035039

bias f4 [30]
00000000: 6e54 6a3e 2fe6 233e dcc4 e1bd 904c 753e
00000010: 5445 d23d 197d 0ebe f400 353e 8c27 02bd
00000020: e4aa 17bd f28c c7bd e55d 2a3e 4935 863c
00000030: eb5f b43d 8481 c73e 89b5 2b3e 41bc 57bd
00000040: c4a6 fabd 5b64 d23c 7453 97bd 2da5 423e
00000050: bade e73c 8b5b 363e 1d3a 3f3e e3dd afbc
00000060: 2b98 8d3d 8a4b cf3e c494 a13e c0c3 0bbe
00000070: 31a4 323e 4dcf 613e
0.2288377 0.16005777 -0.11023876 0.23954988 0.102671295 -0.13914908 0.17676145 -0.031775996
-0.03702821 -0.0974368 0.1663738 0.01638283 0.088073574 0.38966 0.16768469 -0.052669767
-0.12238839 0.025682619 -0.07388964 0.19008322 0.028304446 0.17808358 0.18674512 -0.021468109
0.06913789 0.4048732 0.31558812 -0.13648891 0.17445447 0.22051735

weight f4 [10, 30]
00000000: d045 b73e e4e0 0dbf f94f dbbe 0e70 c0be
00000010: 313c 743e c14a a03e 0d7b 643e 76bd 99be
00000020: 4df6 98be d203 a5be 6e8e 0bbf 3d06 22bf
00000030: 8c10 943e d1fd 15bf e18b 88be c9fa a7be
00000040: 0eb0 89be 1975 e5be dc35 803e 7cdc 813e
00000050: bd37 d13e 3b99 01bf 3d82 753e 62f2 ab3e
00000060: 99fe b73e aeb2 0ebf 15e4 c4be c012 e13e
00000070: e8d6 87be d2f8 e1be 35ee 1dbf ed06 33bf
00000080: ed1b 0ebf 1c8d d33e b737 15bf 90d6 c8be
00000090: e95d cc3e e1e6 febe 4871 24bf 827c 053f
000000a0: 1754 2ebf 3141 3bbf 145c debe aea9 c43e
000000b0: 6b5e 23bf 50a0 e83e a477 00bf 739a f5be
000000c0: 072d d9be e9e1 42bf f059 1bbf 389f 4fbf
000000d0: a287 e6be 2331 2dbf 0a42 18bf 81c0 86bf
000000e0: 8067 c83e a4d5 a7be 5530 c63e ddab 6fbf
000000f0: c3aa 6c3e 2a15 8f3e 3132 a93e 9e54 8dbe
00000100: 872b cabe e82a c1be 7ba7 a0be 14d6 8a3e
00000110: 94fc b13e 45e6 753e 9208 d1be fe8b 4b3e
00000120: 8d4c 97be 13ad dfbe fd0c 823e a279 8d3e
00000130: e99f 67be 48fe 853e e795 6dbe 323f 473e
00000140: 1ffb 833e 5dfd 433e 7ccd d3be 84e4 703e
00000150: 4aa9 77be 5dc2 dcbe 7cad cb3d 0033 903e
00000160: dc13 e0be d833 83be a75b 7e3e 6222 97be
00000170: 9b85 c93e bffa ddbe eb18 743e 2bdc a83e
00000180: 4d0f 9fbe 7350 0cbe 1aef e33e ebaa c23e
00000190: eb5c 313e 393d bcbe 7162 a7be f7db 8b3e
000001a0: 9654 fabe 5c43 e1be 0444 6fbe 1278 26bf
000001b0: c1d9 aabe bd85 833e eaeb c9be 2095 d7be
000001c0: e576 acbe d30d aabe 9509 debe 21d9 303e
000001d0: d99c 923d d38b 4fbe 9d94 9f3d 7279 7e3e
000001e0: d5db 14bf b5df 28bf 60cc eebe 220d a23e
000001f0: 7a40 d0be b6fe c7be 24fa 51bf 11c9 e6be
00000200: 5635 01bf c1cb 0abf 1b49 02bf 64ee 1dbf
00000210: 0288 dbbe c9c1 b737 312f c53e 8952 12bf
00000220: 7571 0b3f 5eba a8be e5dd e4be 4e83 f63e
00000230: 1feb 27bf 8726 ffbe 331d 03bf edb2 e13e
00000240: 840e b1be fb62 bd3e 17a0 3dbf 2ea8 a0be
00000250: 35ba 06bf 0393 c33e 2270 fdbe 154a ef3e
00000260: 5580 67be 680a 8b3e a789 ad3e f4d2 c73e
00000270: 66de 55bf f8f5 a8be 4b53 e4be 0076 72be
00000280: e6a0 923e 85b9 d63e ce2d 16bf c3ba 22bf
00000290: bce8 8fbe b2c0 00bf e637 eabe e9e9 d8be
000002a0: cbb4 f4be b745 04bf fe22 f03e c750 e33e
000002b0: 8937 14bf 944b 20bf 909e eabe 5216 8b3e
000002c0: f12e 50bf 48ab 11bf d01a 1cbf 48f3 b0be
000002d0: df64 d53e e703 d23e c909 b5be 7c46 11bf
000002e0: 2068 f9be d232 e0be fd62 19bf bf91 ed3e
000002f0: 516e f0be 551f a5be d41f f0be c0ba 09bf
00000300: d898 b43e 642d 643e 7e36 9bbe 5f30 873e
00000310: 4917 e2be 024c e4be ad51 cf3e 83ab 27bf
00000320: 1c69 ffbe 458e b6be 02a4 4cbf 5a0f e4be
00000330: c958 f03e f329 333e f138 12bf 8ae9 efbe
00000340: 6e2f 9cbe eba9 3c3e b107 efbe 5269 2cbf
00000350: d6a9 f03e dec1 3a3e 4738 423e cc9b 6abe
00000360: 1060 b7be 6fae d2be 81e3 e63e d86e 03bf
00000370: 5c59 0e3e 7195 bebe 02b4 a13e 4bf6 13bf
00000380: 6de9 8f3e 3f18 1cbf ee88 82be b07e e83e
00000390: d0f1 0fbf 9a70 b7be f552 25bf 93aa 813e
000003a0: a940 973e f19a dbbe 9e14 a83e 3214 02bf
000003b0: 8349 19bf 43de b4be 1cf8 873e 52eb 94be
000003c0: ddc0 29bf 3766 20bf 4a79 d5be c56a 30bf
000003d0: 8fe3 2dbf b4d1 07bf 5e14 813e b442 b53e
000003e0: 54a9 13bf 58d9 cabe d0c4 393e 81b7 983e
000003f0: b25a d23e a8d8 13bf 468f 06bf a69b 1fbf
0.3579545 -0.5542128 -0.42834452 -0.3758549 0.23851086 0.31307033 0.22312565 -0.3002736
-0.29875413 -0.32229477 -0.54514205 -0.6329077 0.28918874 -0.5859042 -0.2666922 -0.3280852
-0.26892132 -0.448159 0.2504109 0.2536353 0.40862837 -0.50624436 0.23975463 0.3358336
0.3593643 -0.55741394 -0.38455263 0.43959618 -0.26531148 -0.44135147 -0.616916 -0.6993244
-0.5551136 0.41318595 -0.5828814 -0.39226198 0.39915398 -0.49785522 -0.64235353 0.5214311
-0.6809706 -0.7314635 -0.43429625 0.38410705 -0.63815945 0.4543481 -0.5018256 -0.47969398
-0.42417166 -0.7612596 -0.6068411 -0.81102324 -0.45025355 -0.676531 -0.5947577 -1.0527498
0.39141464 -0.32780182 0.3870875 -0.9362162 0.23112015 0.27945834 0.33046106 -0.2760362
-0.39486334 -0.37728047 -0.31377777 0.27116454 0.34763014 0.24013622 -0.4082685 0.19877622
-0.2955059 -0.43686733 0.25400534 0.2763186 -0.22619595 0.26170564 -0.23201714 0.19457701
0.25777528 0.19139619 -0.4136771 0.23524672 -0.24185672 -0.43117037 0.09945199 0.2816391
-0.43765152 -0.2562549 0.2483965 -0.2951842 0.39359745 -0.43355367 0.2383763 0.32980475
-0.3106636 -0.13702564 0.44518358 0.38021025 0.17320602 -0.3676546 -0.32692292 0.27316257
-0.4889266 -0.43996704 -0.2336579 -0.6502696 -0.33369258 0.25687972 -0.394378 -0.4210596
-0.3368446 -0.33213672 -0.43366686 0.17270328 0.071588226 -0.20268182 0.077920176 0.24851015
-0.5814794 -0.6596635 -0.466403 0.31650645 -0.40674192 -0.39061517 -0.8202231 -0.45075276
-0.5047201 -0.54217154 -0.508928 -0.6169188 -0.42877203 2.1905538e-05 0.38512567 -0.5715719
0.54469997 -0.32954687 -0.44700542 0.48147053 -0.6559314 -0.49834082 -0.5121643 0.44081822
-0.34581387 0.3698958 -0.740724 -0.3137831 -0.5262788 0.381981 -0.49499613 0.46736208
-0.22607549 0.27156377 0.33894083 0.39028132 -0.8354248 -0.3300016 -0.44594797 -0.23677826
0.2863838 0.41938415 -0.5866364 -0.63566226 -0.2810725 -0.5029403 -0.45745772 -0.4236596
-0.47794184 -0.51668876 0.46901697 0.44397566 -0.5789724 -0.62615323 -0.458241 0.27165467
-0.81321627 -0.5690198 -0.6097841 -0.3456061 0.4167852 0.41018602 -0.35359028 -0.56748176
-0.48712254 -0.43788773 -0.5991667 0.46400258 -0.46959165 -0.32250467 -0.46899283 -0.5380058
0.3527286 0.2228294 -0.30315012 0.26404092 -0.4415839 -0.4458924 0.40492 -0.6549608
-0.4988488 -0.35655418 -0.79937756 -0.44542962 0.46942738 0.17496471 -0.57118136 -0.46857864
-0.30504936 0.18424194 -0.46685556 -0.67348206 0.47004575 0.18238017 0.1896678 -0.22910994
-0.35815477 -0.41148707 0.45095447 -0.5134101 0.13901275 -0.3722339 0.31582648 -0.5779769
0.28107777 -0.60974497 -0.25495094 0.45409155 -0.5622835 -0.35828096 -0.6457971 0.2532545
0.2954152 -0.42891648 0.3282823 -0.50812066 -0.59877795 -0.35325822 0.2655648 -0.29085785
-0.6630991 -0.6265597 -0.416941 -0.6891292 -0.6792535 -0.53054357 0.2521085 0.35402453
-0.5768025 -0.39618945 0.18141484 0.29827502 0.4108482 -0.57752466 -0.5256237 -0.62346876

bias f4 [10]
00000000: 440a cbbe 77a3 843f 9568 72bf f951 583d
00000010: ff0a 473f f4e3 3a3f d41f 103e 38d1 5bbe
00000020: 5651 1d3f fd46 94bf
-0.3965627 1.0362386 -0.9469083 0.05281255 0.77751154 0.7300408 0.14074641 -0.2146653
0.61452234 -1.1584164

weight f4 [60]
00000000: f622 b33f 1eef a93f b0da bf3f 8c2f be3f
00000010: f806 c43f dca2 bb3f c0c2 c33f db63 c13f
00000020: ce70 a63f bad5 ad3f 3453 b83f 6306 c53f
00000030: 9c26 bb3f 6aba e33f 4f0d e43f 4d62 ea3f
00000040: f95d b53f f37d e43f 0246 b33f 5de2 fb3f
00000050: 9237 ca3f e298 c03f 1fcb d53f cab8 c03f
00000060: e32b c63f 8c43 d83f 5719 ed3f 8de0 c53f
00000070: 5a73 a83f 7998 cc3f c1cc cc3f 063e d03f
00000080: e5ab d03f be2b c83f bf57 ae3f 6988 d03f
00000090: 4a33 be3f feac b83f 7e0c 9c3f 57fc b93f
000000a0: 4c03 8e3f 665f ae3f 4a44 963f e75f 7c3f
000000b0: 792f a33f 3e94 923f 2bcf 983f 24d1 9b3f
000000c0: 6e2f 913f 1fe6 933f 8b40 813f ed6f 693f
000000d0: d0bc 893f 093b 963f e004 753f 023a 963f
000000e0: 7e19 573f a3b8 763f 6cdf 463f 7bdd 483f
1.3995044 1.3276098 1.4988613 1.485826 1.5314627 1.4659076 1.5293808 1.5108598
1.3003175 1.3580849 1.4400392 1.5392574 1.4621158 1.7791264 1.7816561 1.8311249
1.4169303 1.7850937 1.400574 1.9678456 1.5798209 1.5046656 1.6702613 1.5056393
1.5482143 1.6895614 1.8523358 1.5459152 1.3160203 1.5984031 1.5999986 1.6268928
1.6302458 1.5638349 1.3620528 1.6291629 1.4859402 1.4427793 1.2191312 1.4530133
1.1094756 1.3622863 1.173959 0.98583835 1.2748863 1.145149 1.1938223 1.21732
1.1342599 1.1554602 1.0097822 0.9118641 1.0760746 1.1736766 0.95710564 1.1736453
0.84023273 0.96375483 0.77684665 0.7846295

bias f4 [60]
00000000: 5bcc 4fbe f48f debd 210e b9be 4dd0 4bbe
00000010: e428 d7bc 17f0 37bd 3396 9dbd f518 683d
00000020: 1851 c93a 53ef 2dbd 4f78 41be cd09 e7bb
00000030: cbd7 dbbd fd94 86be f134 b1bd b939 6fbd
00000040: 3bc1 a1bd a2bc 1c3e 676f 8ebd cf59 673d
00000050: 5ef9 51be 5955 28bd 0500 babd 305d a5bd
00000060: b227 04bd f374 a4bd 6103 d1bd ffca 25be
00000070: accb 57be 7082 623e 0151 1abe 446f 45bd
00000080: c108 7cbd d835 4fbe 9482 56bd 2a9e a2bd
00000090: 7466 32bd 7054 f7bd 5a8d 50be 0b93 b7bd
000000a0: 7d12 afbd 0808 adbd 1b1d 1bbe 0b6f 86bd
000000b0: b3e3 68bd 0444 9ebd 163c 1c3e a449 d1bc
000000c0: 627d c5be 7a7a 423e 88d0 2c3d df36 193d
000000d0: e2f0 553e b59d 55be fcde 96bc bbe5 43be
000000e0: 8248 98bd 2232 febd 9122 9abe 6f73 1fbd
-0.20292799 -0.10867301 -0.36143592 -0.19903679 -0.026264615 -0.044906702 -0.07694664 0.056664426
0.0015359251 -0.042464565 -0.1889355 -0.007050729 -0.107345186 -0.26285544 -0.08652676 -0.058404658
-0.07898184 0.15306333 -0.06954842 0.056482133 -0.20505282 -0.04109702 -0.09082035 -0.08074415
-0.03226442 -0.08030119 -0.102057226 -0.16190718 -0.21073788 0.2212007 -0.15069963 -0.048201814
-0.061531786 -0.20235384 -0.052370623 -0.07940324 -0.04355474 -0.12076652 -0.20366421 -0.08963593
-0.08548448 -0.084487975 -0.15147822 -0.065641485 -0.056857776 -0.07727817 0.15257296 -0.02554781
-0.38572222 0.18992034 0.04219106 0.037405845 0.20892671 -0.20860942 -0.018416874 -0.19130604
-0.07435705 -0.12411906 -0.30104497 -0.038928445
