model2_CNN1/model2_CNN1_Scripted_cifar10.pt (torch, 142896 bytes, 8 tensors)

weight f4 [10, 1, 5, 5]
000000 dc 11 81 be be e5 b7 3d b7 72 6d 3e 07 df 90 3e
       -0.25208938 0.08979367 0.23188291 0.28295156
000010 10 de 4f 3d 68 d3 07 be ea 7f 44 3c 79 70 7e 3e
       0.050748885 -0.13264239 0.011993388 0.24847592
000020 54 4f 77 3e 81 89 7b be e1 96 5b 3d b1 87 cd 3e
       0.24151355 -0.24564172 0.053610686 0.40142587
000030 0e 6e 69 3e de 39 65 bd 6d 72 0d be f7 e6 65 3c
       0.22795889 -0.05596339 -0.13813181 0.014032117
000040 90 9b 5c 3e 0c 20 ba be 39 a3 0b bf 4a 43 2e bd
       0.21543717 -0.36352575 -0.54545933 -0.04254464
000050 6f 08 17 3e 05 56 bf be aa 35 bb be c8 ae b0 3b
       0.14749311 -0.37370315 -0.3656438 0.0053919293
000060 55 6e 08 3e 69 fa c3 3d 14 e6 97 3e ec 33 ac 3e
       0.13323338 0.09569246 0.29667723 0.33633363
000070 fd a8 65 3e 04 76 8c 3e d5 bf 87 3e 09 d1 b2 3d
       0.22427745 0.2743379 0.26513544 0.087312765
000080 a5 83 b5 3d e7 74 a1 3e 3f 5d e4 3d e0 31 a7 bd
       0.08863 0.31534502 0.11150598 -0.0816381
000090 68 a1 8b be f1 52 98 be ec 61 bc be e9 90 54 bd
       -0.2727158 -0.2975078 -0.36793458 -0.05189601
0000a0 24 a4 9f bd 6a e5 6a be b0 2b e7 bd f5 01 d3 bd
       -0.07794979 -0.22939077 -0.112876296 -0.10303108
0000b0 b3 06 6a be c7 cb c5 bc a4 6e 96 bd 35 6c 6b 3c
       -0.22854118 -0.02414502 -0.07345322 0.01436906
0000c0 0d 1b 4c be 9e c5 49 be de 8b 79 3d c6 d1 6a 3e
       -0.19932194 -0.19704291 0.060924403 0.22931585
0000d0 65 09 40 bd 81 67 8c 3e 29 d5 b4 3e ce 88 9e bd
       -0.04688396 0.27422717 0.35318878 -0.07740937
0000e0 d9 e1 87 be ab 78 9e be a6 6b a7 be 96 b7 30 be
       -0.26539496 -0.30951437 -0.32699317 -0.17257532
0000f0 a7 f9 90 bd 65 5a 00 bd 48 64 91 be ec a4 d2 be
       -0.070788674 -0.031336207 -0.2839682 -0.4114145
000100 fe 45 c5 be b9 eb c3 3c bb c2 8b 3e b5 fc 05 3f
       -0.38529962 0.023916112 0.27297005 0.52338725
000110 b4 c2 6b 3e ce fe d3 ba b4 73 96 bd 42 30 e6 3d
       0.23023492 -0.001617396 -0.07346287 0.11239673
000120 be d4 27 bd f1 12 bc 3e e1 8d 25 3e a9 e0 a2 3e
       -0.04097437 0.367332 0.16167404 0.31812027
000130 38 6b b4 ba 4f 70 6f be f0 1a d6 bd b2 7f 3c be
       -0.0013764864 -0.23382686 -0.10454357 -0.18408087
000140 18 f9 1c be fd d5 89 be 3c 96 df be 7a 18 80 be
       -0.15329397 -0.26921073 -0.43669307 -0.25018674
000150 80 4b 32 3e 0c eb bf be ac 9b 44 3d b6 4e b6 3d
       0.17411613 -0.37484014 0.048000023 0.08901732
000160 63 83 9d 3e 3d 4d db 3c dd 2c be bd ba 5e 82 3c
       0.30764303 0.026770229 -0.09285901 0.01591431
000170 56 af 89 3e f8 11 49 3d 78 37 4f 3e 9d 69 40 3e
       0.26891583 0.049089402 0.20236003 0.18790288
000180 f5 e9 97 3e 64 55 ac 3e d4 9e 27 be b2 7c 74 be
       0.29670683 0.33658898 -0.16369182 -0.23875692
000190 7d 6a 9f 3e b2 91 30 3e 66 75 f6 bd f5 0a c2 bd
       0.31135932 0.17243078 -0.12034111 -0.09474746
0001a0 c0 e6 8d bd 6c 77 40 3d 0a 03 6b 3e 12 da f0 3d
       -0.06928778 0.04698889 0.22950378 0.117603436
0001b0 8f b0 d5 bd b4 51 90 bd a8 ff 66 3d 7c 7f 3b bd
       -0.104340665 -0.07046834 0.056396157 -0.045775875
0001c0 a4 ab 8a 3d 34 17 fd bc 81 e9 86 bd 55 9f 1a 3e
       0.06771019 -0.030894853 -0.06587506 0.15099843
0001d0 8b 2b 17 3e 3f 95 ab 3d 96 ca 9e bd 9e fc 82 bd
       0.14762704 0.08378076 -0.07753484 -0.06395839
0001e0 90 c2 10 be 81 53 81 bd 02 6a 36 3e 7a d6 54 3e
       -0.1413672 -0.06314755 0.17813876 0.20784941
0001f0 e6 39 8e 3d ef fa 98 3e 7a fa a2 3e 87 84 eb 3d
       0.06944637 0.29878947 0.31831723 0.11499887
000200 a1 a7 98 3e 9e 26 1c 3e 0f 00 e3 bd 07 fd 70 3b
       0.2981539 0.15249106 -0.110839956 0.003677191
000210 0f c2 09 3e 38 59 bd bd b7 df 1a 3e 87 d1 05 be
       0.13452934 -0.09245533 0.15124403 -0.1306821
000220 42 c4 a6 be 5a 50 a9 be 36 9c a0 bd 2a e3 6a be
       -0.32571608 -0.33069116 -0.07842295 -0.22938219
000230 9a 88 6f 3d 6b ad 5f 3e bb 0d 59 3d 3b 65 f9 bb
       0.058479883 0.21843497 0.05299161 -0.0076109446
000240 b7 16 0f 3c cf 01 c7 3d d9 cd 08 be 6c 7d 03 bd
       0.008733443 0.09717142 -0.13359775 -0.032102033
000250 e2 67 9f ba 61 d6 02 bd 99 2c d3 3c 62 88 6b 3e
       -0.0012161697 -0.03194273 0.025778102 0.23001245
000260 58 10 06 3e 58 4c c0 be da 50 d3 bd 57 ed 63 3e
       0.13092172 -0.37558246 -0.103181556 0.22258507
000270 0d c4 28 3e 72 1b 97 3e dd 01 0f bf 83 bc ab be
       0.16481037 0.29513127 -0.5586222 -0.3354226
000280 8a 16 2a 3d b6 69 ac 3e 89 dc eb 3e f8 40 1b bf
       0.0415254 0.336744 0.46066692 -0.6064601
000290 0d 96 65 be 70 e7 80 3d 79 c9 ac 3e 86 41 10 3e
       -0.22420521 0.06294143 0.3374746 0.14087495
0002a0 7a c0 7a be 12 57 97 be e3 be 63 3d 01 32 c2 3d
       -0.24487486 -0.29558617 0.055601966 0.09482194
0002b0 7c 54 b0 3e b5 86 ab be b7 51 ec 3d b0 35 93 bd
       0.34439456 -0.3350121 0.11539023 -0.071879745
0002c0 40 f3 0b 3d 32 17 f6 bd 75 ba 0f be 3f bf 2b 3d
       0.03416753 -0.12016143 -0.14035971 0.041930433
0002d0 ed 90 52 bd f7 b0 15 3e a9 52 05 be 30 4a 85 bd
       -0.051407743 0.14618288 -0.13019814 -0.06508291
0002e0 03 2c 03 3e 21 11 34 3e e3 cc f8 3b ba 27 0a bd
       0.12809758 0.17584659 0.007592784 -0.033729292
0002f0 52 bc 3e be 9d 32 ef bc 4f 6a 8d 3d 60 6d 4c be
       -0.18626526 -0.029198939 0.069050424 -0.19963598
000300 15 be d8 3c 6c ea f2 3d c7 c6 da bd d7 a6 3e be
       0.026457826 0.11861119 -0.10682445 -0.18618332
000310 14 50 ed bd e5 2a 06 be c2 89 23 3e 43 fe 17 be
       -0.11587539 -0.131023 0.15970519 -0.14843087
000320 79 74 7d bd 24 40 bc 3c ea c7 2d 3e 69 72 1e 3e
       -0.061878655 0.022979803 0.16970792 0.15473332
000330 f9 28 4f 3d 5f de cf bd e9 f5 cd bd 08 31 8c 3c
       0.050576184 -0.10149836 -0.10056669 0.017113224
000340 b0 3b 68 3e a1 e5 4b bc 9c fc b7 3d 1d 1b 20 3d
       0.22679019 -0.0124448845 0.08983728 0.039088357
000350 9b e6 3b 3d 4e dd 48 3e 9f 44 01 3e 7e ac 01 be
       0.04587422 0.19615671 0.12623833 -0.12663457
000360 1c c5 7e 3e b2 bc d3 3b e2 63 72 3d e5 36 c0 3b
       0.24879879 0.006461703 0.059177287 0.005865919
000370 64 c9 3b 3e e0 88 c1 3c e8 42 df 3d 32 cd 09 3e
       0.18338543 0.023624837 0.10901433 0.13457182
000380 5c 06 16 3e e3 7c 3a be 46 34 98 be 48 ac d2 be
       0.14650863 -0.18211703 -0.2972738 -0.41147065
000390 bb a7 e5 be 06 f0 d5 be 65 d5 d9 bd 05 d7 3f be
       -0.4485453 -0.41784686 -0.10636405 -0.18734367
0003a0 34 6b bc bd 9c 99 8f 3d a9 4a 74 3c df 07 3b 3e
       -0.09200135 0.070117205 0.0149103785 0.18264721
0003b0 cf 29 24 3e 7e 98 92 3d 9f 21 13 bc 17 ac 26 3e
       0.16031574 0.07157992 -0.008980184 0.16276585
0003c0 70 b7 84 3e ef 8f 72 3e 84 5e 8a 3e d2 32 e9 3d
       0.25921202 0.23687719 0.27025235 0.11386646
0003d0 93 52 63 bd 79 42 03 3e 46 93 03 3e 4c 37 30 3e
       -0.05549867 0.12818326 0.12849149 0.17208594
0003e0 a1 d5 25 3e eb 1e 49 3e
       0.16194774 0.196407

bias f4 [10]
000000 a4 f5 27 b9 41 52 98 bc f3 35 1a bd d4 97 87 3d
       -0.0001601787 -0.01859391 -0.037649106 0.06620756
000010 0b fe 00 bf d1 27 d3 be ab bf 96 bc 00 d1 51 be
       -0.5038764 -0.41241315 -0.018401941 -0.20489883
000020 ed aa 49 be 94 30 59 be
       -0.1969411 -0.21209937

weight f4 [20, 10, 5, 5]
000000 a0 34 95 3e a3 e6 68 3e 23 14 4c 3d 63 fc c9 bd
       0.29141712 0.22744231 0.04982389 -0.09862592
000010 09 8b 43 3c 27 5f 11 3e 66 30 cb bd ef 58 a5 be
       0.011935004 0.14196454 -0.09921341 -0.32294413
000020 cc b5 a6 be 21 35 50 bd 9f 31 42 be 3f 66 20 be
       -0.32560575 -0.050831918 -0.18964241 -0.15664004
000030 c2 7a 5b be b4 8e 77 be 8d 6a 15 be fe fd e3 bc
       -0.21433547 -0.2417553 -0.14591427 -0.027831074
000040 53 42 54 bd 5d 9f 25 bd 06 7a 94 bd c8 30 93 be
       -0.051821064 -0.040435184 -0.072498366 -0.28748155
000050 27 c1 5b be f8 c5 bf be d2 4c 48 be 92 26 ba bd
       -0.214604 -0.37455726 -0.19560555 -0.09089388
000060 8e f4 a9 bd 37 b5 bd 3e 7b da b2 3e 65 75 58 3e
       -0.08298598 0.37052318 0.34932312 0.21138532
000070 c0 01 c6 3d 04 01 49 3e d5 c9 50 3e 30 d8 16 3e
       0.096683025 0.19629294 0.20389493 0.14730906
000080 ea e3 33 3d 47 1c 9e 3b b9 85 e8 3d 6e 87 99 3e
       0.043918528 0.0048251483 0.113536306 0.29986137
000090 42 93 b5 3d 83 c8 01 3d 86 39 d0 3c 9a 41 75 3d
       0.08865978 0.031685364 0.025418054 0.059877016
0000a0 91 c7 b7 3e 01 59 c9 3e 95 b1 9e 3e d7 c8 68 3e
       0.35894445 0.39325717 0.3099486 0.22732864
0000b0 fe 2a 94 3d cd 52 35 3e f3 52 ed bc e8 b8 c5 3d
       0.072347626 0.17707367 -0.028970217 0.09654409
0000c0 1b 7f 55 3e 7f 8e 85 3e df 19 ea 3e 4b 3a 3b 3e
       0.20849268 0.26085278 0.45722863 0.18283956
0000d0 b8 8c 2c 3e 63 6f 97 3d 9f e5 bd bd 04 9e 9f 3e
       0.16850555 0.07394292 -0.092723124 0.31175244
0000e0 ce 51 1e 3e ed 7c fc 3d 8d 3f 38 3e fd 86 2a 3e
       0.15460894 0.12328515 0.17992993 0.16653056
0000f0 75 e0 f6 3e bd 22 91 3e 7b 31 8e 3e 14 77 bd 3e
       0.48218122 0.28346816 0.27772126 0.37004912
000100 f6 f3 13 3f fc b9 e3 3d ef ab f1 3c e6 ef 81 bd
       0.5779413 0.11119458 0.02950093 -0.06344585
000110 27 0c 0e be 7e 8a 5a 3d 50 cf ca bd 75 1d 8d 3d
       -0.13871823 0.053354733 -0.09902823 0.06890384
000120 37 26 ae bd d2 ba f3 be f5 98 66 bf 80 d6 dc 3d
       -0.08503383 -0.4760347 -0.90077144 0.107831
000130 49 29 bf 3c af 74 b6 bd d4 93 15 be c4 39 6a be
       0.023335116 -0.089089744 -0.14607173 -0.22873598
000140 8f 8e c5 bb a0 c1 e4 bd 7a de da bd 2f ae 70 bd
       -0.006028957 -0.111697435 -0.10686965 -0.058759864
000150 00 be 29 3d f0 a4 b9 3d c1 28 8b bd f5 03 c9 bd
       0.041440964 0.090646625 -0.067948826 -0.09815208
000160 59 af ae bd 29 e1 21 3e 2e 78 63 bc 5c ac f9 bd
       -0.08529539 0.15808548 -0.013883634 -0.12191078
000170 9a 59 04 be ca 51 3c be 5e b1 1e bd 13 1a 86 bd
       -0.12924805 -0.18390575 -0.03874337 -0.06547942
000180 24 95 0b 3d d6 84 38 bd 72 31 73 be 63 a5 07 bf
       0.03407778 -0.045048557 -0.2374933 -0.52986735
000190 d4 03 1d 3e 0f 26 d8 3d 0f f4 02 3e 67 f6 c3 bd
       0.15333492 0.10554134 0.12788413 -0.09568482
0001a0 d0 08 ca bd 25 8a ec 3d 24 cb 22 3e c4 b5 1a 3e
       -0.09864962 0.115497865 0.15897804 0.151084
0001b0 9d 34 76 bd 4f 85 c5 bc 5d 93 be 3d 6f b8 da 3b
       -0.06010877 -0.024111418 0.09305451 0.006674818
0001c0 fe 5b 73 3d a7 16 87 3d 1e 5e 96 3c f1 9a 15 3e
       0.059413902 0.065961175 0.018355425 0.14609887
0001d0 2d 4a a7 bb bd 4b aa 3c b2 c2 96 3d 1b f8 ed 3d
       -0.005105278 0.020788068 0.07361354 0.11619588
0001e0 3e c3 d7 3d ad fc 35 3d 4a 8f fd bd db cd 19 be
       0.10535286 0.044430424 -0.12380846 -0.15019934
0001f0 e2 98 50 bd 21 3b dc 3e 76 ed c0 3e 47 75 1f 3e
       -0.05092705 0.43013862 0.37681168 0.15572082
000200 c9 a8 be 3d 9f 1f f4 3d 6d 32 48 3e 29 bf 41 3d
       0.09309537 0.11920094 0.19550486 0.047301445
000210 27 bc 84 3c 0c 35 bc bd c7 20 7a 3d 39 cc 8d 3e
       0.016203 -0.091898054 0.061066415 0.27694872
000220 e8 a0 62 3e de f1 7f 3d 12 82 d1 3b 87 df 90 3e
       0.22131693 0.062486522 0.0063936794 0.28295538
000230 d9 46 95 3e 21 78 a5 3e 55 71 be 3e 6e 7b 9f 3e
       0.29155615 0.32318214 0.3719584 0.31148857
000240 1f 36 aa 3e d6 d3 90 3e 60 b5 c4 3d 44 81 45 3e
       0.33244416 0.28286618 0.09604907 0.19287592
000250 4a db a6 3e 14 b3 f6 3e fc fe 02 bf 65 8a 60 be
       0.3258918 0.481835 -0.51170325 -0.21927793
000260 a0 5d 05 be 99 95 9a be 7e eb 13 bf 70 97 27 bf
       -0.13023996 -0.3019226 -0.5778121 -0.6546545
000270 fe a1 2b bf 31 6c 01 bf ac 42 10 bf 31 f1 19 bf
       -0.67044055 -0.5055571 -0.56351733 -0.60133654
000280 f3 52 4e bf 25 70 79 bf 60 ca 5f bf af 8e 61 bf
       -0.8059532 -0.97436744 -0.87418175 -0.8810834
000290 65 9d 08 bf c7 01 ff be 89 4e 2c bf 6b 96 4f bf
       -0.53365165 -0.49806044 -0.67307335 -0.81088895
0002a0 23 05 73 bf 62 06 49 bf e3 32 cd bd 20 f3 f1 3d
       -0.94929713 -0.78525364 -0.100194715 0.118139505
0002b0 b6 f1 63 bd a5 09 1b bf 32 b3 70 bf fa 8b 17 3c
       -0.055650435 -0.6056159 -0.9402343 0.009249682
0002c0 a0 64 79 bc da 34 c9 bc 05 ff 0b 3d e0 16 5f 3d
       -0.015221745 -0.024561334 0.034178752 0.054465175
0002d0 4c db 81 3c 34 b7 88 3c 2e 84 08 bd a6 ed 44 3d
       0.01585164 0.01668892 -0.03332918 0.0480782
0002e0 b0 07 cc bc 8a 3a 78 3d b0 07 7c bd 38 1b 9e 3c
       -0.02490601 0.060602702 -0.06153077 0.019300088
0002f0 5a b3 35 3d 30 8c 39 bb 74 dc 6e bc a0 7d 2c bd
       0.044360496 -0.0028312318 -0.014578927 -0.042111993
000300 06 a8 13 3d ce e6 37 3d d2 3f 77 3d 16 f8 3c bd
       0.03604891 0.044897847 0.0603636 -0.04613503
000310 68 10 2b 3d 8c 96 d0 3c 30 d8 4d 3c 64 1c 6f bc
       0.041763693 0.025462411 0.01256375 -0.014594171
000320 e7 06 63 3e 60 6d 83 3d 6a fe 0f 3b 6d 6d 55 3c
       0.22170602 0.06417346 0.002197171 0.013026577
000330 cf 26 c1 3c 46 bd be 3d d3 11 bc 3d a9 50 0e bd
       0.023578076 0.09313445 0.09183087 -0.034744892
000340 b4 4f 8c bd 68 59 f5 bd 96 68 d4 3b 14 6a 2f bd
       -0.0685114 -0.119799435 0.006482194 -0.042825773
000350 e2 94 08 bd a8 17 50 bd 0f 55 a7 3b fb 99 82 3c
       -0.03334511 -0.05080381 0.0051065753 0.015942564
000360 87 e4 f9 bb d0 08 7e bc 73 de 3e bd c4 69 24 3d
       -0.0076261195 -0.015505031 -0.046598863 0.04013993
000370 39 5b ec 3c 28 43 5f bd d4 52 d8 bd b1 a6 8c bd
       0.028852092 -0.054507405 -0.10562673 -0.06867731
000380 34 a7 b6 bd 25 b9 8f 3e 3d d4 17 3e a5 63 9e 3c
       -0.0891861 0.28070942 0.14827056 0.019334624
000390 72 ed 8e bd 14 c9 77 be 4e 84 82 3e eb 8f c4 3d
       -0.06978883 -0.24197799 0.25491565 0.09597763
0003a0 ac d1 01 3d 74 28 59 3d dc be 46 3e 3c 4e 0f 3e
       0.0316941 0.053017095 0.19408745 0.13994688
0003b0 7c 8f 2a 3d bb 52 8d 3d 51 17 e0 3d c5 07 d4 3e
       0.041640744 0.06900545 0.10941947 0.41412178
0003c0 83 ce 9d 3e f2 d1 39 3d 71 99 b9 bd 01 ba d7 bc
       0.30821618 0.045366235 -0.0906247 -0.02633381
0003d0 a9 7d 94 3e 77 c2 3e 3e ef 34 88 3e 5f f6 a2 3d
       0.2900212 0.1862887 0.26602885 0.07957148
0003e0 55 a5 ed bd 85 b7 a3 bd bd 1f 87 bd 15 12 a3 3c
       -0.116038 -0.07993988 -0.065978505 0.019906083
0003f0 09 b2 ad 3c 2e dd 93 bd 2a fc 85 bd 3e a3 b5 bc
       0.021203058 -0.07219921 -0.06542237 -0.022172567

bias f4 [20]
000000 6c bf 9a 3c b7 6b 1b bd 27 a6 fd 3e 0f 65 f6 3e
       0.018890105 -0.03794452 0.49540827 0.48123977
000010 2c 66 c7 3d 6f 78 b3 be b6 3c 27 be be c2 c0 bd
       0.097362846 -0.3505282 -0.16331753 -0.09412144
000020 34 95 ff 3b 43 7d e0 bd af a4 ee 3d 8d 19 3d be
       0.007799769 -0.10961392 0.11652505 -0.18466778
000030 4b d3 c2 bd 10 7a ef 3d 1b 47 b7 3e a6 a3 af 3e
       -0.09512957 0.116932034 0.35796437 0.3430454
000040 0d c8 12 bf 30 4b 62 be 98 aa 49 be c3 6a 01 3f
       -0.57336503 -0.22098994 -0.19693983 0.5055353

weight f4 [50, 500]
000000 a6 b3 0c bf 89 aa 72 be 52 93 7e 3e 1c 36 86 3e
       -0.5496162 -0.23697866 0.24860886 0.26213157
000010 7a da d0 bd 10 1f 0f bf fe 8e 08 be c7 f7 b0 3d
       -0.10197921 -0.5590677 -0.13335797 0.0864101
000020 d7 f3 d9 3d 5e dd 7b be a4 c8 32 be 2e 12 ad be
       0.10642212 -0.24596164 -0.17459351 -0.33802933
000030 cf 22 a7 be db a9 b5 bd 2e f2 cb bd 49 9c 38 bc
       -0.32643744 -0.08870288 -0.099583015 -0.01126773
000040 9d fb 5d 3b b6 c6 80 be 2d b2 a9 be e4 00 a8 bd
       0.0033871897 -0.25151604 -0.3314375 -0.08203295
000050 13 16 f3 bc a5 e6 14 3c 38 c7 5e 3d 04 c9 05 3b
       -0.029673612 0.009088193 0.05438921 0.0020414004
000060 31 ee ce 3d 40 a9 5a 3a ec b8 4d 3c c0 a0 4a 3a
       0.10104025 0.000834126 0.012556296 0.0007729642
000070 4a 98 c4 bc 24 4c 2e 3c b8 d0 06 bd c0 41 79 bb
       -0.023998398 0.0106382705 -0.032913893 -0.0038033575
000080 70 37 1e bb 90 02 61 3b 4e 96 ef 3c 70 d0 6f bc
       -0.002414193 0.0034333803 0.029246476 -0.014637098
000090 3e 8b a0 3c 0e fe ee bc ae 0b 9d 3c 8e e1 f1 3c
       0.019597646 -0.029173877 0.019170608 0.029526498
0000a0 0c 4b 1c bd 3a 50 8b bc 5a 45 53 3c 13 f2 cc bc
       -0.038157508 -0.017006028 0.012894953 -0.025017774
0000b0 0f 01 30 3d f0 f8 35 bc 05 a6 04 3d 71 6c 2c bd
       0.04296976 -0.011106715 0.03238489 -0.042095605
0000c0 05 c8 29 bd bd 49 bb bb 5e 55 2a 3e f0 59 83 be
       -0.04145052 -0.0057155774 0.16634127 -0.25654554
0000d0 7c 1b 66 be 4e 38 22 be b2 e9 3b 3d 1d f1 ff 3e
       -0.22471422 -0.15841791 0.045877166 0.49988642
0000e0 a8 e9 b9 ba 3d 8b c6 be 6a 22 3f be bf 18 5b 3e
       -0.0014184015 -0.38778105 -0.18665472 0.21396159
0000f0 68 87 99 3e 88 14 70 bc 47 97 fe bd 59 f7 1f bd
       0.2998612 -0.0146533325 -0.124311976 -0.03905425
000100 37 bf 71 3e 5e 70 cf bb 58 1b 75 3d b8 32 e3 3d
       0.23608099 -0.006330534 0.05984053 0.11093658
000110 1e ae 4c bd 69 67 0e 3e 3d a5 01 be da 74 8c bc
       -0.04997074 0.13906635 -0.1266069 -0.017145563
000120 fe 48 7f bd 84 05 09 be b8 2e d7 bd 97 5e 2f 3d
       -0.06232547 -0.1338101 -0.10506958 0.042814817
000130 d8 79 d7 bd 5e d3 79 be 24 6e 30 3d 1f ac 34 3e
       -0.10521287 -0.24397036 0.04307379 0.17643784
000140 df 0b df 3d aa e0 a9 be bb 79 a5 be c8 ee e9 bd
       0.10890936 -0.33179218 -0.32319435 -0.11422497
000150 d1 89 d1 3d b9 ac 50 3e 28 4d 12 be 48 4b 81 be
       0.102313645 0.20378388 -0.14287245 -0.25252748
000160 4b 53 82 bd 5b c8 b6 3d 18 23 08 3e cb fc 10 3e
       -0.06363543 0.089249335 0.13294637 0.14158933
000170 9b a0 87 3d f2 fb aa 3e f7 18 00 3d a0 e6 fd bd
       0.0662243 0.33395344 0.03127381 -0.12397504
000180 ad 07 6e be b6 b9 b2 bd cd 1d 86 3d 77 14 c1 bd
       -0.23245116 -0.08726828 0.06548653 -0.094277315
000190 ad ee 04 3e c3 d6 e5 bd 1c 26 83 be 35 f8 c5 bd
       0.12981673 -0.11222603 -0.25615013 -0.09666482
0001a0 e6 64 47 bc e0 d5 89 3e b1 da 80 be b0 06 74 be
       -0.012170052 0.26920986 -0.25166848 -0.23830676
0001b0 fb 9a 8a bd a6 81 ac 3d 3c c4 63 3e 3c 8a 1a be
       -0.067678414 0.08423166 0.22242826 -0.15091795
0001c0 d4 a6 ad be 77 f5 34 bd 87 c5 58 3e 4d 97 5c 3d
       -0.33916342 -0.044179406 0.211691 0.05385523
0001d0 f6 43 c9 3d 23 d6 39 be 9a 56 b2 bd fe 5f 5f bd
       0.09827416 -0.18148093 -0.08707924 -0.054534905
0001e0 35 39 c6 3d 99 88 f3 3c dd 53 9d be e0 80 a2 bd
       0.0967888 0.02972822 -0.30728045 -0.07934737
0001f0 fe 23 65 3d e8 65 02 3e ce 26 d1 3d 08 cb ef bd
       0.055942528 0.12734187 0.102124795 -0.11708647
000200 79 b4 65 bd 57 6a b3 3e cf 56 4b 3d d0 2e 16 3e
       -0.056080315 0.35042068 0.049643334 0.14666295
000210 af 25 63 3e b8 e0 a1 3d fe a7 80 3d b5 33 14 3d
       0.22182344 0.0790419 0.06282042 0.036182124
000220 bb f4 45 3d df 22 87 3e e8 82 37 bd e4 2e b2 3d
       0.048329096 0.26393792 -0.044802576 0.0870035
000230 9b 35 b1 3d 24 14 b0 bd f5 15 8c 3d da 1a 1a be
       0.086528026 -0.085975915 0.068401255 -0.15049306
000240 73 50 c1 3d dc 8a df 3c 71 2c 1e be 59 9a c5 bd
       0.094391726 0.027287893 -0.1544664 -0.0964858
000250 00 de cc bc 76 24 46 3d 87 d8 99 be 52 99 33 bd
       -0.025008202 0.048374616 -0.3004801 -0.04384739
000260 68 d8 ed 3d ee b6 5f 3e 70 b3 a6 3d 46 ba b5 3c
       0.11613542 0.21847126 0.08139694 0.022183549
000270 80 c2 02 be 9d 53 05 be fc 84 38 bd fa 0f e3 bb
       -0.12769508 -0.13020177 -0.0450487 -0.006929395
000280 ea 46 85 3e 82 58 55 be 73 48 b2 be 8a 93 17 be
       0.26030666 -0.20834544 -0.348209 -0.14802375
000290 c9 60 56 3e 7e 15 c1 bd 47 d8 67 3c 8b 76 65 3d
       0.20935358 -0.094279274 0.014150686 0.056021255
0002a0 a0 d0 dc bd 06 23 13 3e ea e0 8f 3c fb cb 6a bd
       -0.107819796 0.14368829 0.017563302 -0.057323437
0002b0 a0 ba 1e be 39 e4 e6 bd c8 49 82 3e 87 5e 00 be
       -0.1550088 -0.11273999 0.25446916 -0.1253606
0002c0 be 3a 58 3d eb 6f c8 3d ec 0b e9 3c e9 e8 bb be
       0.052790396 0.09786972 0.028448068 -0.36701134
0002d0 4f 65 63 be e6 ff ae be af c9 9a be cb d4 b7 be
       -0.22206615 -0.3417961 -0.30231997 -0.35904536
0002e0 a1 a8 04 bf b3 4a e2 3d 2d bc 00 be e5 d9 8b be
       -0.5181981 0.11049404 -0.12571783 -0.27314678
0002f0 4c bf 1e be 14 94 09 3d 2e 52 11 3d 3e 4b e2 3d
       -0.15502661 0.033588484 0.035478763 0.110495076
000300 06 55 0f be 73 00 ad bd 28 de 8a bd 12 92 2a 3c
       -0.13997278 -0.08447351 -0.06780654 0.010410802
000310 c2 a0 d1 bb 95 b6 70 bd 86 21 cf 3d c8 86 11 3e
       -0.0063973377 -0.058767874 0.10113816 0.14211571
000320 13 ee ba be 37 5b 1c 3e 92 1f cf 3e d9 65 19 3e
       -0.3650976 0.1526917 0.40453774 0.14980258
000330 56 07 ae be 5d 03 7b be 39 5c 45 be 20 8b cf bc
       -0.33989972 -0.24513002 -0.19273461 -0.025334895
000340 fd 40 3a be dd 7d ba be e1 98 95 3e 9f d4 a2 be
       -0.18188854 -0.3642415 0.292182 -0.31802842
000350 1e 6b dd be 2a a5 ec be 97 e8 1d be fa 1e 57 bc
       -0.43245786 -0.4621976 -0.15420757 -0.013129944
000360 27 55 8f be 5f 5b a4 be 5b 3e a8 be 33 12 01 3e
       -0.27994654 -0.3210096 -0.32860073 0.12604599
000370 0f 41 b3 3c 6d 71 a4 3a cc 06 97 bd 7f 48 77 3e
       0.021881608 0.001254601 -0.07374343 0.24148749
000380 08 db e7 3e e4 16 13 be de 55 4d 3d aa ff 4c 3e
       0.45284295 -0.14364201 0.050130717 0.20019403
000390 34 3b f5 3e 2e 9a 4c 3e 50 98 ca bd 34 b8 be bd
       0.4789673 0.1998069 -0.098923326 -0.09312478
0003a0 39 1c 80 3d c4 63 69 3e 79 65 3d be ad cd 59 be
       0.06255383 0.22791964 -0.1849574 -0.21269865
0003b0 e9 84 c2 3c d3 0b 39 be b0 bb 07 bd 7f 67 0b be
       0.023745017 -0.18070917 -0.033137977 -0.136137
0003c0 48 5b f8 bd 5a e5 5d bd d2 a8 81 be 92 df f7 be
       -0.121267855 -0.054173805 -0.25324112 -0.48412758
0003d0 2d 86 8d bd bd a4 13 3e 3b ca ef 3d 71 ad 4d be
       -0.069103576 0.14418311 0.11708494 -0.20085694
0003e0 72 81 9c bd 54 00 27 3d 18 67 dc 3e ed f4 ba bd
       -0.07641877 0.040771797 0.43047404 -0.09128747
0003f0 d6 5c 14 be 5b 3b 39 3e bf 32 8f 3e 65 29 c7 3e
       -0.14488539 0.18089049 0.27968404 0.3889877

bias f4 [50]
000000 d5 01 29 bf 3b a2 ef be 2a 96 46 bf 1f 89 80 bf
       -0.6601842 -0.4680346 -0.7757288 -1.0041846
000010 ed 7d d1 3f 3e 55 76 be 6a a2 cb be a2 df ae be
       1.6366554 -0.24055955 -0.3977235 -0.34154993
000020 f1 b6 00 bf 2b 7b 0d 3f 81 6e a8 bd de f1 04 bf
       -0.50279146 0.55266064 -0.08224202 -0.5193156
000030 c9 f7 a4 bf 30 45 a0 bf c2 b6 6d bd 49 a3 7d 3d
       -1.2888118 -1.2521114 -0.05803562 0.0619233
000040 45 5f 53 3f cd c4 0a bf b2 b7 49 3f 10 21 aa 3e
       0.82567245 -0.54206544 0.7879592 0.3322835
000050 15 3b 8c 3f dc 84 72 bf 51 25 c9 3c ff db 0a bf
       1.095553 -0.9473398 0.024553927 -0.5424194
000060 ba f1 fe be bc 83 92 3e 5a 0c 9b bd 75 51 bb 3e
       -0.49793798 0.2861613 -0.07570715 0.36585584
000070 d4 e1 16 3f b3 e9 5d 3f bc f5 e2 bd ed fe 92 3d
       0.58938336 0.8668472 -0.11082026 0.071775295
000080 6f cd 1e be be 8d ba be ce 44 49 be 52 54 58 bf
       -0.15508054 -0.36436266 -0.19655153 -0.8450366
000090 d5 59 cf 3f 00 83 b6 be 8e 0e 50 3e 2a 59 dd be
       1.619929 -0.3564682 0.20318052 -0.4323209
0000a0 2a 26 89 bf 9a 58 5f 3f d5 e2 97 be 0f 7e 24 3f
       -1.0714772 0.8724457 -0.29665247 0.6425485
0000b0 9b 2e 12 bf 66 4a 32 bf 12 dd 45 3f 29 53 85 be
       -0.57102364 -0.69644773 0.7729045 -0.2604001
0000c0 83 0f ad 3f 27 c5 b2 3f
       1.3520359 1.3966416

weight f4 [10, 50]
000000 8e be 95 be fe 5f 8d be 7d 12 8a 3e 47 00 b8 3e
       -0.29246944 -0.276123 0.2696723 0.35937712
000010 da 86 ad be a8 7f a6 be 5b 6a 31 3c 8b fd f4 39
       -0.33891946 -0.3251927 0.01082858 0.0004672821
000020 a6 14 86 3e ab b7 0c be 36 78 58 3e 74 39 46 3e
       0.26187629 -0.13741939 0.21139607 0.19357854
000030 92 5c 9b be 26 20 1f be 25 f6 96 bd 83 3c eb bd
       -0.30344063 -0.15539607 -0.07371167 -0.11486151
000040 1c c8 bc be 74 00 56 bd 38 f7 e1 3d 59 1a bd 3e
       -0.3687142 -0.052246526 0.11033481 0.36934164
000050 01 ce 2d 3e 52 93 08 bf c5 dc a8 3e e0 c4 cc be
       0.16973116 -0.5334979 0.32980934 -0.39993954
000060 64 f9 b9 be 3b 48 08 be 24 6f c7 3e d9 37 10 be
       -0.36323082 -0.13308804 0.3895198 -0.14083804
000070 63 94 bc bd ea 4e e8 be df b7 8c 3d da 07 ea be
       -0.0920799 -0.45372707 0.06871008 -0.45709115
000080 f7 bf 95 bd 63 a6 17 3e 3a 0e 4d be df 34 bf be
       -0.07312005 0.14809565 -0.20024958 -0.37345025
000090 fc 5e a2 be 53 b7 0d 3e 80 d8 c8 3d 42 4b 76 3e
       -0.31713092 0.13839464 0.09806919 0.24052146
0000a0 16 c8 74 3d 24 9f d9 be 6f 8a 8f 3e e7 69 0e 3e
       0.05976113 -0.42504227 0.28035304 0.13907586
0000b0 12 80 0f 3e 3d 62 0c bd 92 86 32 bf 37 07 0f be
       0.14013699 -0.034273375 -0.6973659 -0.13967596
0000c0 ed 4d fd be 40 b8 1f bf 70 3b ac be 07 04 15 be
       -0.49473515 -0.6239052 -0.33639097 -0.14552318
0000d0 69 04 8d be cb ec be be 18 c3 e6 be e1 8e 1a 3d
       -0.27542427 -0.37290034 -0.4507072 0.037733916
0000e0 f3 40 b7 bd fb 62 6f 3e cd 2c a7 3e 46 41 4e 3c
       -0.08947935 0.23377602 0.32651368 0.012588805
0000f0 3c 55 ea be 11 59 61 bf b7 98 79 3e 12 25 c4 bc
       -0.45768154 -0.8802653 0.24374662 -0.023943458
000100 59 77 12 3f 0f 54 25 3f 2a 1f f1 3d a5 ee 27 be
       0.5721336 0.6458139 0.11773522 -0.1639963
000110 96 e1 2e 3e a0 03 d9 be 55 59 d2 be 90 c5 81 be
       0.17078242 -0.42385578 -0.4108378 -0.2534604
000120 86 63 1e bf 83 d9 bf 3c f8 21 29 3e c5 68 ba be
       -0.6187061 0.023419147 0.16516864 -0.36408058
000130 31 3d 2a bf 85 36 3f 3e 10 28 a5 3e d7 7b f1 be
       -0.6649962 0.18673141 0.32257128 -0.47164795
000140 56 10 1f 3e c7 0a 27 3f 5d c5 31 bf f4 43 39 bf
       0.15533575 0.6525082 -0.6944178 -0.72369313
000150 8c db d2 be 17 9d bc be 6b 9e eb bd d3 2d d5 be
       -0.41183126 -0.368386 -0.11504825 -0.41636524
000160 26 9f 67 3d 2c 73 2e bf 33 88 4d bc de 29 bf be
       0.05654826 -0.6814449 -0.012544679 -0.3733663
000170 17 e4 21 3e 2a 85 29 3e a2 11 c9 3d 23 17 9a bd
       0.15809666 0.16554704 0.09817816 -0.07523944
000180 5a fa 06 3e ed c2 12 bf 5d dc 34 bf f2 2d 08 bf
       0.13181439 -0.57328683 -0.7064875 -0.53195107
000190 31 3a 57 3e 5f ca ad 3e 2f a2 46 be 81 fe 0d be
       0.21018292 0.3394346 -0.19397806 -0.13866617
0001a0 93 72 06 bf c8 04 c5 be 2b 46 09 be cd 59 15 bf
       -0.52518576 -0.3848021 -0.13405673 -0.5834015
0001b0 74 58 61 be 99 83 12 bf b0 3e 50 3e b6 fc e4 3d
       -0.22006398 -0.5723205 0.20336413 0.11181013
0001c0 09 31 92 bd 54 46 f4 3d eb f3 d8 be d7 64 2b bf
       -0.07138259 0.119274765 -0.42373595 -0.66950744
0001d0 42 95 25 bf 9e 89 94 be 47 5c 14 bf b3 61 93 3e
       -0.64680874 -0.29011244 -0.57953304 0.28785476
0001e0 da 93 1d 3e 21 4c 9f bd 9d d8 59 3e 3a b9 43 be
       0.15388432 -0.07778192 0.21274038 -0.19113627
0001f0 3d 19 a6 be 59 59 74 be ae a9 a3 3d 58 29 4c bd
       -0.3244113 -0.23862208 0.07991348 -0.049844116
000200 a5 4c 84 be e2 cd f4 be c2 c8 23 bf 6f bd 0d bf
       -0.25839725 -0.47813326 -0.6397821 -0.5536718
000210 d4 bd 3c 3e c8 62 15 3e a5 49 e7 bd 50 29 bb be
       0.18431789 0.14588463 -0.112933435 -0.36554956
000220 a4 c3 19 bf 55 0a 44 3e 92 45 bd 3c ff 01 0c 3e
       -0.6006415 0.19144566 0.023104463 0.13672636
000230 e6 c3 46 3c b7 3b 80 3e 35 fc c9 be 2a 3f 21 bf
       0.012131667 0.2504556 -0.3945023 -0.62987006
000240 90 c3 5e be 82 d9 a5 be b7 43 13 bf 46 1a 96 3d
       -0.21754289 -0.32392508 -0.575252 0.0732923
000250 b9 e1 19 3e 6f be 09 bf 8f f0 92 3e f1 0c 37 3e
       0.15027513 -0.53806204 0.28699157 0.1787603
000260 a6 53 f7 be ec 81 9f be 21 08 6c 3d 73 64 89 be
       -0.48306006 -0.3115381 0.05762494 -0.2683445
000270 64 5b b4 be 4f 1b ff be 97 ca ef be 5f b6 96 3e
       -0.35225976 -0.49825522 -0.4683425 0.29436013
000280 a2 b5 b6 be ca 7c 23 be 1a 04 b2 bc a4 24 00 3e
       -0.3568545 -0.15965572 -0.021730471 0.12513977
000290 e2 2d 15 bf bf 63 60 bf b2 32 04 3e 1e 67 86 be
       -0.58273137 -0.876522 0.12909964 -0.26250547
0002a0 c7 f8 84 be 00 7f 2f be f0 fa 9b be 9c 59 24 3e
       -0.25971052 -0.1713829 -0.30464888 0.16049808
0002b0 25 2d 24 bf bb 86 33 3e 89 8d 2f 3e 2e 06 04 3d
       -0.64131385 0.17531864 0.17143835 0.032232456
0002c0 f5 f5 c8 be a2 c1 b1 be 2c 0e 56 be fe df d8 3e
       -0.3925015 -0.34718043 -0.20903844 0.42358392
0002d0 93 e5 d2 be 49 48 f9 be 34 25 07 3e a4 0f 87 3d
       -0.41190776 -0.48687962 0.13197786 0.0659478
0002e0 78 b5 7c bd 9f 33 c4 bd fa 37 d5 3e 8e 8c d6 3d
       -0.0616965 -0.095801584 0.4164427 0.104760274
0002f0 7f 83 12 3e 3d cc 37 bd f7 48 3b 3e 7c a6 16 3e
       0.14307974 -0.04487251 0.18289553 0.14711946
000300 b8 1c db be 83 13 20 bf 17 22 99 be 8b 9d fd be
       -0.42795348 -0.6252977 -0.2990882 -0.49534258
000310 23 18 bf 3d 02 b9 64 bd f4 33 d1 3d 30 65 09 3e
       0.093307756 -0.0558405 0.102149874 0.13417506
000320 a0 42 86 be fa 08 a2 be 67 ba 03 bf 6c 93 92 be
       -0.26222706 -0.31647474 -0.514563 -0.286281
000330 b1 1b 10 3e 8f 26 c7 be 69 a9 68 bf 94 10 5f bf
       0.14073063 -0.38896605 -0.908835 -0.8713467
000340 c2 1f 88 be 3f dd b3 be fc dd 1f 3e b1 cb ec 3d
       -0.2658673 -0.35129735 0.15612024 0.115622886
000350 b3 e7 03 bf e2 d7 01 bf ce 71 a0 be 96 63 91 be
       -0.5152542 -0.50720036 -0.31336826 -0.2839629
000360 21 d6 9a bd e9 ca 64 bf 5c 72 2a bf 4d 66 7b 3e
       -0.07560373 -0.89372116 -0.6658075 0.24550743
000370 49 0b 27 3e 1e 12 d8 be c6 89 84 3e 47 bc eb be
       0.16312899 -0.42201322 0.25886363 -0.46042082
000380 40 00 a0 be d3 40 2f 3e 21 cd 7a 3e 91 bc 42 bf
       -0.3125019 0.17114572 0.24492313 -0.7606898
000390 04 57 30 be 89 30 a1 3d 44 f3 de be 8f 95 6a bd
       -0.17220694 0.078705855 -0.43544972 -0.057271536
0003a0 32 88 61 3d 0d 0e 41 3e 6c 30 56 bd e3 65 29 be
       0.055061527 0.18853016 -0.052292272 -0.16542773
0003b0 da 0f 9e 3e 19 92 d5 3d 36 3e f5 3d 73 44 27 3e
       0.3087147 0.104282565 0.119747564 0.16334705
0003c0 f1 0a be be 0c b9 23 bd ba 71 34 3e 70 ac 05 bf
       -0.37117723 -0.039971396 0.17621508 -0.52216244
0003d0 6a 8b f1 be ae 38 58 bf 62 10 21 3e e0 42 4a be
       -0.47176677 -0.84461486 0.15728906 -0.19752073
0003e0 ac 5c 3b 3e 9f e0 0f be 3d 58 1e 3e d9 aa bb 3e
       0.1829707 -0.1405053 0.15463348 0.36653784
0003f0 31 3b b3 be 86 f2 73 be 7f 1e 55 3d 03 70 2e be
       -0.35006097 -0.23822984 0.052031036 -0.17034917

bias f4 [10]
000000 6b cd f5 bf 0e 60 b4 be 5b a0 15 3f 12 80 3d be
       -1.9203314 -0.35229534 0.5844781 -0.18505886
000010 a3 18 09 40 24 cd d0 bf 9c 72 2a 40 66 90 d6 bd
       2.1421287 -1.6312604 2.6632452 -0.104767606
000020 4b 7a 90 bf 4d 49 7d be
       -1.1287321 -0.24734993
