model2_CNN1/model2_CNN1_Scripted_cifar10.pt (torch, 142896 bytes, 8 tensors)

weight f4 [10, 1, 5, 5]
00000000: 6704 a53d a44f 96be 4819 393e 8451 a5bc
00000010: 27f7 1a3c ccb8 873d 2016 1bbf 0ac7 aa3e
00000020: d289 8a3d dab6 cabb b43f d6bb 787d 23bf
00000030: 0171 ca3e 3e51 b63e d8e3 89bd 9576 91bd
00000040: 18ac 24bf ec4f f73e 4e72 cc3e a4f1 28be
00000050: 6a71 bebc 212e 1ebf b1e0 c63e 844f 9b3e
00000060: cdff d3bd edfb 923e bd07 94be c4a3 22be
00000070: c1d3 93bb 6799 3dbd 977e 023f d224 73be
00000080: bfe8 bcbe c5e5 af3d f0e1 8f3d 444c 093f
00000090: ab0d d9be baa1 e7bd 6d55 233e 047b 79be
000000a0: 7bad 4a3e 3272 9cbe 5e4e ed3d 5bcf ca3d
000000b0: bd19 3c3d f8a2 6e3d 77cd 5a3c e303 67bd
000000c0: 6c08 0fbe 7575 a73c feef 113e c004 ee3e
000000d0: 687b 913e a5c0 a83e e817 4b3e f812 c63c
000000e0: 9ddd d6bd 19a4 b1bd 9400 5c3d 4802 3ebe
000000f0: e2f3 64be 5d4a c6be dc51 c7be 8170 0bbf
00000100: 6f48 43be 439b b53d d04e 1dbe e9ed 02be
00000110: 051c ae3d dbd6 ba3d 0db7 2e3d e5f6 353e
00000120: 997f 713e 1127 d03d e955 b33d 4fc4 033e
00000130: c049 953e d769 bb3e 32d2 023e 3f88 26be
00000140: 7028 4f3e 90ee a03c d05f 00bd ca8d 7bbe
00000150: bcd0 35be 9941 843e 6558 ce3d e501 81bd
00000160: e361 9fbe ba4f 01be 6593 ab3e c031 543d
00000170: a508 a8be a78f 113e f696 893d af8b 9bbe
00000180: 4244 13bf b354 56be 1cd7 4b3d 9ae0 9a3e
00000190: b655 82be 427e 8cbe e899 98be 101e 5a3d
000001a0: af9f d33d 2cf9 1cbe 4aa6 82bd bce8 adbe
000001b0: 5cda 8fbe 2032 bfbb ea2b cdba d198 c0bd
000001c0: 55ce 963d 6a64 4cbe bfc2 6dbe a17c 25bd
000001d0: 5e56 303d 8ab1 823e 9f2f a23e 1095 a33d
000001e0: a41d 5a3e 7fb4 ae3e 6ad9 9f3e 4df8 813e
000001f0: 463d 8f3e baeb 633d a7f4 803e 77cc 293e
00000200: 7768 693e 6d25 9b3d d140 093e 074a 1ebd
00000210: 5987 0f3e 7bb8 56bd 20f4 0a3e 1b37 163e
00000220: 214b 403e d408 8a3e 32c4 333e ec0b 403c
00000230: 1a31 243e a19c fd3c 675d 6cbe c190 3cbd
00000240: 02b3 22be 234c 143e df5e 7fbe 8967 84be
00000250: b491 a0be bc4f 1eb9 40c3 87bd 7b5e b7be
00000260: eeac 8dbe 2944 80be b3a2 04be ceb2 83be
00000270: 9a07 4bbe 1f4a 293d babf 35be 63cd 9c3c
00000280: 0a18 353c 1275 d13e b1cd ae3e 498e 813c
00000290: 6ac5 113e b6fd 5e3e 54a2 b43e 2a78 2f3e
000002a0: e74a 493e bf7b 34be 6f35 023e f302 e1bd
000002b0: 6b4b cf3d 18b3 6bbe be99 b93c 662c cb3d
000002c0: 9e22 893e 0736 c03e 6915 9d3e 0f1f b13e
000002d0: 5562 873d eaa0 74bd 215a 013d 9b60 abbd
000002e0: 1b4c 36bb d747 263e a326 2abe 2ce1 8cbd
000002f0: 499e fa3d 7639 9d3d e131 d7bd 4d4d e7bd
00000300: eb71 a2be 2fb7 9fbe 12ac 0c3e 3c37 40be
00000310: 9f8e 8fbe db5d 25bd 978f c8be a0a0 4dbe
00000320: 913e 4f3d cc97 9d3d 4296 0dbd d260 79be
00000330: 8c30 04bd 6be8 2b3e 1db8 4dbe f54f 7cbd
00000340: 03a9 08bc f619 26bd dd64 44bc 1b06 d83d
00000350: 3c11 5dbe f3b3 3dbe 9029 89bd c2c5 df3d
00000360: 3ec4 a5bd 82ae ee3b 13f5 71bd 4217 353d
00000370: b18e b13c bdd7 5fbd f3b8 643d fc1e c03d
00000380: eff0 1ebc 7bfc 3b3e 62a2 b63d 3867 f6bc
00000390: 1abc bfbd ff41 e93d ebac cabc 5c9d 0a3e
000003a0: 6abd 2cbe 2bcd c03d f1c8 be3d 7019 313e
000003b0: 0f13 473c 68ee ec3b d3be 563e 766e 8e3d
000003c0: 8a99 d33d 45d4 8e3c 7c1a ffbd 99da 363e
000003d0: 8f2f 533e 9105 fb3d c644 7bbd d93c 813e
000003e0: 6dbc 513e 39db 273e
0.0805748 -0.29357636 0.1807605 -0.020180471 0.00945834 0.06627044 -0.60580635 0.3335498
0.067645684 -0.0061863484 -0.0065383557 -0.63863325 0.3953934 0.35608858 -0.06732911 -0.07102696
-0.64325094 0.48303163 0.39930958 -0.16498429 -0.02324744 -0.6178914 0.388433 0.30334103
-0.103515245 0.2870783 -0.28912154 -0.15882784 -0.004511327 -0.046288874 0.5097441 -0.23744515
-0.3689632 0.08588747 0.07025516 0.53632 -0.4239324 -0.11310144 0.15950556 -0.24363333
0.1979274 -0.30555874 0.11587213 0.09902831 0.045922983 0.058260888 0.013354651 -0.05640019
-0.13968056 0.02044175 0.14251706 0.46488 0.28414464 0.32959476 0.19833338 0.024178967
-0.10491488 -0.08673877 0.05371149 -0.18555558 -0.22358659 -0.3872861 -0.3892964 -0.5446854
-0.190706 0.088675044 -0.15362096 -0.12786068 0.08501438 0.09123012 0.04265504 0.17769964
0.23583831 0.10163701 0.087566204 0.12867855 0.2915783 0.36604187 0.12775496 -0.16262911
0.2023027 0.019645005 -0.031341374 -0.24565807 -0.17755407 0.25831297 0.10075454 -0.062991895
-0.3112937 -0.1262807 0.3351089 0.051805258 -0.32819095 0.14214955 0.06718247 -0.30380008
-0.5752603 -0.20930748 0.04976569 0.30249482 -0.25456017 -0.27440077 -0.2980492 0.053251326
0.103331916 -0.15329427 -0.06379373 -0.33966625 -0.28096282 -0.005834833 -0.0015653346 -0.094041474
0.073635735 -0.1996018 -0.23218821 -0.04040206 0.043051116 0.25526077 0.31676957 0.07987416
0.2130037 0.34122083 0.3122056 0.2538475 0.27976435 0.05564473 0.25186655 0.16581903
0.22793756 0.07575498 0.13403632 -0.038644817 0.14016475 -0.052422028 0.13569689 0.14669459
0.1877866 0.2695986 0.17555311 0.011721592 0.16034356 0.030958476 -0.23082505 -0.046036486
-0.15888599 0.14482169 -0.24938534 -0.2586024 -0.31361163 -0.00015097758 -0.06629038 -0.3581427
-0.27670997 -0.25052002 -0.1295269 -0.25722355 -0.19827119 0.041330453 -0.17748919 0.019140905
0.011053095 0.4090963 0.34141305 0.015814917 0.14235464 0.2177647 0.35280097 0.17135683
0.19657479 -0.1762533 0.12715696 -0.10986891 0.10121807 -0.23017538 0.022656318 0.09920578
0.26784223 0.3754122 0.30680397 0.34594008 0.06610552 -0.059723772 0.031580094 -0.083680354
-0.0027816358 0.16238342 -0.16616301 -0.068788856 0.12237222 0.076769754 -0.105075605 -0.11294041
-0.31727538 -0.31194445 0.13737515 -0.1877107 -0.280385 -0.04037271 -0.3917205 -0.20080805
0.050596777 0.076949686 -0.034567125 -0.2435334 -0.03227286 0.16787879 -0.20089765 -0.06159969
-0.008341077 -0.040552102 -0.011986938 0.105480395 -0.21588606 -0.18525676 -0.066973805 0.10926391
-0.08094071 0.0072839865 -0.05907161 0.044211634 0.021674486 -0.054649103 0.055840444 0.0938091
-0.009700998 0.18358032 0.08917691 -0.030078515 -0.093620494 0.11389541 -0.024740657 0.1353659
-0.1686913 0.09414133 0.0931567 0.1729486 0.01215054 0.0072305687 0.20971231 0.069546625
0.103320196 0.017435202 -0.12456223 0.17856826 0.20623611 0.12256921 -0.061344884 0.25241736
0.20482035 0.1639222

bias f4 [10]
00000000: cdcb 1e3d 87e0 833e b5d6 9cbb f2ab a1bd
00000010: 6433 84bd 963e 17bf 1456 103d 2e0f 903d
00000020: 2466 dd3c 0d95 0abe
0.03876858 0.25757238 -0.0047863373 -0.07894124 -0.064551145 -0.59079874 0.03523834 0.07034145
0.027026244 -0.13533421

weight f4 [20, 10, 5, 5]
00000000: 370b c73b b0ac bdbd 0e07 bb3b 1221 9dba
00000010: 47e6 3e3d 72b7 f9bc 1069 88bb 2aad 99bd
00000020: 0461 903b ccf4 b83c 9183 83bd 3b45 713d
00000030: ade0 64bd 305e 093d d64e 16bb c0de 953c
00000040: 8c0f 5dbd 134f 613b 00c0 573c 8c36 33bd
00000050: abf9 063d b8ba 52bd 4aa5 86bd 948b 79bd
00000060: e88e 92bd 6768 643d 88a5 ffba ac1b ba3c
00000070: 41c3 a5bd 167a 133c da61 4ebb 366e ef3c
00000080: 01e0 fd3c afd1 6dbd 28f7 67bd a7cd 8f3d
00000090: 8218 2b3d ae6a 0e3d d84b 8abd 8948 00bd
000000a0: 55b8 14bd e4b9 1c3d 08b7 583d d6b5 87bd
000000b0: dcb4 ffbc e690 3abc f0ae 70bd c446 9a3c
000000c0: 37fb a9bc ea7d 3bbd 2898 0d3c c954 53ba
000000d0: 7e6f 99bd e704 d1bd 017e a0bd d3ac a8bd
000000e0: 4ac8 aabb 9f85 c7bc 8c18 90bc 9100 353b
000000f0: 5f7b 8c3d 75b5 3dbc 4837 b2bd d88c 73bd
00000100: 393e a7bd 2f93 c8bd 0633 9f3b 4039 e0bc
00000110: 66ed b03c 945c 47bc 98e6 a2bd 979c f03a
00000120: 82e6 abbd 6e97 46bd 8f8c ff3b b96b d0bc
00000130: 618d c2bd 8d63 20be 4d55 1abe dcdd babd
00000140: b698 15bd 1da9 52bd e02e e2bd ef61 cebd
00000150: 19d8 4dbd 1abb 3cbb 1b0a 19bd 9c0f babd
00000160: 74f5 91bd 279e 623d 0ec2 a3bd ed5d 26bd
00000170: 8d11 9abd 1adc 98bc 635d 90bd b9ed 143c
00000180: 838f 0e3d 23e4 e8bb 5ee7 113d 6934 343c
00000190: 5464 153d 3c35 b1bd 0203 dbbd 1d7e 513b
000001a0: 9f3c 4cbd 9d52 47bd 7ed9 53bd e655 fabb
000001b0: a314 4ebc 5411 b0bd 0e6a 07bd 80fb 46bd
000001c0: d622 e7bd d610 42bd 0c2e a7bc 8dac cabd
000001d0: c935 48bd 85e2 07bd 1245 0bbe 1607 debd
000001e0: 5de6 0cbe 165a cabd ce71 edbc e257 5fbd
000001f0: 08e9 89bd 16c8 99bd 1fff a3bd c734 b0bc
00000200: 468c 163c 55af f7bc 2689 09bd a01f b4bd
00000210: abc5 9cbd c6a7 78bd 4ae5 e8bc f5da 5fbd
00000220: 86a1 a1bd 988f 9ebd d28b 81bd 6f87 1a3d
00000230: 3066 493c bdf1 04bd 5399 58bd ff91 293d
00000240: 48e0 8abd bb47 bdbd a2df 853b c9d7 ffbc
00000250: 6799 77bd 9796 a93c fa1b 493d 6a94 0e3c
00000260: dfcd 253c 96e2 8dbc 22e9 8fbd 4ddc 563d
00000270: 33d0 043d deb1 69bd 9def 2cbd 9a7f c7bc
00000280: 753a b4bc 7c2c 85bd 2967 75bd 6927 c7bd
00000290: 71e6 2dbd 0d9e 26bd 99bc 243c 47c7 83bd
000002a0: ce4d 01be 99a5 04bd 3da1 12bc 4e54 7cbd
000002b0: 1b52 843c 38e2 7f3c 7bad 96bc d872 5dbd
000002c0: 228e 55bd e1b8 a1bd 2c3f 973c 69df 25bd
000002d0: b7c4 47bd 28e0 7fbd 03d5 c0b9 248e 71bb
000002e0: 1f60 9a3d 990c 43bd 9447 83bd 746f 0a3d
000002f0: b1a7 88bd 8299 9d3d 0d1d 71bd 5f08 95bd
00000300: 4a6f 80bb 5af8 1bbc ac85 3fbb a19b 203d
00000310: 5b23 f1bb 8ff7 ccbc 003e b43c 39a3 74bd
00000320: 2d97 e2ba 9466 763c 47f3 0cbc 8904 d6bd
00000330: 0da2 2fbd 0b90 1b3c c2c4 1e3d 86cc 55bc
00000340: bfc3 3abd 5cc2 afbd a26c 50bd 9370 60bd
00000350: 5a9d acbc a2f7 acbd 8ed3 bebd 54d2 78bd
00000360: 62f5 3cbc c10b 7cba 24ea 26bc 5989 8fbc
00000370: 8a03 c43c e17c 69bd ea73 13bd 2e54 a7bd
00000380: e6a8 abbd 464b 483c 73c5 74bd f261 d6bd
00000390: cdc4 36bd e6e3 4bbd 13a4 77bc ad0f 773c
000003a0: c9c7 d8bd 2d73 17bd ad98 81bc d29e 9cbd
000003b0: a077 c1bd c74b 69bb ae22 46bc 4b7e f4bc
000003c0: 165e 0cbd 4239 e63c 8b5a cebd 1e2d 97bd
000003d0: df8d 60bd 364a 333c 014f a7bd ba09 afbd
000003e0: a6a9 07be cf0e efbd d708 74be 501a 78be
000003f0: ea91 cf3e c2be f13e 15c6 143f d965 78be
0.006074335 -0.09261453 0.005707628 -0.0011988005 0.04660633 -0.030482981 -0.004162915 -0.075037315
0.0044060964 0.022577666 -0.06421579 0.058903914 -0.05587833 0.03353709 -0.0022935173 0.018294692
-0.053969905 0.0034379407 0.013168335 -0.04375319 0.032952946 -0.0514476 -0.06574495 -0.060924128
-0.071561635 0.05576363 -0.0019504288 0.022718273 -0.08093882 0.0090012755 -0.003149143 0.029227357
0.030990602 -0.058061298 -0.05663219 0.07021647 0.04177142 0.034769706 -0.06752747 -0.031319175
-0.036308605 0.038263217 0.052908927 -0.06626479 -0.03121417 -0.011387086 -0.058760583 0.018832572
-0.020749671 -0.045774378 0.008642234 -0.0008061645 -0.074919686 -0.10206013 -0.07836533 -0.082360886
-0.0052118646 -0.024355708 -0.01758983 0.0027618746 0.06859469 -0.011578907 -0.0870195 -0.05946049
-0.08166165 -0.09793698 0.0048583774 -0.027371049 0.021597575 -0.012168068 -0.079541385 0.0018357214
-0.08393575 -0.04848426 0.0077987383 -0.025441991 -0.09499622 -0.15662976 -0.15071602 -0.091243476
-0.03652259 -0.05143081 -0.11044097 -0.10077273 -0.050254915 -0.0028798045 -0.037363153 -0.090850085
-0.071268946 0.055326607 -0.07995997 -0.04061692 -0.07522879 -0.01865964 -0.07049062 0.009089881
0.034804832 -0.007107274 0.03562104 0.010998824 0.036472633 -0.08652732 -0.10693933 0.0031966039
-0.0498625 -0.04866277 -0.05172109 -0.0076396344 -0.012578162 -0.08597055 -0.033060126 -0.048579693
-0.11285941 -0.047379337 -0.020407699 -0.09896193 -0.04887942 -0.03317501 -0.13600567 -0.10841195
-0.13759752 -0.09880464 -0.02898493 -0.05452717 -0.067339 -0.075088665 -0.08007645 -0.021509541
0.009188717 -0.030234972 -0.03357806 -0.087950945 -0.0765489 -0.060706876 -0.028429646 -0.054652173
-0.07892136 -0.07742232 -0.06325497 0.037726816 0.01229243 -0.032457102 -0.052880596 0.041399
-0.067810595 -0.09242197 0.004085497 -0.031230824 -0.06044903 0.02070169 0.049098946 0.008702377
0.010119884 -0.017319959 -0.070268884 0.05245619 0.032425117 -0.057054393 -0.0422207 -0.024352837
-0.02200053 -0.06502625 -0.059912834 -0.09724314 -0.042456094 -0.040678073 0.010054731 -0.064344935
-0.12627336 -0.03238449 -0.008949575 -0.061603837 0.016152432 0.0156179 -0.018393269 -0.0540646
-0.0521375 -0.07896591 0.01846274 -0.040496264 -0.048771586 -0.06246963 -0.000367798 -0.0036858404
0.07537865 -0.047619436 -0.06410137 0.033797696 -0.066726096 0.07695295 -0.058865596 -0.07276987
-0.0039195167 -0.009519661 -0.0029223962 0.03921092 -0.007358951 -0.025020389 0.02200222 -0.059725974
-0.0017287486 0.015039105 -0.008602924 -0.10450084 -0.042879153 0.009494792 0.03876186 -0.0130492505
-0.045596834 -0.08581993 -0.05088485 -0.05479486 -0.021071125 -0.0844567 -0.093176946 -0.06074746
-0.011533113 -0.00096147886 -0.010187659 -0.017521547 0.023927469 -0.05700386 -0.035999216 -0.08170353
-0.08381824 0.012224978 -0.059758615 -0.104679 -0.044621278 -0.049777888 -0.015114802 0.015079421
-0.10584981 -0.036975075 -0.015819872 -0.0764748 -0.09446645 -0.0035598145 -0.012093229 -0.029845377
-0.034269415 0.028103475 -0.100758635 -0.07381652 -0.0548228 0.010942986 -0.08169366 -0.08546777
-0.1324831 -0.116727464 -0.23831497 -0.24228787 0.4054101 0.4721585 0.5811475 -0.24257602

bias f4 [20]
00000000: 8e2b 48bd eb9f 533e 7840 a23c a0da 003d
00000010: b43f bb3c 2a16 acbd ed23 123e 79b8 f9bc
00000020: d46f 2abd 0ed0 7ebd 3490 21be 6ffe ab3e
00000030: b5ae a7bd 5779 26bc f0fa 57be 0ae1 fdbc
00000040: d722 6abd 3958 023f 6e38 0fbe d351 b7bc
-0.048869662 0.20666473 0.019806132 0.031458497 0.022857524 -0.08402665 0.14271517 -0.030483471
-0.041610554 -0.062210135 -0.15777665 0.33592555 -0.081876196 -0.010160766 -0.21091819 -0.030991096
-0.057162132 0.5091587 -0.1398637 -0.022377884

weight f4 [50, 500]
00000000: 7fd1 e1bc f1e4 27bd 5200 ac3c c591 99bd
00000010: e0b2 abbd d9f3 1b3d 920a da3c 990b 303d
00000020: ab54 09bd c6c8 1abd bf9a 64bc d7e7 aebc
00000030: 3b32 203d 1400 17bd 1392 bdbc 851d afbc
00000040: 6c1a d43c 116a 9b3d c20c 3a3d 948e 4a3d
00000050: 842e 1ebd 2f18 3c3d 2100 b73c 991d fb3b
00000060: b274 79bc 71d7 533e 1381 993a 7b32 e63b
00000070: 00b2 153c 394e 3d3e 26f3 bb3d fc0d 323b
00000080: 3578 0b3d 4553 9f3c 95ec 903b 09a7 2ebe
00000090: 6333 4f3d 1351 dd3d e73b 283d c048 7abd
000000a0: 0ab1 9cbe e9e8 a6bc 5f07 8bbc daa6 c0bc
000000b0: 912d b9be 61e3 c43c 54e4 bebe 5e3c 07bf
000000c0: fd14 fdbe f568 11bf c9bb 83bc b6af 92bc
000000d0: efc2 2abd 22ad 7f3c 6d77 fc3a 2c58 46bd
000000e0: d87a d0bb 1f09 17bd 6850 46bd d846 c83b
000000f0: 5fd4 2c3d c0e0 c43a c972 0e3d 4ee0 173c
00000100: da99 c83c 5b7e 163d ec7c 7b3c 343b 34bd
00000110: 29fa 1c3d e96c fabc 4517 a33c 68f3 abbb
00000120: 09d9 133d c84b 343c 687f 163c e0da 0abc
00000130: 74ac bbbb 7748 0fbd 41d3 ffbb de16 e83c
00000140: e382 17bd 2ea4 283d fac2 833c ee29 97bb
00000150: f5a1 6cba e139 093c 654c 0cbd 2e50 a83c
00000160: 4147 df3c 3ff5 d93c 1c58 24bd fc21 5f3c
00000170: 5a16 5b3c e947 333b e368 213d 907f b4bc
00000180: f057 33b9 12ad 6ebc d5a9 9fbc f12b 43bc
00000190: fa41 d23c 81a9 2fbd ba3b dabc 9f0e a5bc
000001a0: df19 913b 3e87 183d 5a6c 42bd 5c26 df3c
000001b0: 8454 4fbd 5c32 13bd 8405 19bc e375 c2bc
000001c0: 0641 8dbc 8609 c5bc 1298 513c 45f2 f43c
000001d0: 19e1 ea3c 0ea6 21bc e22f bb3b 16cb 2b3c
000001e0: 5a47 27bd bc98 df3b 2511 dabc cb77 033c
000001f0: 0bf4 cd3c e4ae 453d 9c7e 403c 6545 53bb
00000200: d800 cc3d 8b9d a43d b6c7 d6bc dfbb ca3c
00000210: 94f7 e13d 7a74 503e 9507 ab3d b5d1 8a3d
00000220: 5e70 d6bc c266 debc 7277 b6bd 24ab 273e
00000230: 145d 743e 43de 04bd fb30 82bd f605 543c
00000240: 6705 343e ae4a af3e b88b 0e3e 675e 233d
00000250: 6ca2 653d d5bf b53e c00e 913e 6e97 aa3d
00000260: d92e 4ebd 474a b13d f0d5 8e3e 7857 f53a
00000270: 94e5 093d 5c72 ff3d 2276 723c aa23 013d
00000280: 2e23 d0bd a24e d7bd bdcf 08be bc75 8fbd
00000290: b650 e1bd 2ece 02be eee9 263e 357f 013d
000002a0: 35c2 e63d c33e d9bd a3c1 c8be a12f 023e
000002b0: 4bc5 3e3e b9d2 9cbb fd08 f9be dd2e 253c
000002c0: ad45 d2bb 9c89 e2bc b5ee 99bc 2cf8 0f3d
000002d0: c3b7 83bc 1255 ffbc 0dbc 12bc 9187 9e3c
000002e0: 3df8 683c 7059 903c 6f62 cd3c 15cc 0b3c
000002f0: e3be 363a 8ff8 f4bc be88 073d 46d1 edbc
00000300: 7b51 b33b 9028 b8bc c99d 2ebd f458 3a3c
00000310: 6ee9 013d e41a f33c 86d9 27bc 3f86 13bd
00000320: 6486 823e 259e 353e 6c3e 773d 049f cd3d
00000330: ae77 513e 4516 0a3e 908e 6b3d 3c24 5e3d
00000340: e9d7 a73d 38fa 8cbd 77c1 04be 70ca 6e3d
00000350: 0596 393d 10da 243d 7771 a3bd 99f2 d4be
00000360: d0c9 b73d 6a54 1c3e 2648 a23d d6b9 5dbe
00000370: af46 1ebf 9b72 d7be cfc5 cbbe b9e4 d6be
00000380: 4e90 dbbe d81e a83b 1cb6 2e3c d824 8ebc
00000390: 290b 1e3d e7a2 303d 137b 0a3d 96f2 eabc
000003a0: 4f9a e13b 722c d6bc 8db2 a7bc 1040 a1bc
000003b0: 0a0b 2dbd 506e 2ebd a6fb 77bc 1a9b 1cbd
000003c0: 85bb 033d 50e7 fa3b 8a50 d73c fc4c 353c
000003d0: 4cae 12bd 538b 2dbd f5c7 293d 3899 16bd
000003e0: 7388 353d c1a9 163d b45e 6fbd acec 8a3d
000003f0: b237 033c 11ac 96bd 6020 b9bd 358c c33d
-0.027565716 -0.04098982 0.020996246 -0.074985065 -0.08383727 0.038074348 0.026616368 0.04297981
-0.03352801 -0.03778913 -0.01395291 -0.021350784 0.039110404 -0.03686531 -0.023140943 -0.02137638
0.025891505 0.0758859 0.045422323 0.04945238 -0.03861858 0.0459215 0.022338929 0.0076634404
-0.015225576 0.20687653 0.0011711441 0.0070250607 0.009136677 0.18486871 0.09177236 0.002716898
0.034050185 0.019448886 0.004422734 -0.17055906 0.050586116 0.10806479 0.041072752 -0.061104536
-0.3060382 -0.020374732 -0.016971288 -0.023517061 -0.36167577 0.024034204 -0.37283576 -0.5282649
-0.49430075 -0.56800777 -0.016080754 -0.017906051 -0.04168981 0.015605243 0.0019261666 -0.04842393
-0.0063623004 -0.036873933 -0.048416525 0.006111961 0.04219472 0.0015020594 0.034777436 0.009269787
0.024487425 0.036741596 0.015349608 -0.044001773 0.03832451 -0.03056951 0.019908557 -0.005247522
0.036095653 0.011004396 0.009185649 -0.008475035 -0.005727345 -0.034981217 -0.007807166 0.028331216
-0.036990058 0.0411722 0.016084183 -0.0046131527 -0.0009026819 0.008375616 -0.034252543 0.020546045
0.027255656 0.0266062 -0.04012309 0.013618942 0.013372028 0.0027356094 0.03940667 -0.022033483
-0.0001710353 -0.01456763 -0.019490162 -0.011912332 0.025666226 -0.04288626 -0.026639808 -0.020148573
0.004428133 0.037238352 -0.047466613 0.02723997 -0.05061771 -0.0359367 -0.009339694 -0.023737853
-0.01724292 -0.024052393 0.012792604 0.02990068 0.028671788 -0.009866251 0.005712495 0.010485431
-0.04083953 0.0068236273 -0.026619503 0.008024166 0.025140783 0.04826249 0.011748936 -0.0032237407
0.099610984 0.080378614 -0.026218276 0.024747787 0.1103355 0.20356932 0.083510555 0.0677828
-0.026176628 -0.027148608 -0.08909501 0.16373879 0.23863631 -0.032438528 -0.063569985 0.012940874
0.17580186 0.34236664 0.13920486 0.03988495 0.0560631 0.3549792 0.28331566 0.08329664
-0.050337646 0.086567454 0.27897596 0.0018718084 0.03366621 0.12472984 0.014798673 0.031528153
-0.1016296 -0.10513045 -0.13360496 -0.07004878 -0.110017225 -0.12773964 0.16300175 0.031615455
0.11267511 -0.10607674 -0.39210233 0.12713481 0.18629949 -0.0047858623 -0.4863967 0.010081974
-0.0064169974 -0.027653508 -0.018790582 0.035148785 -0.016078835 -0.031168494 -0.008955968 0.019351752
0.014219341 0.017620772 0.02507135 0.008532544 0.00069711934 -0.029903678 0.033089392 -0.029030453
0.0054723597 -0.02248028 -0.042630944 0.011373747 0.031716757 0.029675908 -0.010244733 -0.0360167
0.25493157 0.17736109 0.060362265 0.100400954 0.2045581 0.13485058 0.057509005 0.054233775
0.081954785 -0.06883663 -0.12964426 0.05829853 0.045309085 0.040247023 -0.07980626 -0.41591337
0.089740396 0.15266576 0.079239175 -0.21652922 -0.61826605 -0.42079625 -0.39799353 -0.41971377
-0.42883533 0.00513063 0.010663535 -0.017351553 0.038584862 0.043124106 0.03380878 -0.028680127
0.00688485 -0.02614424 -0.020470882 -0.019683868 -0.042246856 -0.04258567 -0.015135681 -0.038233854
0.032161254 0.007656969 0.026283521 0.011065718 -0.035810754 -0.042369198 0.04145046 -0.036767215
0.04431958 0.036782984 -0.058439925 0.06783423 0.008008884 -0.07357038 -0.09039378 0.09548227

bias f4 [50]
00000000: 3a27 053d db80 243f 56a1 bb3e abce 4cbf
00000010: df04 e5be adcc 5fbf b019 a5be 2c7c babe
00000020: d0d7 133e ad00 233e a9a8 9bbe 5735 863f
00000030: a669 be3b 245a 403f c479 a0be fc81 52bf
00000040: 33f7 833e 91dc 6dbf 7416 82be 277a 87be
00000050: 0309 463f 03ad 7fbd 7dd3 82be 9e9f 5bbe
00000060: 4f03 45bf 8069 b7be 6ecc a43f c432 c5be
00000070: de85 8d3f b7df 3dbf 56c8 00bf e183 bbbe
00000080: f5d8 633e bef0 a23d ffe1 c8be 6fdf debe
00000090: bc7e d33e a3d2 4cbf 2100 f33e fee4 a9be
000000a0: f1fe de3e 0e6a aebe fa1a f3be f0c3 6bbf
000000b0: ce3f 50bc 3b5b 4fbf 8afd 9f3e a61c 853f
000000c0: 7800 b7be 2637 d2be
0.032508112 0.6425912 0.36646527 -0.8000285 -0.4473028 -0.87421685 -0.3224616 -0.3642286
0.14437795 0.15918227 -0.30402115 1.0485028 0.005810934 0.75137544 -0.313429 -0.8222959
0.25774536 -0.9291468 -0.25407755 -0.26460382 0.773575 -0.062420856 -0.25551978 -0.21447608
-0.76958174 -0.35822678 1.2874887 -0.38515294 1.1056478 -0.74169487 -0.5030569 -0.36624053
0.22250731 0.07956074 -0.3923492 -0.4352984 0.41307628 -0.80008906 0.47461036 -0.3318252
0.4355388 -0.34065288 -0.4748152 -0.9209585 -0.012710525 -0.8099858 0.31248122 1.0399368
-0.35742545 -0.410577

weight f4 [10, 50]
00000000: 9585 8a3d 0a83 b9bb 5db7 2dbe c4f0 983e
00000010: 318b eabc ccc5 27bf ae73 023e 8c14 9ebe
00000020: 5694 623e bb0c 803d 8d4d dbbe cf8e 03bd
00000030: 7f33 1ebe dcf4 de3d e029 efbd 540c 623e
00000040: 6cc1 613e ff20 50be 95ca 89be d590 7bbe
00000050: 128a 09be 0b9c 0dbf 279b e53d 65a1 86be
00000060: 02c9 4d3e ae6e 7a3e 76f4 21be 5fec 3d3e
00000070: 7708 063e 08b3 7c3e 3236 07bf f809 d83d
00000080: b30d 87bc eedb 8b3e 033e 8a3c 0bb6 d8be
00000090: 57e1 0cbf 2498 bbbe 63b3 d1be aa87 a93c
000000a0: 9b88 abbe 1817 713e 6a76 4dbe d9ad ae3e
000000b0: 4ae9 b8be 6c92 47be bef9 69bd d25b 3e3d
000000c0: 1ea9 6d3e 0e87 6d3e b2d8 743e d6ee 163e
000000d0: 0567 c8be 5cec c2bd d2b0 82be 2e39 9fbe
000000e0: 6f98 813e b8e5 12be 91ac 73be 2e16 d63e
000000f0: f9cc 773e d645 6b3e 3949 12bf cf9a 84be
00000100: b6e6 c53e c65c a4be c4c8 9abe e8b9 62be
00000110: f755 ccbe 08e0 02be 289c 793e 6c2c 8ebe
00000120: f8be ddbe 3dad a13e 1cc2 243e 321e c6be
00000130: d29f 673d 852e e3be b861 213e 546e afbe
00000140: bd4e 5ebe 04cc 2fbf 4a94 913e 890b d83e
00000150: 90bd debd fc7e 1fbe ac6a 283e 6e4f c0be
00000160: d69d ab3d b569 23bf 786a cdbe 0fcc 44bf
00000170: b3db 1dbf 04f8 51be 0b28 0cbf 1ea4 f0be
00000180: a1ef 3d3e 8fc6 9cbd 85f5 e3be fcfe aabe
00000190: 7d1b d5be d536 36bf a59b a83c f2e2 0dbe
000001a0: 539a 3f3e 66f3 b5be e169 18bf 094d 0b3e
000001b0: ad0f ed3d a7e6 24bf d68d 07bb 1432 11bf
000001c0: 26eb cf3d 347f b13d 9c88 d23d 8ea9 0cbe
000001d0: 17e5 02bf ff1f b03d 506b 13bf 19f2 22bf
000001e0: f083 16bf f385 16bf 1b54 063e 42f0 05bf
000001f0: d132 fdbd ee10 243e 80a8 e6be c31b 5e3e
00000200: fc38 93be c310 1fbe d893 d6bd e58e f03d
00000210: 39dc 0ebf f738 e5be b5ca d4be bcb8 28bb
00000220: db22 4fbf 70b7 d8be 0d17 f1be 326a 2d3e
00000230: 5ab1 a5bc cebf 573e c3b9 6e3e d372 66be
00000240: ca45 aa3a d3b5 153e 947b 23bf 51e1 843d
00000250: 6471 803e 9d3c 913c a865 dfbe ea8c d0bd
00000260: a66a 053e 9409 babe 1a1c 6ebe 9bab c13d
00000270: aad1 35bf ddb3 4f3e cca8 87be c4b8 30bf
00000280: 3158 643e 429b b3be 3371 043e 81a1 9e3d
00000290: 3ba8 82bd 5619 9c3e 1748 b1bd 4fac ee3d
000002a0: 2fa3 c6bd c65c a5be d8b0 3a3e fcfa f93d
000002b0: 5570 cf3c f43c 71bc 8058 b6be 28ff 90bd
000002c0: ae0b c63d 88b5 0abe a65a 0c3e 7cf0 89be
000002d0: 4bc3 5a3e a08d 22bc 820f 08bf 74c9 0ebf
000002e0: ac38 ffbe 5667 943e 26cf f53d c19b 62bb
000002f0: 2d3a 343e b38a 043d 05d3 223e 2453 f8bc
00000300: 22d8 0dbd 8e3d bebe 26f4 6a3e f0f3 253e
00000310: 94ba 31bf b63f f53c 8bdf 80be d296 11be
00000320: 3911 6bbf 1dae 19bf f4ec 8cbe 0936 c9be
00000330: ca35 e6be c4e0 e7be 0a6d c9be f0e0 4ebe
00000340: 2b8e c7be 7d2a c4be b8f3 95be 8004 3cbf
00000350: bdb1 a83d bb8e 123e f6eb f6bd 79e2 8abd
00000360: dc92 8cbd c297 cfbe 8759 bfbe bf1c 17be
00000370: 188d 543e 2ff0 53bd 546b 0e3e 8ede 4d3c
00000380: 5cc0 f8be 1d23 723e 1913 933d 9316 723d
00000390: 028e 6a3e 8a17 0ebe 9496 25bf 1c79 0a3e
000003a0: 5775 40bf 5586 08bc 052f 4abf c9e9 13bf
000003b0: b4ce 75be d8d8 cbbe 0363 20be ab67 113d
000003c0: 4002 ad3d 9e01 623e 164a 34be 289c 8ebe
000003d0: 092b 75bd a89e 5bbe 6f8f 4bbf 04c9 103e
000003e0: f051 ff3d b52a e93d a5d2 8fbe 1487 afbe
000003f0: 3813 47be 3287 b7be 89ed a9bd f9bf b23e
0.0676376 -0.005661373 -0.16964479 0.2987119 -0.028630825 -0.6553619 0.12739441 -0.3087505
0.22126898 0.06252428 -0.42832604 -0.032118615 -0.15449332 0.10886547 -0.11677909 0.22075015
0.22046441 -0.20325087 -0.2691237 -0.24566968 -0.13431576 -0.5531623 0.112112336 -0.2629501
0.2009621 0.24456283 -0.1581591 0.185472 0.13089167 0.2467767 -0.5281707 0.105487764
-0.016486024 0.2731623 0.016875273 -0.42326388 -0.5503134 -0.36639512 -0.40957174 0.020694572
-0.3350266 0.23543966 -0.20064703 0.3411701 -0.36115485 -0.1948945 -0.05712294 0.046474285
0.23209044 0.2319605 0.23910788 0.14739546 -0.39141098 -0.09517738 -0.25525528 -0.31098312
0.2531161 -0.14345443 -0.23796298 0.41813797 0.24199285 0.22975859 -0.5714298 -0.2589936
0.3865258 -0.3210203 -0.30231297 -0.2214123 -0.39909336 -0.12780774 0.24375975 -0.27768266
-0.4330976 0.31577483 0.16089672 -0.38694912 0.0565489 -0.4437143 0.15759933 -0.3426386
-0.21709724 -0.6867068 0.28433448 0.421963 -0.10876 -0.15575784 0.16446942 -0.375606
0.08379714 -0.6383317 -0.40120292 -0.7687387 -0.6166336 -0.20504767 -0.547486 -0.4700021
0.18548442 -0.076550595 -0.44523254 -0.33397663 -0.41622534 -0.7117742 0.02058203 -0.13856104
0.18711214 -0.3553726 -0.5953656 0.13603605 0.115752555 -0.6441445 -0.0020683906 -0.5671704
0.10152273 0.0866684 0.102799624 -0.13736555 -0.51130813 0.08599853 -0.5758562 -0.6365066
-0.5879507 -0.5879814 0.13118021 -0.5231973 -0.12363208 0.16022083 -0.4505043 0.21690278
-0.28754413 -0.15533738 -0.10477418 0.11746005 -0.55804783 -0.44770023 -0.41560903 -0.0025744876
-0.8091256 -0.42327452 -0.470879 0.16935042 -0.02022617 0.21069261 0.2331305 -0.2250474
0.001299077 0.14620142 -0.6386044 0.06488288 0.2508651 0.017729098 -0.43632245 -0.10183127
0.13028964 -0.36335433 -0.23252907 0.09456559 -0.71023047 0.20283456 -0.2649597 -0.6903193
0.22299267 -0.3507939 0.12933807 0.07745648 -0.06379744 0.3048808 -0.08656328 0.11653959
-0.096990936 -0.32297343 0.18231523 0.122060746 0.025322119 -0.014724005 -0.35614395 -0.07079917
0.096701965 -0.13545811 0.13706455 -0.26941288 0.21363561 -0.009921461 -0.53148663 -0.55776143
-0.49847925 0.2898509 0.12002401 -0.00345777 0.17600317 0.032358836 0.1590081 -0.030313082
-0.03462995 -0.37156337 0.22944698 0.16206336 -0.6942532 0.029937606 -0.2517055 -0.1421769
-0.91823155 -0.600313 -0.2752453 -0.39299038 -0.44962913 -0.4528867 -0.39341003 -0.20202994
-0.38975653 -0.38313666 -0.29287505 -0.73444366 0.08237026 0.1431226 -0.12056725 -0.067814775
-0.06863949 -0.4054547 -0.3737299 -0.1475706 0.20756948 -0.05174273 0.1390813 0.012565268
-0.4858426 0.23646207 0.07181377 0.05910356 0.22905734 -0.13876167 -0.6468289 0.13522762
-0.75179046 -0.0083328085 -0.78977996 -0.577786 -0.24004632 -0.39813876 -0.1566277 0.035499256
0.08447695 0.2207093 -0.17606387 -0.27853513 -0.059855495 -0.21447241 -0.7951574 0.14139181
0.124668 0.11385099 -0.28090397 -0.34282744 -0.19440925 -0.35845333 -0.08297259 0.3491209

bias f4 [10]
00000000: 1ce5 0ec0 5e84 c93e e379 0e3f fdc3 19bf
00000010: 08de fa3f 0626 9abf e9be 2040 2588 01bf
00000020: 77a8 96bf 000a 09be
-2.2327337 0.393588 0.55654734 -0.6006468 1.9599009 -1.2042854 2.5116522 -0.50598365
-1.1770161 -0.13382721
