model2_CNN1/model2_CNN1_Scripted_cifar10.pt (torch, 142896 bytes, 8 tensors)

weight f4 [10, 1, 5, 5]
0	0xbdacf73d	-0.084455945
1	0xbe62e387	-0.22157107
2	0xbec85ef9	-0.39134958
3	0xbe955fcc	-0.2917465
4	0xbeca9537	-0.39566967
5	0xbe884e69	-0.26622322
6	0xbe1d3d1d	-0.15355344
7	0xbe34dd3f	-0.17662524
8	0xbe24f6ee	-0.16109821
9	0x3d76b8ad	0.060234714
10	0x3e7c1bd6	0.24619994
11	0x3d05369b	0.03252278
12	0x3daf88ac	0.0857099
13	0x3e41156a	0.18855825
14	0x3e455118	0.19269216
15	0x3d9394eb	0.07206138
16	0x3d661895	0.056175787
17	0x3eae5b07	0.34053823
18	0x3e9c1f96	0.30492848
19	0x3e68ac5b	0.22721998
20	0x3d9830ec	0.07431206
21	0x3e847ddd	0.25877276
22	0x3e08374b	0.13302343
23	0xbda278f2	-0.07933225
24	0x3df57e30	0.11986959
25	0x3dea3e3b	0.11437651
26	0x3e94eedf	0.29088494
27	0xbd1e02f2	-0.038577028
28	0xbd5ac0a4	-0.053406373
29	0xbe21e085	-0.15808304
30	0x3d7d930c	0.061907813
31	0x3e637032	0.22210768
32	0xbd336c14	-0.043804243
33	0x3e11b387	0.1422864
34	0xbe80ed3a	-0.2518099
35	0x3df4b21a	0.11948033
36	0x3e70a552	0.23500565
37	0x3e92510c	0.2857746
38	0x3e8f907b	0.28039917
39	0xbd87e059	-0.06634588
40	0xbe4eb555	-0.2018636
41	0xbebd5fbf	-0.3698711
42	0xbe28005d	-0.16406389
43	0x3cac7d78	0.021055922
44	0x3eab0fda	0.3341053
45	0xbe4187f0	-0.18899512
46	0xbec0b30a	-0.37636596
47	0xbeadd502	-0.33951575
48	0xbe1c2cbd	-0.15251441
49	0x3e2aa32a	0.16663805
50	0x3e3a88dd	0.18216272
51	0x3ee3918c	0.4444698
52	0x3d53476d	0.05158179
53	0xbd736d1b	-0.059430223
54	0xbdfc1ccc	-0.1231018
55	0xbd378a50	-0.04480964
56	0xbed5887f	-0.417057
57	0xbeeb2557	-0.45926926
58	0xbe68660d	-0.2269518
59	0x3d041a41	0.0322516
60	0xbeb0e596	-0.3455016
61	0xbed2c348	-0.41164613
62	0xbe9b8596	-0.30375355
63	0x3e1e8db6	0.15483746
64	0x3e2ae189	0.16687597
65	0xbd9422ce	-0.07233201
66	0x3ea476fa	0.32122022
67	0x3ec36889	0.38165691
68	0xba4d2b72	-0.0007826603
69	0x3d964a0c	0.07338342
70	0x3e3410bc	0.17584509
71	0x3e97a496	0.29617757
72	0x3e63396b	0.22189872
73	0x3e494e30	0.19658732
74	0xbe543e1c	-0.20726818
75	0xbd6343e0	-0.055484653
76	0xbd124a38	-0.03571531
77	0x3e6526ed	0.2237813
78	0x3ea0560d	0.31315652
79	0x3dd59878	0.10429472
80	0x3e126d0f	0.14299415
81	0x3e152c14	0.14567596
82	0x3e716751	0.23574568
83	0xbd31092b	-0.043221634
84	0x3e49699f	0.19669197
85	0x3e04d1fa	0.12970725
86	0x3d4e83e9	0.050418768
87	0x3d5bf7e1	0.053703193
88	0xbd2f41d2	-0.04278738
89	0xbc89955d	-0.016794855
90	0x3e497acd	0.19675751
91	0xbd0f8241	-0.03503633
92	0x3ba911f5	0.0051596113
93	0xbdbf4077	-0.093384676
94	0xbddb4d7c	-0.10708138
95	0x3c9f8982	0.019474749
96	0xbdcb4742	-0.09925701
97	0xbd73c4ba	-0.059513785
98	0xbd68ea60	-0.056864142
99	0x3ba82918	0.005131852
100	0x3e2a4527	0.16627942
101	0xbe8ba563	-0.27274618
102	0xbe4d93fc	-0.20075983
103	0x3ecbe686	0.39824313
104	0xbe2fdf6f	-0.17175077
105	0x3e47f90a	0.19528595
106	0xbe769634	-0.24080735
107	0xbe528e4f	-0.20562099
108	0x3e9a6765	0.3015701
109	0xbe1a0fde	-0.15045115
110	0x3eb0699f	0.34455582
111	0xbef1b0e5	-0.47205272
112	0xbd17116e	-0.036881857
113	0x3d6310a6	0.0554358
114	0x3d02daac	0.031946823
115	0x3eafa862	0.34308153
116	0xbed69f49	-0.419184
117	0xbecd7c8f	-0.40134093
118	0x3e719692	0.23592594
119	0x3e93614e	0.28785175
120	0xbd1d26ee	-0.038367204
121	0xbecca364	-0.39968407
122	0x3e0ce0c0	0.1375761
123	0x3ec5c2da	0.38625222
124	0xbd2e5bcd	-0.042568017
125	0xbe35c9b4	-0.17752725
126	0xbc94ca0b	-0.018162748
127	0xbe5618d8	-0.20907915
128	0xbdedd1d3	-0.116122864
129	0xbe152995	-0.14566644
130	0x3eb3642d	0.35037366
131	0x3c3c94b4	0.011510063
132	0x3d1c49e8	0.03815642
133	0xbe8968d4	-0.2683779
134	0x3d33e9bb	0.043924075
135	0x3dff4e12	0.124660626
136	0xbda2ed1f	-0.079553835
137	0x3ebc15d2	0.36735398
138	0xbe40d965	-0.1883293
139	0xbeb12924	-0.346017
140	0xb9bace44	-0.00035630364
141	0x3df736a9	0.120709725
142	0x3e265d1d	0.16246457
143	0x3e8cfd41	0.27536967
144	0xbe323632	-0.17403486
145	0xbea6f235	-0.32606664
146	0xbe772d6d	-0.24138422
147	0x3e639fc0	0.22228909
148	0x3dfce44c	0.12348232
149	0x3e8c43f2	0.27395588
150	0xbdb27f80	-0.08715725
151	0x3e062276	0.13099083
152	0xbd57352e	-0.05254095
153	0xbd803f32	-0.062620535
154	0x3e57c025	0.21069391
155	0x3caf3959	0.02138965
156	0xbce8d7e3	-0.028423255
157	0xbcf838eb	-0.030300578
158	0x3dc6c50f	0.09705555
159	0x3e5d739e	0.21626136
160	0x3e46ffe8	0.19433558
161	0xbe0647ee	-0.13113376
162	0x3e4abe20	0.1979909
163	0x3e27ae1e	0.16375014
164	0x3b4150c9	0.0029497615
165	0x3e0e9d82	0.13927272
166	0x3d12e394	0.035861567
167	0xbca26324	-0.019822665
168	0x3d9f3e9e	0.07775615
169	0x3d5aa7de	0.053382747
170	0xbe05be5e	-0.130609
171	0x3dd2b9c0	0.10289335
172	0x3e35c39a	0.17750397
173	0x3d8e73cf	0.069556825
174	0x3b8fda76	0.0043900562
175	0x3e819534	0.25309145
176	0x3e3a33ed	0.1818387
177	0x3df529a6	0.119708344
178	0x3db05b45	0.08611158
179	0xbe17f892	-0.14840916
180	0x3e840431	0.25784448
181	0x3ec185cb	0.37797388
182	0x3ed37035	0.41296545
183	0x3de83ab2	0.1133932
184	0x3e9840db	0.2973698
185	0xbe610750	-0.21975446
186	0xbddf2169	-0.10895044
187	0xbe6deb2c	-0.23234242
188	0x3da9f541	0.082987316
189	0x3d55522c	0.05208032
190	0xbe0778aa	-0.13229623
191	0xbee135bc	-0.4398631
192	0xbea913d0	-0.33022928
193	0xbe93dfaf	-0.28881595
194	0xba804621	-0.0009786525
195	0x3bf50afa	0.007478115
196	0xbc522e8b	-0.0128284795
197	0x3d1aace5	0.03776254
198	0xbe6ad312	-0.2293208
199	0xbe0facfe	-0.14030835
200	0xbe948e3e	-0.29014772
201	0x3ea60af9	0.32430246
202	0x3e84a097	0.2590377
203	0xbe5abbd0	-0.21360707
204	0x3d2cf546	0.0422261
205	0xbf035574	-0.51302266
206	0x3d899b2b	0.06719049
207	0x3eb0982c	0.34491098
208	0x3e10ca4f	0.14139675
209	0x3e27fae6	0.16404304
210	0xbdd00399	-0.10156936
211	0xbe33ba17	-0.17551456
212	0x3a96e994	0.0011513704
213	0x3ea65abb	0.32491097
214	0xbe29cff1	-0.1658323
215	0x3c4e752c	0.012601178
216	0xbed75fa5	-0.42065158
217	0xbe39d032	-0.18145826
218	0xbd394f3a	-0.045241572
219	0xbd10a8b4	-0.035317138
220	0x3ec09e7c	0.37620914
221	0x3ec58e8d	0.3858532
222	0xbe817c18	-0.2528999
223	0xbd8d1ebc	-0.06890628
224	0x3c0b78dc	0.008512702
225	0xbda3833e	-0.07984017
226	0x3e88956e	0.26676506
227	0x3e8f713f	0.28016087
228	0xbe0e956c	-0.13924187
229	0xbead9246	-0.3390066
230	0x3d7990d4	0.060929134
231	0x3ea9b71d	0.33147517
232	0x3cc828a8	0.024433449
233	0xbe488387	-0.19581424
234	0xbe868e09	-0.2628024
235	0x3ead6d12	0.33872277
236	0x3e683485	0.22676285
237	0x3e39e176	0.18152413
238	0xbe2a22e1	-0.16614868
239	0xbefb1e11	-0.49046376
240	0x3efdf56a	0.496013
241	0x3e8139ac	0.25239313
242	0xbeab439a	-0.33450013
243	0xbe054c4a	-0.13017383
244	0xbe9ae7ca	-0.30254966
245	0x3f01e0e8	0.50733805
246	0xbdc6c554	-0.09705606
247	0xbeb13d44	-0.34617054
248	0xbd64ed38	-0.055890292
249	0x3cffd52f	0.031229584

bias f4 [10]
0	0xbe3ac2a4	-0.18238312
1	0x3c9b23ef	0.018938033
2	0x3c486c24	0.012232814
3	0xbf2991f8	-0.66238356
4	0x3d0e8590	0.034795344
5	0x3e132eb3	0.14373283
6	0xbe5982ad	-0.21241255
7	0xbe0662fb	-0.13123696
8	0xbc606d7a	-0.013697976
9	0xbd08cf84	-0.033401027

weight f4 [20, 10, 5, 5]
0	0x3c6703e9	0.014100053
1	0xbb37ef4b	-0.0028066214
2	0xbd866746	-0.065626666
3	0xbd5a6df6	-0.053327523
4	0xbdd237bc	-0.10264537
5	0xbd30635d	-0.04306351
6	0xbdb42e89	-0.087979384
7	0xbadb9873	-0.0016753807
8	0xbd0711bb	-0.032975893
9	0xbd449e48	-0.04800251
10	0x3b65ec99	0.003508365
11	0xbc117a68	-0.008879282
12	0xbda5945b	-0.08084937
13	0xbd813b60	-0.06310153
14	0xb91815dd	-0.00014503994
15	0x3d066fc5	0.032821435
16	0x3d36f97f	0.04467153
17	0xbcf3549d	-0.029703433
18	0xbd0e457c	-0.034734234
19	0xbbf28aad	-0.0074017853
20	0x3d0abdbb	0.033872347
21	0xbc2023d0	-0.009774163
22	0xbc839982	-0.01606441
23	0xbd54cc4c	-0.051952645
24	0x3c89b189	0.016808288
25	0xbd8c8304	-0.06860927
26	0xbd2cebe4	-0.04221715
27	0xbc32d9af	-0.010916158
28	0xbcccf021	-0.025016846
29	0xbd0759cf	-0.033044633
30	0x3d1cd9bc	0.038293585
31	0xbc109f3f	-0.00882703
32	0xbd9ab285	-0.07553581
33	0x3cbfec03	0.023427969
34	0xbbf9aa96	-0.0076192124
35	0xbcf3f158	-0.029778168
36	0xbdb84600	-0.089977264
37	0xbda8a573	-0.08234682
38	0xbd9463ac	-0.072455734
39	0xbc248222	-0.010040792
40	0x3c015865	0.00789461
41	0xbdd7f5fc	-0.10544965
42	0xbd81f45f	-0.06345438
43	0x3b8b3105	0.004247787
44	0x3c845d71	0.016157838
45	0xbc936a8d	-0.017995143
46	0x3c1fa762	0.009744497
47	0x3c95456d	0.018221581
48	0x3bb70227	0.0055849734
49	0xbdb5e5c7	-0.08881717
50	0xbdbd1a77	-0.092335634
51	0xbd190a1f	-0.037363168
52	0xbd768fa4	-0.06019558
53	0xbce65eb0	-0.028121322
54	0xbd436091	-0.047699515
55	0xbdaf055e	-0.085459456
56	0x3cca9dc9	0.024733441
57	0xbd848a18	-0.06471652
58	0xbda4c077	-0.08044522
59	0xbdb14b58	-0.08656949
60	0xbd5abc4e	-0.053402238
61	0xbd0d6541	-0.03452039
62	0x3cefdff9	0.029281603
63	0xbc4bcee7	-0.012439466
64	0xbdb05d9c	-0.086116046
65	0xbd391e50	-0.045194924
66	0x3d34884c	0.044075295
67	0x3d1c0b57	0.038096752
68	0xbd50efb3	-0.051009845
69	0xbc886107	-0.016647829
70	0xbc8fdd22	-0.017561499
71	0xbda70117	-0.08154505
72	0xbd9a56ca	-0.07536085
73	0xbc85fc3f	-0.016355632
74	0xbd928a2e	-0.07155262
75	0x3c590a6a	0.013247112
76	0xbd54e75a	-0.051978447
77	0xbceef36e	-0.02916881
78	0xbce8e75f	-0.028430639
79	0x3c95dabb	0.018292775
80	0xbd84fe8a	-0.06493862
81	0x3d192728	0.037390858
82	0xbd9c3f0d	-0.076292135
83	0xbda4dfdf	-0.080505125
84	0xbd65c1ef	-0.056093153
85	0x3c14dc82	0.009085776
86	0xbc02ac0e	-0.007975591
87	0xbd643b57	-0.055720653
88	0xbd47d6ab	-0.048788708
89	0xbd88ede1	-0.06685997
90	0x3cc6b619	0.024256753
91	0xbd00d9a5	-0.031457562
92	0xbd30cee7	-0.043166067
93	0xbd436b97	-0.047710028
94	0xbd6bf762	-0.05760897
95	0xbd233a5c	-0.039850578
96	0xbd91220e	-0.070865735
97	0x3cdf5e50	0.027266651
98	0x3d11d308	0.035601646
99	0x3d188546	0.037236474
100	0x3d3eb590	0.04655987
101	0x3c5bd175	0.013416638
102	0xbd6a2202	-0.05716134
103	0xbbe78928	-0.007065911
104	0x3c3e195c	0.011602726
105	0x3d0382c4	0.03210713
106	0xbd074b4d	-0.033030797
107	0xbcee6613	-0.029101407
108	0xbb926974	-0.0044681374
109	0x3d45a318	0.04825124
110	0xbd403b30	-0.046931446
111	0x3cc75097	0.02433042
112	0xbc8caf73	-0.017173504
113	0xbd318311	-0.043337885
114	0xbc0ef927	-0.008726395
115	0x3ceb7cd3	0.028746044
116	0xbd9b2623	-0.075756334
117	0xbc8c153c	-0.01709997
118	0x3cc019be	0.023449775
119	0x3d2e9707	0.0426245
120	0x3c6d472f	0.0144823035
121	0xbdb588a7	-0.08863955
122	0xbd785449	-0.060627256
123	0xbcf9b087	-0.030479683
124	0x3d514132	0.051087566
125	0xbb9410ab	-0.0045185885
126	0x3cf9bbeb	0.030485114
127	0x3d006335	0.03134461
128	0xbcdf6421	-0.027269425
129	0xbd9ef51a	-0.07761593
130	0xbd3c56e6	-0.04598131
131	0xbc79d0cb	-0.015247534
132	0xbd862b0c	-0.06551179
133	0x3cd0d89a	0.025493909
134	0xbc2bb581	-0.010480286
135	0xbd7c5f40	-0.061614275
136	0xbd90ccf5	-0.070703425
137	0xbd721c6a	-0.05910913
138	0x3ce03122	0.027367178
139	0xbcf9e3bb	-0.030504098
140	0x3d45d4d7	0.048298683
141	0x3d131132	0.03590507
142	0x3b984b4b	0.0046476475
143	0xbd57714f	-0.052598294
144	0x3b880c7d	0.0041518793
145	0xbd7c65dc	-0.06162058
146	0xbc81f4b7	-0.01586376
147	0x3bfe12b6	0.0077536954
148	0xbb1794df	-0.0023129506
149	0xbd44b000	-0.04801941
150	0xbd8106ed	-0.06300149
151	0x3c7ce82b	0.0154362125
152	0xbd8f49e6	-0.06996517
153	0xbd9e2b89	-0.077231474
154	0xbc9c3c40	-0.019071698
155	0x3c7b9b11	0.015356795
156	0xbd279f8a	-0.040923633
157	0xbd2175d1	-0.039419
158	0x3ca57b21	0.020200314
159	0x3c69e999	0.014276885
160	0xbd353d42	-0.044247873
161	0xba13bf41	-0.0005636104
162	0x3cf1e7c0	0.029529452
163	0x3d075297	0.03303775
164	0xbd04ebc2	-0.0324514
165	0x3cc8cae5	0.02451081
166	0x3c1cc08c	0.009567391
167	0x3c201f09	0.009773024
168	0x3ca99872	0.020702574
169	0xbd05d4dd	-0.032673705
170	0xbca4d368	-0.020120338
171	0xbd629706	-0.05531981
172	0xbd01376f	-0.031547006
173	0xbc72d0d4	-0.014820296
174	0xbc007e2e	-0.007842584
175	0x3cd7d207	0.026345266
176	0x3c087954	0.008329708
177	0xbd9c3f62	-0.07629277
178	0xbd88089d	-0.06642268
179	0x3bcc5402	0.0062356004
180	0xbd95e02b	-0.07318147
181	0x3d5fc930	0.054635227
182	0xbd5073f8	-0.050891846
183	0xbcdff29a	-0.027337361
184	0x3c3b33d7	0.011425934
185	0xbdb6b27f	-0.08920764
186	0xbd65083f	-0.055916067
187	0xbc0da02f	-0.008644148
188	0xbdbfc2fd	-0.09363363
189	0x3d0e7d51	0.03478748
190	0xbcd4f06d	-0.02599355
191	0xbe042ad6	-0.12906966
192	0xbd91dd77	-0.07122319
193	0xbca1f185	-0.019768486
194	0xbcdc736f	-0.026910512
195	0x3cbb6852	0.022876892
196	0x3d062e10	0.032758772
197	0x3d79ca25	0.060983796
198	0xbca56305	-0.020188818
199	0xbd92b76b	-0.071638905
200	0xbdb51d8d	-0.08843527
201	0xbdab9818	-0.08378619
202	0xbd960fd6	-0.07327239
203	0xbd452aa2	-0.04813636
204	0xbdb47b93	-0.088126324
205	0xbcf26243	-0.02958787
206	0xbc9d6525	-0.019213269
207	0x3cd007dd	0.025394375
208	0x3bfb5552	0.007670083
209	0xbd84cc21	-0.06484247
210	0xbd94d20f	-0.07266628
211	0xbc97ca7d	-0.018529171
212	0xbdad572c	-0.08463892
213	0xbd670082	-0.05639697
214	0x3c48a081	0.012245298
215	0xbd9cb834	-0.076523215
216	0xbc3ff6f0	-0.011716589
217	0xbcfee0e6	-0.0311131
218	0xbce5e352	-0.028062496
219	0x3bfacdee	0.0076539433
220	0x3c244eb9	0.010028535
221	0xbca4d86b	-0.020122727
222	0x3d042b8c	0.032268092
223	0xbd94b88b	-0.07261761
224	0x3cc3104e	0.023811486
225	0xbc66ae9f	-0.014079719
226	0xbd681ed8	-0.05667004
227	0xbd86c00f	-0.06579601
228	0xbb172da4	-0.0023067975
229	0xbd6ff72b	-0.058585327
230	0xbda370e2	-0.07980515
231	0xbdac6ecb	-0.084195696
232	0xbd7ea2b7	-0.062166896
233	0xba85f248	-0.00102193
234	0xbd7ffc0c	-0.06249623
235	0xbd4e0617	-0.050298776
236	0xbdc5efc9	-0.09664876
237	0xbd966da3	-0.0734513
238	0xbd4a1d21	-0.049344186
239	0xbd79b558	-0.06096396
240	0x3b7c93dc	0.003854028
241	0x3bfaffbf	0.007659882
242	0xbcd1382c	-0.02553948
243	0xbc5b5873	-0.013387787
244	0x3c0fac1a	0.00876906
245	0xbd8d632c	-0.06903681
246	0xbd1aa046	-0.037750505
247	0xbd512c4b	-0.05106763
248	0x3a138742	0.000562776
249	0x3d1791de	0.037004344
250	0x3e039dfa	0.12853232
251	0x3db14fa7	0.086577706
252	0xbda1eab6	-0.07906096
253	0xbedee3c6	-0.43533152
254	0x3cf0d5e3	0.029398864
255	0xbe069c9b	-0.13145678

bias f4 [20]
0	0xbd6a6525	-0.057225365
1	0xbd4bf40d	-0.04979329
2	0x3ef3de13	0.47630367
3	0xbe4d2be2	-0.20036271
4	0x3ebd5de3	0.36985692
5	0xbdd08c96	-0.10183065
6	0x3dcf8b58	0.101339996
7	0xbc5b75e5	-0.013394807
8	0xbe8dd1ce	-0.2769913
9	0x3eda96c9	0.42693165
10	0x3e382858	0.1798414
11	0xbe1fb6ca	-0.15597072
12	0x3e8c3cdc	0.27390182
13	0xbdb97c15	-0.0905687
14	0xbe883bc7	-0.26608106
15	0xbe2f0693	-0.17092352
16	0xbde4c8e2	-0.11171128
17	0x3d89c8b4	0.06727734
18	0xbcc9bbe0	-0.024625719
19	0xbca16a1e	-0.01970392

weight f4 [50, 500]
0	0x3d8f6c41	0.0700307
1	0x3d6770d6	0.056504093
2	0x3dbe4c14	0.092918545
3	0x3d17159f	0.036885854
4	0x3d8b56a8	0.06803638
5	0x3d0152f5	0.031573255
6	0x3d070de2	0.032972224
7	0x3d0ed41d	0.034870256
8	0x3d72d2be	0.05928301
9	0x3db7935a	0.08963652
10	0x3d7ff7e4	0.062492266
11	0x3db03aad	0.086049415
12	0x3d7d0243	0.061769735
13	0x3ddaa7e3	0.10676553
14	0x3dd0b5e8	0.10190946
15	0x3dd153ef	0.10221087
16	0x3d0c673a	0.034278132
17	0x3d4c5e89	0.049894843
18	0x3db0ff38	0.08642429
19	0x3d8ae13f	0.067812435
20	0x3d2e8b80	0.042613506
21	0x3da01076	0.0781564
22	0x3da42ee0	0.08016753
23	0x3d98362b	0.07432207
24	0x3d9dab03	0.076986335
25	0xbd61be76	-0.05511328
26	0x3d9dfdc2	0.07714416
27	0x3e66ca03	0.22537999
28	0x3dff766c	0.12473759
29	0x3e073635	0.13204272
30	0xbe273d59	-0.16331996
31	0x3e393c78	0.18089473
32	0x3e476d30	0.19475245
33	0x3dd3d07b	0.10342499
34	0xbdd607dd	-0.104507186
35	0xbe090ebb	-0.13384525
36	0x3dff75b0	0.12473619
37	0x3e82cd1d	0.25547114
38	0x3db14ee0	0.08657622
39	0x3dd1e81c	0.102493495
40	0xbbc4edbf	-0.006009787
41	0x3e36c4ff	0.17848586
42	0xbdb5696a	-0.08857997
43	0x3df5c1a0	0.11999822
44	0x3e4f83f2	0.20265177
45	0xbe2de241	-0.1698084
46	0xbbd2a61c	-0.006428493
47	0x3deede96	0.11663549
48	0x3d616255	0.055025417
49	0x3e56f2b0	0.20991015
50	0x3d262fc0	0.04057288
51	0xbc3f3a58	-0.011671625
52	0xbded4a52	-0.11586441
53	0x3e094bd5	0.13407834
54	0x3e89605d	0.26831332
55	0x3dbcd4c0	0.09220266
56	0xbcec09f0	-0.028813332
57	0xbe9fde90	-0.3122449
58	0xbe23a62b	-0.15981357
59	0xbcd0ab6a	-0.025472362
60	0xbd19f8fe	-0.037590973
61	0xbeb65606	-0.35612506
62	0xbed68f02	-0.4190598
63	0xbddf4216	-0.10901277
64	0xbe0748f5	-0.13211425
65	0xbeb9020c	-0.36134374
66	0xbefe9a64	-0.49727166
67	0xbec45f34	-0.38353884
68	0xbe3188f0	-0.17337394
69	0xbe450bd3	-0.19242792
70	0x3e2a9813	0.16659574
71	0x3cb5eb89	0.022207038
72	0x3da5c8e7	0.0809496
73	0x3e945910	0.289742
74	0x3ea7a363	0.32741842
75	0xbed9aed8	-0.42516208
76	0xbea8ffd6	-0.33007687
77	0xbdb7b1ef	-0.08969485
78	0xbe39f6ba	-0.18160525
79	0xbea9a567	-0.33134004
80	0x3dd44935	0.10365526
81	0xbde79302	-0.113073364
82	0xba9a58ff	-0.001177579
83	0xbca23137	-0.019798858
84	0xbe13d652	-0.14437225
85	0x3ede6785	0.43438354
86	0x3d865b08	0.065603316
87	0x3e09f6e2	0.13473085
88	0x3e597d01	0.21239091
89	0x3d686d09	0.05674461
90	0x3c8439fb	0.016140928
91	0x3de1383f	0.10997056
92	0x3ea18c4b	0.31552348
93	0x3e09b6b4	0.13448602
94	0xbe1720b9	-0.14758576
95	0x3e1421e8	0.14466059
96	0x3d39ba8e	0.045343928
97	0xbdaf23bb	-0.08551737
98	0xbc0060c4	-0.007835571
99	0x3e13d21f	0.14435624
100	0x3e961faa	0.29321033
101	0xbd18e0a7	-0.03732362
102	0xbe4a956d	-0.19783564
103	0xbd987d53	-0.07445779
104	0x3e7ca9d8	0.24674165
105	0x3c3de249	0.011589595
106	0xbec36090	-0.3815961
107	0xbed61f8b	-0.4182094
108	0xbee256ae	-0.44206756
109	0xbe57ab75	-0.210615
110	0xbeaef7c2	-0.341734
111	0xbebaf3de	-0.3651418
112	0xbebf77e0	-0.37396145
113	0xbe8f8e1b	-0.28038105
114	0xbe7d4581	-0.24733545
115	0xbe9fee33	-0.3123642
116	0xbebe3d1d	-0.37156
117	0xbe9da071	-0.3078647
118	0xbe9e703f	-0.30945012
119	0xbedf69c9	-0.43635395
120	0x3f165a88	0.5873189
121	0x3d443839	0.04790518
122	0xbd8dd33b	-0.06925055
123	0xbdcc9236	-0.09988825
124	0x3e206a5e	0.15665576
125	0x3d0ccdef	0.03437608
126	0x3d31a4f7	0.043370213
127	0x3dab9b5f	0.08379244
128	0x3db57c3d	0.08861587
129	0x3b832b24	0.0040029455
130	0x3cad9548	0.021189347
131	0x3d9c7e7d	0.07641313
132	0x3dce5ea2	0.100766435
133	0x3d68c3af	0.056827243
134	0x3db25757	0.08708065
135	0x3c715994	0.01473083
136	0x3d26db3e	0.04073643
137	0x3d9ee185	0.07757858
138	0x3b3f09e0	0.0029150173
139	0x3d79b41d	0.060962785
140	0x3d436fe7	0.04771414
141	0x3ce91892	0.028454099
142	0x3d8f6507	0.07001691
143	0x3d0533df	0.03252017
144	0x3c467317	0.0121124005
145	0x3d9cf3d1	0.07663692
146	0x3d10de61	0.035368327
147	0x3d6ab7d1	0.057304207
148	0x3d8cff73	0.068846606
149	0x3cd9dc98	0.026594445
150	0xbe1625fa	-0.14662924
151	0xbe482ef1	-0.19549157
152	0xbe107bb7	-0.14109693
153	0xbe22eb6e	-0.15910122
154	0xbbda8d87	-0.0066697034
155	0x3d15d281	0.036577705
156	0xbd6a9b6d	-0.05727713
157	0x3d97d744	0.074141055
158	0x3da6c297	0.08142584
159	0x3d8dc03a	0.0692143
160	0x3d716753	0.05893643
161	0xbe04d895	-0.12973244
162	0x3e777f83	0.24169736
163	0x3de95098	0.11392325
164	0x3bb9de71	0.005672269
165	0x3e950e90	0.29112673
166	0x3cd38174	0.025818564
167	0x3e31da84	0.17368513
168	0x3e87b196	0.26502675
169	0xbd650bd1	-0.055919472
170	0x3e46a7f9	0.19400014
171	0xbbe1707b	-0.006879864
172	0xbdce061a	-0.100597575
173	0xbe12a5f0	-0.14321113
174	0xbed3c434	-0.4136063
175	0x3e6641a0	0.22485971
176	0x3e8b6141	0.27222636
177	0x3da3ce1b	0.07998296
178	0x3eb4e891	0.35333684
179	0x3eb89222	0.3604899
180	0x3a33bfcb	0.00068568875
181	0x39791891	0.00023755642
182	0xbe8f7154	-0.2801615
183	0xbcd2a2d3	-0.025712406
184	0xbe01f1e9	-0.12689938
185	0xbed1a7fa	-0.40948468
186	0xbf1581af	-0.58401006
187	0xbee3c2dc	-0.44484603
188	0xbef575eb	-0.47941527
189	0xbe9633ad	-0.293363
190	0xbdaed02d	-0.085358
191	0xbe3957cf	-0.18099903
192	0xbe20e68e	-0.1571295
193	0xbebad008	-0.3648684
194	0xbc1e0dae	-0.009646816
195	0xbdc5b5fb	-0.09653851
196	0x3c0dc0bd	0.008651909
197	0x3ea63492	0.32461983
198	0x3e7a1b87	0.24424563
199	0x3dab2e52	0.08358444
200	0x3e62b2be	0.22138497
201	0x3e6d0ba1	0.23148967
202	0x3e351843	0.17685036
203	0x3d7ae706	0.061255477
204	0x3d4cfb4f	0.050044354
205	0xbe450d93	-0.1924346
206	0x3e2764ee	0.16347095
207	0x3e95015f	0.2910261
208	0x3dd49fe8	0.10382062
209	0xbd9ee68e	-0.077588186
210	0xbe86adc9	-0.26304463
211	0x3e1ad4cc	0.15120238
212	0x3e934e8d	0.28770867
213	0x3dadb2d6	0.08481376
214	0xbe446e7f	-0.19182776
215	0x3dac37bd	0.08409069
216	0x3dd0aa52	0.10188736
217	0x3da7e288	0.08197504
218	0x3b9aa57e	0.0047194352
219	0xbdee967d	-0.11649797
220	0xbc83c7df	-0.016086517
221	0xbd305381	-0.043048386
222	0x3d2a1b78	0.041530102
223	0x3d2a16bd	0.04152559
224	0x3d73ee3f	0.05955338
225	0x3d3a6798	0.04550895
226	0xbc6f652e	-0.014611525
227	0xbe054584	-0.130148
228	0xbe24bd58	-0.16087854
229	0x3e046d7b	0.12932388
230	0x3cb5a067	0.022171212
231	0xbd7c8887	-0.06165364
232	0xbee1498b	-0.4400142
233	0xbe9c4748	-0.30523133
234	0xbddf2274	-0.10895243
235	0xbe7a470b	-0.24441163
236	0xbe9dc15a	-0.30811578
237	0xbea78cae	-0.32724518
238	0xbe1a3536	-0.15059361
239	0xbdef8762	-0.11695744
240	0xbefacdb7	-0.48985073
241	0x3d5fd245	0.054643888
242	0xbddc37c1	-0.10752822
243	0x3e013106	0.12616357
244	0x3e8e2b5a	0.2776745
245	0xbe5a11d0	-0.21295857
246	0x3e325894	0.17416602
247	0x3e0b5dfa	0.13610068
248	0x3e093503	0.13399129
249	0x3ea3182b	0.31854376
250	0x3e1e0b0b	0.154339
251	0xbb261083	-0.0025339432
252	0xbc3ca32b	-0.011513512
253	0xbe3bc3bf	-0.1833639
254	0xbd4b56d4	-0.049643353
255	0x3a8b2a46	0.0010617457

bias f4 [50]
0	0xbf02cd3f	-0.5109443
1	0x3e9c4ff0	0.30529737
2	0x3e7f8eb4	0.2495678
3	0x3ee30ae4	0.44344246
4	0xbf856375	-1.0420977
5	0xbf31e3bf	-0.6948814
6	0xbe65419b	-0.22388308
7	0xbe901bca	-0.281462
8	0xbf31c6ad	-0.6944378
9	0x3ff07f68	1.8788881
10	0x3e1881a5	0.14893205
11	0x3fa39791	1.2780629
12	0x3cc24a4f	0.023717074
13	0xbb175804	-0.0023093233
14	0x3f984473	1.1895889
15	0x3d310f17	0.04322728
16	0xbf1a154d	-0.6018875
17	0xbec5e8bb	-0.38654122
18	0xbf1c9461	-0.6116391
19	0xbf1f980e	-0.6234139
20	0x3e8b3d61	0.27195266
21	0xbf2d5774	-0.6771157
22	0x3f061c37	0.523868
23	0xbe1bc185	-0.1521054
24	0x3c36f8db	0.01116773
25	0x3f067384	0.5252001
26	0xbf4ae4c2	-0.79255307
27	0x3fc69c56	1.551646
28	0xbf8811ef	-1.0630473
29	0xbf83ad8b	-1.0287336
30	0xbf269926	-0.65077436
31	0x3e912d61	0.28354934
32	0x3e76fb5e	0.24119326
33	0x3fb52617	1.4152249
34	0xbedd5d9b	-0.43235478
35	0x3f0c9435	0.54913646
36	0xbf73f126	-0.9528984
37	0xbed850d9	-0.42249182
38	0x3f3b3b96	0.73137796
39	0xbf6ff80d	-0.9373787
40	0xbdfabf5f	-0.122435324
41	0x3ec9b3f3	0.39395103
42	0xbf2f3eeb	-0.6845538
43	0x3e42cb23	0.19022803
44	0x3f632877	0.8873362
45	0x3e056bf4	0.13029462
46	0xbe2ec582	-0.17067531
47	0xbf846d13	-1.0345787
48	0x3e34be81	0.17650796
49	0x3f49de69	0.78854996

weight f4 [10, 50]
0	0xbc682d62	-0.014170976
1	0x3e5ced1d	0.21574827
2	0x3e2add49	0.16685976
3	0x3e7b6553	0.24550371
4	0x3e04fc69	0.12986912
5	0x3eb26735	0.34844366
6	0x3db2ce32	0.08730735
7	0x3e5642e3	0.20923953
8	0xbe10a0d9	-0.14123859
9	0x3e09edb2	0.1346958
10	0xbe9b5522	-0.3033839
11	0x3d0e58d2	0.034752674
12	0x3e5346f1	0.20632531
13	0xbe0563ac	-0.13026303
14	0xbdd0866a	-0.101818874
15	0x3ee06fe4	0.43835366
16	0x3e98db00	0.29854584
17	0x3e01c97f	0.12674521
18	0xbee94d1e	-0.45566648
19	0x3e761849	0.24032702
20	0xbeac4da3	-0.33652982
21	0x3e5eb81e	0.21749923
22	0xbe9796b1	-0.29607156
23	0xbf0db5da	-0.5535561
24	0xbe054e6f	-0.13018201
25	0x3ea557a7	0.32293436
26	0xbf249ad1	-0.6429873
27	0xbef13a8a	-0.47114974
28	0xbe3ddd5d	-0.18541475
29	0x3e17dd9a	0.14830628
30	0x3d99b477	0.07505124
31	0x3e4c2ccf	0.19938968
32	0xbe18580a	-0.14877334
33	0xbde82482	-0.11335088
34	0xbd05e9de	-0.032693736
35	0x3e066081	0.13122751
36	0x3df5f471	0.12009514
37	0xbb7ce5a9	-0.0038589037
38	0xbef81932	-0.48456722
39	0xbd721666	-0.059103392
40	0xbee3d21b	-0.44496235
41	0xbe38d168	-0.18048632
42	0x3e4ab926	0.19797191
43	0xbe5dc604	-0.21657568
44	0x3e1ecf96	0.15508875
45	0xbe90bf42	-0.28270918
46	0xbee4a9b5	-0.44660726
47	0x3c50cf77	0.012744776
48	0x3e022e50	0.1271298
49	0xbeb0fee4	-0.34569466
50	0x3ee0c355	0.43899027
51	0xbf0aa023	-0.541506
52	0xbf137195	-0.5759519
53	0xbee89d79	-0.45432642
54	0x3e43ceb9	0.19121827
55	0xbe6b6d72	-0.22990969
56	0xbf27bbdd	-0.6552103
57	0xbeb94039	-0.3618181
58	0xbeffd657	-0.49968216
59	0xbf031230	-0.51199627
60	0xbef27ac2	-0.47359282
61	0x3c9b5118	0.018959567
62	0xbf11d83f	-0.5697059
63	0x3e896f7f	0.26842877
64	0xbf0ebffc	-0.55761695
65	0xbea89719	-0.32927778
66	0xbe3b39ca	-0.18283764
67	0xbf19c0a8	-0.60059595
68	0xbe00798f	-0.12546371
69	0xbd7523a2	-0.059848435
70	0xbda3a8c9	-0.079911776
71	0x3e3ff2fb	0.18745033
72	0xbea45e99	-0.32103422
73	0xbdedf44a	-0.1161886
74	0xbe9e95e9	-0.30973747
75	0xbeaedce8	-0.34152913
76	0xbe677407	-0.22602855
77	0x3e156640	0.14589787
78	0x3e3cba89	0.18430533
79	0xbec04b4b	-0.37557444
80	0xbf00ecb7	-0.503612
81	0xbf05476e	-0.5206212
82	0x3e8475ba	0.25871068
83	0xbe2d5927	-0.1692854
84	0xbeb34c6b	-0.3501924
85	0xbf0b91b1	-0.5451918
86	0xbdaf01ce	-0.08545266
87	0xbe9f3f96	-0.311032
88	0xbe62701a	-0.22113076
89	0x3e998d0c	0.29990423
90	0xbef53c2e	-0.47897476
91	0x3e551e77	0.20812403
92	0x3e9878d0	0.29779673
93	0x3e7c74c7	0.24653922
94	0xbe12431f	-0.14283417
95	0x3e8e7ab0	0.27827978
96	0x3e3f1576	0.1866053
97	0x3e992eee	0.29918617
98	0x3e20431e	0.15650603
99	0x3e38e73b	0.18056957
100	0xbece901f	-0.4034433
101	0x3e789814	0.24276763
102	0x3e322e81	0.17400552
103	0x3e1b6559	0.1517538
104	0x3ddccdef	0.10781466
105	0xbdbc5bf5	-0.09197227
106	0x3e66e533	0.2254837
107	0xbe749427	-0.2388464
108	0x3e05d7cf	0.13070606
109	0x3e3edab3	0.18638115
110	0xbebfdcc5	-0.3747312
111	0xbe9fabfa	-0.31185895
112	0x3df9fc2c	0.12206301
113	0xbed2361d	-0.4105691
114	0x3dfc67b9	0.12324471
115	0xbde9d1f4	-0.114169985
116	0xbe98557d	-0.29752722
117	0x3e211e89	0.15734304
118	0xbd540d43	-0.05177046
119	0xbeb14518	-0.34623027
120	0x3e0efbc9	0.13963236
121	0xbeb4b5d8	-0.35294986
122	0x3e381b25	0.17979105
123	0xbf433cfe	-0.7626494
124	0xbf035bc9	-0.5131193
125	0x3ec0dcac	0.3766836
126	0xbeac9a44	-0.33711445
127	0xbedca88c	-0.4309734
128	0xbdb099a0	-0.08623052
129	0xbea2f0fd	-0.31824484
130	0xbe407d92	-0.18797901
131	0x3e49b36b	0.19697349
132	0xbf1eac7c	-0.6198194
133	0xbee2e618	-0.44316173
134	0x3defc6b7	0.11707824
135	0x3e5bcef1	0.2146566
136	0x3e23ab0c	0.15983218
137	0xbed4750e	-0.41495556
138	0xbe9e5cb2	-0.30930096
139	0xbeca78fe	-0.39545435
140	0xbd5cb819	-0.053886507
141	0xbf2c9e7c	-0.6742933
142	0xbed36a90	-0.41292238
143	0xbe216bf7	-0.15763842
144	0xbf141c15	-0.5785535
145	0xbf2232f4	-0.63359
146	0xbeb1134b	-0.34585032
147	0xbefea9e7	-0.49739
148	0xbef18df0	-0.47178602
149	0xbf038b1c	-0.5138414
150	0xbeec228b	-0.46120104
151	0xbf3a03a6	-0.7266182
152	0xbdf394ab	-0.118935905
153	0xbe4534aa	-0.19258371
154	0xbdb3d8ac	-0.08781561
155	0xbe91e2a8	-0.28493237
156	0x3db713e0	0.08939338
157	0xbed056dd	-0.4069127
158	0x3de5ad8b	0.11214741
159	0xbe217e73	-0.15770893
160	0x3d87fab9	0.066396184
161	0xbeab8550	-0.33500147
162	0xbe2bd827	-0.16781674
163	0xbe887c3f	-0.26657292
164	0x3e1eae85	0.15496261
165	0xbf55d820	-0.83532906
166	0xbeaff286	-0.34364718
167	0xbe08032e	-0.13282463
168	0x3e6320e1	0.22180511
169	0xbeb8612e	-0.36011642
170	0x3e95f12d	0.29285565
171	0x3e3f564c	0.18685263
172	0x3e630cd5	0.22172864
173	0x3d621a10	0.055200636
174	0x3da868c9	0.08223111
175	0xbefd6608	-0.49491906
176	0x3e49855f	0.19679783
177	0x3e2255d5	0.15853055
178	0xbdb1ab89	-0.08675296
179	0xbd52a0a3	-0.051422726
180	0xbea9dd0c	-0.33176458
181	0xbedfcb9f	-0.43710038
182	0x3dcba478	0.09943479
183	0x3dbccae1	0.092183836
184	0x3eba573d	0.36394683
185	0x3ca7daf8	0.020490155
186	0x3d6ff588	0.058583766
187	0xbef3ce24	-0.4761821
188	0x3e9b2696	0.30302876
189	0xbf1c9340	-0.61162186
190	0xbd019725	-0.031638283
191	0xbf10eec7	-0.56614345
192	0xbe0c09f6	-0.13675675
193	0xbef07440	-0.46963692
194	0x3e087370	0.13325286
195	0xbe941a7f	-0.28926465
196	0x3e637c16	0.22215304
197	0xbe97a873	-0.29620704
198	0xbf32c57d	-0.69832593
199	0x3e4f5c01	0.2024994
200	0xbe9d0a6b	-0.3067201
201	0xbd220e7d	-0.0395646
202	0x3dbc2d08	0.091882765
203	0x3e81713d	0.25281706
204	0xbf007376	-0.5017618
205	0xbe9f8604	-0.31156933
206	0x3d8ea471	0.069649585
207	0xbf1bec14	-0.609071
208	0xbef71de6	-0.48264998
209	0x3e9b2f8c	0.30309713
210	0xbe5f6f3a	-0.21819773
211	0xbebaad6e	-0.3646044
212	0x3dfe7aa9	0.12425739
213	0xbf3ab005	-0.72924834
214	0x3dd026fc	0.10163686
215	0x3e6e4331	0.23267819
216	0xbf037d07	-0.5136265
217	0xbea53f1d	-0.32274714
218	0xbeb20afe	-0.3477401
219	0xbeef460e	-0.46733135
220	0xbd92ae35	-0.071621336
221	0x3e35c604	0.17751318
222	0x3d94fa57	0.07274311
223	0xbe80598d	-0.25068322
224	0xbea8dc79	-0.32980707
225	0x3ea3153f	0.31852147
226	0xbecf89e0	-0.40534878
227	0x3e5108b3	0.20413475
228	0xbe5f6b2d	-0.21818228
229	0xbe2a803c	-0.1665048
230	0xbf104f56	-0.5637106
231	0x3e042865	0.12906034
232	0x3e079039	0.1323861
233	0xbe3ae953	-0.18253069
234	0xbf030165	-0.51174
235	0x3e193faf	0.149657
236	0xbef9e7f5	-0.48809782
237	0x3de16adf	0.11006712
238	0x3db6a669	0.08918459
239	0xbede01e0	-0.43360806
240	0xbdec2574	-0.11530581
241	0xbf331ffd	-0.69970685
242	0xbe7f42d0	-0.2492783
243	0xbe704a38	-0.23465812
244	0x3dce7457	0.10080784
245	0xbf39d1f7	-0.72586006
246	0xbea8016a	-0.3281358
247	0xbe0c2629	-0.13686432
248	0xbebba248	-0.36647248
249	0x3db43ff6	0.08801262
250	0xbeeb9114	-0.46009123
251	0xbed0e595	-0.40800157
252	0x3e407f4c	0.1879856
253	0xbd972923	-0.07380893
254	0xbe65a1a3	-0.22424941
255	0xbecffe92	-0.4062391

bias f4 [10]
0	0xbff7034b	-1.929788
1	0xbf39abd4	-0.72527814
2	0x3f5e8fdb	0.86938256
3	0xbea317cb	-0.3185409
4	0x40078489	2.1174643
5	0xbf34d9f7	-0.7064509
6	0x3ffcb6da	1.9743302
7	0xbecba6af	-0.39775607
8	0xbf188269	-0.5957399
9	0xbf10d3f3	-0.5657341
