model2_CNN1/model2_CNN1_Scripted.pt (torch, 105124 bytes, 8 tensors)

weight f4 [10, 1, 5, 5]
00000000: c223 48be e721 a0be e5cd 43bd 74d4 80bd
00000010: 2720 c2bd 67d3 043c a96d 57be 7804 07bf
00000020: 0535 d6be b489 f7be 041d 623e 6774 71be
00000030: 9024 dcbe 6150 c7be 11b1 a2be d755 c13e
00000040: de59 333e 2fc5 163e 68ec 793e 7226 fb3e
00000050: abc7 8d3e 4921 043f 11f2 133f 8cdd 203f
00000060: 1764 de3e c9e9 293e f73f 4e3e 088c bf3e
00000070: bce4 033e ed00 9b3c 6431 8ebb 1fd7 c53e
00000080: 37bb c53e d2f1 68bc 339a 8dbe d681 7e3e
00000090: f08c 463e 844b 453e e3f2 3b3e 6edd c5be
000000a0: bb3e 8e3e 2188 e93d a0e5 963e 5fec d2bd
000000b0: d2a4 fbbe f5e3 363e 7b24 b53e 219e 33bd
000000c0: 178a 61bd b796 cebe f60d 223e 6f12 ef3d
000000d0: c2f3 c73c 211b ab3e 6425 123e e826 123e
000000e0: 9625 853c a85e 973d 3a75 553d 8427 6dbd
000000f0: 9230 8cbe 5029 ffbd da95 af3e 0716 a43e
00000100: 25b9 4e3e bf97 0abc 8706 5d3e 8bdf fa3e
00000110: 50e0 5b3e 7b4a 26be cc77 2f3e 45dc ac3e
00000120: a1dc aa3e 483b 5ebe 080b d8be 9572 a63e
00000130: 9039 cb3e 741d a53e 1bbb f53e 729e 0d3f
00000140: 6830 ad3d c76d 713d e145 023d 1079 85bd
00000150: 95f5 d1bd 27c2 85be 107f 4ebe 526a abbe
00000160: 9168 2cbf f4c4 ebbe 16c9 26bf 29f1 57bf
00000170: d16a 63bf ec16 92be a922 14be 3ba1 16bf
00000180: 86d2 3fbe a962 dc3d a40d 133e daeb 903d
00000190: 102e 003f 6898 e33e 9fb4 d23e da5b 5b3e
000001a0: c6f1 a93e a699 c03e 69f4 6f3e 62d7 a03e
000001b0: bde4 dd3e 1397 943e 6200 38be 7cf0 983d
000001c0: 1915 a6bd eb3e c5bd 107d 203e 8db6 d5be
000001d0: 4bd0 11bf 0aaf a7be 084e eebe 93c6 8ebe
000001e0: ee86 cfbe 051e d3be 21ec f0be 10d5 33be
000001f0: 0827 63be bedb 603e 01de 3cbd d30e a5be
00000200: 196d dfbe eb5e d8bd 2c7b 6f3c 5fd6 2c3e
00000210: 3bc3 17be 86c8 0abf a5f8 14be 4800 023d
00000220: a8ac 293e f6a1 fcbb 751c 22bc 1b46 de3d
00000230: 39fe 113e d938 d43e 054d 713e 8998 073f
00000240: 8b11 353e 8da2 15be a12c 713d 4255 7a3e
00000250: 4a41 853e 862c 833d 88da 783e f45c 433d
00000260: 9ef3 2d3e 3dc3 aa3c 1d60 363e 98a4 4abd
00000270: 9b04 33be eb69 e5be 08e9 1ebf 6ce5 d2be
00000280: a01e 883e 5962 573e d80c 39be 92e1 52bf
00000290: 5690 d7be 8499 3a3e d547 083f c4e6 2a3e
000002a0: a30a 8bbe fca9 e6be 0d42 ffbd dba2 2c3f
000002b0: d050 453f cc28 cf3e 57b1 ee3d 593f b63e
000002c0: 1686 a03e 222c 23be b514 393e 12db b83d
000002d0: bd85 5c3d eb41 c03e da21 ab3b 62a3 b03d
000002e0: d079 9f3d 80e9 7c3e 29d2 373e 54ab 86be
000002f0: be0e 803d ad59 b4bd 685b 70bb 5ec8 983d
00000300: 7dcb 313d 7dfa 363e 599d 823e a089 f03d
00000310: c9eb b3bd 9c0e 15bd 1e8e a53e 9c2d 873e
00000320: 5925 cabd adc8 993c 1409 863e 255c 623e
00000330: 3ea3 8a3c 611f bc3e 70ed 323e ef80 fd3e
00000340: 8c7a e73e 5cc2 a53e 8e01 0b3e 2913 b1bd
00000350: 23eb 483e 48e4 9d3e ebda b53e 0fd6 06bf
00000360: cc04 efbe 0007 c1be 89fd 10bd d4ce d33e
00000370: b27d 1cbf 72d9 1ebf 9f60 2abf e2c0 18bf
00000380: 6c34 84be 66ba d7be 63b0 48bf dcc7 0bbf
00000390: 8114 c4be aee5 123e e08b 60bf f398 ffbe
000003a0: 3d1b 22bf 6ad7 54be 9196 9e3e b191 07bf
000003b0: 5f2d 34be 78dd 89be d4ef 973e 503d a33e
000003c0: 082f c7be 33b2 5bbc cbfc ba3c 1d3f 1b3f
000003d0: d88a 343f 89b9 3a3d 2f3a 9a3b 74d9 bc3e
000003e0: f188 eb3e d589 263f
-0.1954489 -0.31275865 -0.04780378 -0.06290522 -0.09478789 0.008107043 -0.21037926 -0.52741194
-0.41837326 -0.48347247 0.22081381 -0.2357956 -0.42996645 -0.38928512 -0.31775716 0.37760803
0.1751475 0.14723657 0.24406588 0.4905277 0.27691397 0.5161329 0.5779124 0.62838054
0.43435737 0.16593088 0.20141588 0.37411523 0.12880224 0.01892134 -0.004339384 0.38640687
0.38619396 -0.014217811 -0.27656707 0.24854216 0.19389701 0.19267088 0.18354373 -0.386455
0.27782235 0.11402918 0.29472065 -0.102989905 -0.49149185 0.17860396 0.35379395 -0.043851975
-0.055063333 -0.4034936 0.15825638 0.11673438 0.024408225 0.33419135 0.14272076 0.14272654
0.016253274 0.07391101 0.05211375 -0.057899013 -0.27380806 -0.124590516 0.34294015 0.32048056
0.20187815 -0.008459031 0.21584521 0.48998675 0.21472287 -0.1623935 0.17135543 0.33761802
0.33371451 -0.21702302 -0.42195916 0.32509294 0.39692354 0.32249033 0.47994313 0.55319893
0.084564984 0.058942582 0.031804923 -0.065172315 -0.10251919 -0.2612469 -0.20165658 -0.33479553
-0.67347056 -0.460487 -0.6515058 -0.84352356 -0.88834864 -0.28533113 -0.14466347 -0.5883977
-0.18732652 0.107610054 0.14360672 0.07076235 0.50070286 0.44452214 0.41153428 0.21421757
0.3319227 0.37617224 0.23433079 0.31414324 0.43338576 0.2902151 -0.17968896 0.07467744
-0.08109493 -0.09631141 0.15672708 -0.41740838 -0.56958455 -0.32750732 -0.46543908 -0.27885875
-0.4053263 -0.4123384 -0.47055152 -0.17561746 -0.22182858 0.21958825 -0.046110157 -0.32237872
-0.43637922 -0.10564979 0.014616769 0.16878651 -0.14820568 -0.54212224 -0.14547975 0.03173855
0.1656977 -0.007709737 -0.00989448 0.10853215 0.14257134 0.4144962 0.23564537 0.52967125
0.17682473 -0.1461279 0.058880452 0.24446586 0.26026374 0.064049765 0.24302113 0.04769607
0.16987464 0.02084505 0.17810102 -0.049473375 -0.17482226 -0.44807371 -0.6207433 -0.4119066
0.26585865 0.2103361 -0.18071306 -0.82375443 -0.42102307 0.18222624 0.53234607 0.16689593
-0.27156553 -0.45051563 -0.1246377 0.67436 0.77076435 0.40460813 0.11654919 0.35595205
0.313523 -0.15934804 0.18074305 0.09026159 0.05383848 0.3755029 0.0052225413 0.08624913
0.07786906 0.24698448 0.17951263 -0.26302588 0.06252812 -0.08806167 -0.0036675576 0.07460092
0.043406952 0.17868991 0.25510672 0.11745 -0.08785207 -0.036390886 0.3233499 0.26401985
-0.09870405 0.018772447 0.261788 0.22105463 0.016923543 0.3674269 0.17473388 0.4951243
0.45210683 0.32374847 0.13574812 -0.08646233 0.19620948 0.30838227 0.35518584 -0.5267038
-0.46683347 -0.37700653 -0.03539804 0.41368735 -0.61129296 -0.62050545 -0.6655368 -0.59669316
-0.25821245 -0.42134398 -0.78394145 -0.54601836 -0.38296893 0.14345428 -0.8771343 -0.49921378
-0.6332281 -0.20785299 0.30974248 -0.5295668 -0.17595433 -0.2692678 0.29675162 0.31882715
-0.3890307 -0.013409185 0.02282562 0.6064318 0.7052436 0.045587096 0.004706643 0.36884654
0.46002916 0.65054065

bias f4 [10]
00000000: 0f26 08bc ec9e 0a3e 0d8e 08be 9be6 c43e
00000010: b46f 1d3c dca1 0ebd d99d b5bd 57cb bdbd
00000020: 6f6f 033c 0dd9 363d
-0.008309855 0.13537186 -0.13335438 0.38457188 0.009609152 -0.03482233 -0.08867998 -0.092672996
0.008022173 0.04464059

weight f4 [20, 10, 5, 5]
00000000: 5e27 64be 32a4 2cbd 391f 1a3e 4d66 ca3d
00000010: 19ad 1b3e cf31 9abe 4743 34bd 2d3e 13bd
00000020: 5866 8fbe 0476 53be 2ab0 b1bd 6002 94be
00000030: 9999 01bf 3dd7 f7bd b377 2fbd 94a1 813d
00000040: 7fa3 f7be 75cd 9ebe c613 3a3d 223b edbc
00000050: 47c5 f0bd 08d1 c3be f0c5 b83c e980 7a3e
00000060: 0a3c debc 4ea7 ed3c d24e 06bd ebed b0bc
00000070: d0a2 f0bc 6be3 003d 4de7 c1bd 109e 64bd
00000080: 3e8e cd3d 0f51 083e 4801 553d e9c2 9ebe
00000090: a19b af3d c560 723e 5d7c b93d 856c b7bd
000000a0: 5919 44be ead8 093e 9abf 2f3e 0aa9 adbd
000000b0: 3cc5 10be 896e 3b3d e432 0a3e 5e33 b13d
000000c0: 08cf 11be add7 3cbd f161 8ebc 0927 dfbd
000000d0: 154b e03d a901 333e 8f1d 693d 5c41 91be
000000e0: ebe0 1dbc 7302 903e 6b12 843d 19df fcbd
000000f0: 3d40 a4be d954 b93d 4aee 073e 92ad 45bd
00000100: 04de cfbd 9bac a7bd e337 fa3d 5d13 993d
00000110: 2ef5 c9bd 62a8 503d 60df 97bc a58d 993b
00000120: ec21 91bc 8395 8fbd 54fc f0bd e295 1f3e
00000130: ac9f 8b3e 6dae 323d 9d9f 8abe 91c5 10be
00000140: d74a 443c 37ca c93d f740 d6be 1049 51be
00000150: 9aaa a73e b12a 6cbc 2068 8abe 52e2 1cbf
00000160: 5a91 e5bd ad7e 6abd c3b7 07bd d59d 40be
00000170: 3ba5 abbe e7d8 8bbe 9e0f aebd cdfd 8b3d
00000180: 7159 c33d 4055 6b3d 3d08 cf3d e069 683e
00000190: 3914 ef3d 117c 983c 3bdf b9bd 02c1 e5bd
000001a0: 7df2 413c 9ae8 c0bc a1ef 14be 6a1a b8be
000001b0: cfb3 253c 0acf 5c3e ce6c fbbd ffcf d7be
000001c0: 4b6d fcbe 8f2d 87bd 1633 18b9 feac 7ebe
000001d0: ac52 88be c13d 36be 7fab e7bd a6d3 c5bd
000001e0: 717d adbd 7fa7 b1bc 095c d0bc 394f dd3d
000001f0: 0ee4 4e3d f3fd 1ebe 3252 a9bc f107 d93d
00000200: b0b5 153e 0138 5e3d b784 5bbe dcdc f9ba
00000210: bdc1 063e afbc a3bd 4a3e 4dbd 2f0d 80be
00000220: 3e0e c3bd 3ba3 98bd 6718 9f3c c49b 37bc
00000230: f1ed bbbd a3f7 1fbe 9cd5 da3c 492c 1d3e
00000240: fcec 7abd fbaf 3ebd 4e5f 60be 3ec1 4e3c
00000250: 289f a33d 444e efbd eb5d 55be d8e7 98bd
00000260: cdcd 423d 16f9 3ebd 48fb 3abd e41a 35be
00000270: 0e16 50be 81b7 673b e15c 52bb 80cf b4bd
00000280: 194b 65be e695 7bbe 4bd4 bd3d 4c68 443e
00000290: a513 d43c 26aa 33be d5aa 21be a1c0 b73e
000002a0: f164 963e 42a7 ef3c 417b fabd 0b34 c0bb
000002b0: 0fc7 ba3e 6b8b 0b3e f660 253d aaf8 633c
000002c0: 7fbd 393c 0863 2c3d 8fda a7bc 6f1d 033d
000002d0: c74a b2bd 2cb8 7e3b f187 a43d 858d 1b3d
000002e0: b156 c73d 6ea6 50be a2f7 d0bd fbba a23d
000002f0: 5079 803d e14c f0bd 0d69 01be e74e 00bd
00000300: 3f89 1f3d 8b51 f23d 7095 f3bd a598 dcbc
00000310: 907a 51ba ecaa 143d a842 393b 6081 02be
00000320: 65ff e03d fc49 5e3d 951c b7bc aa55 c7bd
00000330: 2904 093e 52af 8a3d 3b10 c13b 68db aebe
00000340: c3b9 04be 30b3 8a3e 45e5 a2bd 55ec 7cbe
00000350: 3886 b8be 7554 02be cf57 5d3d 6017 47be
00000360: b8f8 cebd 366b 943d cdf5 6a3d eefd c73d
00000370: 7e43 15be efed 2a3d 5e64 503d f886 993d
00000380: daa7 0d3e a23a 26be 57ec 603d d089 353e
00000390: 598c a63d b863 163e 4b0f 71bd f4dc a13e
000003a0: eecf 453e 393f bb3d 2c3d f0bc 681e 1e3e
000003b0: a950 ab3e d844 f63c bf1f cfbe 10a2 aebd
000003c0: 2b39 6c3e 3241 993e e3df 1dbe 3fa9 d1be
000003d0: bfcd 1ebe 4fce 873e ab60 f73d dca8 b2be
000003e0: 9879 3abe 3245 49be d491 113e 869d 8d3e
000003f0: df03 323e 705c 433e 0051 84bd 8362 213d
-0.22280642 -0.042148776 0.15050973 0.098827936 0.1520275 -0.30116126 -0.044009473 -0.035947967
-0.2800777 -0.20650488 -0.08676179 -0.28908062 -0.50624996 -0.121016 -0.042838763 0.06329647
-0.48366925 -0.31016126 0.045429014 -0.02895886 -0.11756378 -0.38245416 0.022555321 0.24463238
-0.027128238 0.029010441 -0.032790013 -0.021597823 -0.02937451 0.031466883 -0.09467945 -0.055814803
0.10036896 0.13312171 0.052003175 -0.3100808 0.08574606 0.23669727 0.090569235 -0.08956245
-0.19150294 0.13461652 0.17162934 -0.08479507 -0.14137739 0.04575971 0.13495976 0.08652376
-0.14239132 -0.046104122 -0.017380686 -0.10896117 0.10951821 0.17481102 0.056912955 -0.28370178
-0.009636144 0.2812687 0.064488254 -0.1234724 -0.3208026 0.090493865 0.13274494 -0.048261233
-0.10149768 -0.08187219 0.12217691 0.074743964 -0.098612174 0.050941832 -0.01853913 0.004686075
-0.01771637 -0.07010939 -0.11766878 0.1558452 0.27270257 0.043623377 -0.270749 -0.14137866
0.011980734 0.098530225 -0.4184644 -0.20438027 0.32747346 -0.014414475 -0.27032566 -0.6128284
-0.11209364 -0.057249714 -0.033134233 -0.18810208 -0.33524498 -0.2731392 -0.084990725 0.06835518
0.09538544 0.057454348 0.10108993 0.22696638 0.11673779 0.018613847 -0.09075781 -0.11218454
0.011837599 -0.023548413 -0.14544536 -0.35957652 0.0101136705 0.21563354 -0.12276612 -0.42150876
-0.49302134 -0.066004865 -0.0001451488 -0.24870679 -0.26625574 -0.17796995 -0.11312007 -0.09659509
-0.08471192 -0.021686314 -0.02543451 0.10806126 0.05051046 -0.15526561 -0.020669077 0.10597218
0.1462009 0.05425263 -0.21437345 -0.0019063014 0.13159843 -0.07994973 -0.05010823 -0.25010058
-0.09524201 -0.07453009 0.019420816 -0.011206571 -0.09176243 -0.1562181 0.026713185 0.15348925
-0.061261162 -0.046554547 -0.21911356 0.012619315 0.07989341 -0.1168485 -0.20836608 -0.07466096
0.04755955 -0.046624266 -0.045649797 -0.17686039 -0.20320913 0.003535718 -0.0032098817 -0.0882864
-0.22391929 -0.245689 0.09269007 0.19180411 0.025888273 -0.17545375 -0.15787823 0.35889152
0.29373887 0.02925456 -0.1223054 -0.005865579 0.36479995 0.13627402 0.040375672 0.013914267
0.011336683 0.04208663 -0.020489959 0.032010492 -0.08705669 0.00388671 0.08033741 0.03797676
0.09733332 -0.20375988 -0.10203482 0.0794582 0.062731385 -0.117334135 -0.1263773 -0.031325247
0.038949247 0.11831959 -0.11893737 -0.026928255 -0.00079909805 0.036295816 0.002826849 -0.12744665
0.10986213 0.054269776 -0.022352496 -0.09733136 0.13380493 0.06771721 0.0058918274 -0.3415177
-0.12961487 0.27089834 -0.07953886 -0.24699529 -0.360399 -0.1272753 0.05403882 -0.1944251
-0.10106033 0.07247011 0.05736332 0.0976523 -0.14576527 0.041730817 0.050876968 0.07496446
0.13833562 -0.16233304 0.05491289 0.17728353 0.08132238 0.14686477 -0.058852475 0.31613886
0.193176 0.09142918 -0.029326044 0.15441287 0.33459976 0.030062124 -0.40453908 -0.08527005
0.23068683 0.29932553 -0.15417437 -0.40949437 -0.15508173 0.26524588 0.12078985 -0.34894454
-0.18210447 -0.19655302 0.14215785 0.27659243 0.17384289 0.19078231 -0.06460762 0.03940059

bias f4 [20]
00000000: 1f33 c73d 5303 2ebd 32a5 0fbe 4539 28bc
00000010: f63e bebd 3a80 983d 8a86 8ebc a658 523c
00000020: a68e 2a3d 27f7 1e3d 791e 25be dcda 903c
00000030: dd9c dfbb a131 203d 7793 e5bd b4f0 fbbd
00000040: 1559 89bd 4596 d3bd fcee 89bd 0960 853d
0.097265474 -0.04248364 -0.14027861 -0.01026756 -0.092893526 0.07446332 -0.017398138 0.012838518
0.041639946 0.03880992 -0.16124906 0.017682485 -0.0068241195 0.03910983 -0.11209767 -0.1230177
-0.06706444 -0.10331396 -0.06735036 0.06512458

weight f4 [50, 320]
00000000: a342 33bc 7fe6 56bd 93f2 68be 4dde b4be
00000010: 9cca f93d e6f3 3d3d 9812 163d f771 8ebd
00000020: f49f d2bc f5a2 61bd 9e2c 943d c010 c23d
00000030: a3b7 2b3d c74c 9d3d 6bd3 e03c 4004 d93c
00000040: 52b4 49be fe7b e6bd 15c4 1fbb b377 9abd
00000050: 6e8b ec3c 9abf 333e a870 fc3d 21db a53c
00000060: e805 2e3d 987d dfbd c636 893d fa08 043d
00000070: 4cc5 82bc 4e7e 3e3c 7c9e 22bd 0d76 45bb
00000080: ef2b b13d e31a 863d cbf6 913d 7a70 0e3e
00000090: db2a fb3c 9934 8c3c 0878 7cbc bd7f 133a
000000a0: 67d8 2f3d 4fe5 aebd 411f 34be a0c9 2fbe
000000b0: 6f8a dfbe 3fbf 7ebe 2a6a e9bd 0b34 21be
000000c0: fd7c 07bc e25a cf3c cd33 2e3d c2fb 003c
000000d0: 0004 e2bd 458f 45be 852a 823c 47f9 993d
000000e0: 743f 25be 8e77 38be 36f7 f0bd 8ac3 99bd
000000f0: 6a56 f9bd c62c e23c d46e 06bd 5656 25be
00000100: dbf9 dcbc 6fa7 b9bd b774 2cb9 16ec 4a3d
00000110: 100c 8ebd 05e9 cdbd c150 93bc 9a3f 0cbc
00000120: 6172 66bd e233 e9bc e4f7 063b 027e 98bd
00000130: 94d8 50bd a195 68bd 32ef 47bd 5397 e03c
00000140: b475 1a3e 6ace 9bbd 3d9b f9bd 8e13 ebbd
00000150: 9c01 babd 0be6 52be 5424 1abe 84e2 a6bc
00000160: c091 193e c9a5 173e 73df 6e3c 0f64 203e
00000170: c23c 9fbd a278 d7bd c9a0 fcbc 1da5 ce3d
00000180: f9b3 2cbd 9a90 1e3d 1148 6a3d ff0f cbbc
00000190: caae bf3d ac45 993d c8e4 983d fd1f dfbd
000001a0: e77d aa3d 4ac4 0abd fa25 0ebd 0037 4c3c
000001b0: ca67 7a3c 250c 883d ae8a 42bd d126 55bd
000001c0: f7cd ccbb 9e2b cc3d c838 81bd 2110 4ebe
000001d0: a3de 6fbc b409 7bbc 9ddf 9f3c 8491 893d
000001e0: 247e f63a 2b40 bbbd 5711 bb3d 71fd 343e
000001f0: 88ff c3bc 1624 f2bd dac7 ddbd 327d c5bc
00000200: 3f03 833d 825b 7d3d 0152 f13d 3378 19bd
00000210: 1d7d 78bc 48f8 cabb 89b0 0ebc 53ee 5e3c
00000220: 9977 d7bd 1f62 40be 318e 963d 1edc 17bc
00000230: b22f 5cbe 6708 9bbd c31d f3bb 5d8d aabd
00000240: e9e7 fabd 169c 26be 3143 e23a d5be 563c
00000250: 8cf5 8c3c 2430 09bd 1f45 95bd 9031 703c
00000260: 9915 b33c dea0 9b3b 31e6 30bd 4a6d a039
00000270: 3b2b 56be 9841 2abc 3a4d d33d 3285 f43d
00000280: 881f 313e 103d 1c3e aea9 ab3d edd4 ea3c
00000290: be78 b83c 4663 24bd f386 9d3d 1873 1f3e
000002a0: de9a a4bd cd50 e2bb fca5 18be 2a32 0ebe
000002b0: e625 74be 0ef7 45be 51f1 cbbe 536a 8fbe
000002c0: 5042 13b9 512d f83a ffd4 fe3d ffe3 b6bc
000002d0: 8bd8 a83c 5300 fb3c a79f bb3d da9b 5cbd
000002e0: 753c 1e3d f5a3 cbbb b84a c8bd bd77 d0bc
000002f0: f891 5ebd b3bb 313b c5c1 8fbd cc80 7abd
00000300: 5fc2 123e e1eb d93d ac25 0a3e 0c17 b0bb
00000310: 67de ba3c c14e 383d bb1b 0b3d 9936 bfbd
00000320: 6ebc 673c 488f 80bd 8c89 bc3c 15bf 9ebd
00000330: cd27 91be d660 83be 9282 a6bd fe78 debd
00000340: e859 0dbe 17ca b4bd 43cc 48bc 95f9 9b3d
00000350: 766e 0fbc 7387 103d 18ee 323e 16b0 a4bd
00000360: fe15 9a3b 544e a4b9 fd0a 12bd aa32 24bd
00000370: 9751 f53d e746 cd3c 372c b7bc bea5 b2bc
00000380: e7a4 a23d 01b3 fa3d 61c1 143e b454 94b9
00000390: 57d4 2f3d c1ec 223d 21f5 bb3c 5e51 d03c
000003a0: ff08 84bd 4dc0 723d 31c9 ca3c e6be f4ba
000003b0: e793 e8bd 2602 83bd 58e8 80be a43e e8be
000003c0: f029 503d aba5 d53d 7873 233e 353b c43c
000003d0: e77f c73c 6108 803d c108 203c ed11 cfbd
000003e0: e35e 30bd 2ad2 4abc 7aab 1f3c 6e55 a73c
000003f0: 00ae fcba 0f48 3bbd 14e5 7bbe 5ae0 abbe
-0.01094118 -0.052465912 -0.22748785 -0.35325852 0.12196848 0.046375178 0.036638826 -0.06955331
-0.025711037 -0.05508705 0.072350726 0.09475851 0.041923176 0.0768066 0.027444562 0.026491284
-0.19697693 -0.112541184 -0.0024378349 -0.07542362 0.028875079 0.17553559 0.12326175 0.02024609
0.0424861 -0.10912627 0.066999 0.032235123 -0.01596322 0.011626793 -0.039701924 -0.0030130178
0.08650958 0.06548097 0.0712715 0.13910094 0.030660084 0.017114924 -0.015409477 0.00056266395
0.042930987 -0.08539831 -0.17590047 -0.17166758 -0.43660304 -0.24877642 -0.11397202 -0.15742509
-0.008269546 0.025311891 0.04252987 0.007872524 -0.11035919 -0.19292934 0.015889416 0.07518249
-0.16137487 -0.18014356 -0.11765902 -0.07507999 -0.12174685 0.02760924 -0.032820538 -0.16146216
-0.02697461 -0.090651385 -0.00016446678 0.049541555 -0.069358945 -0.100542106 -0.017982842 -0.008560086
-0.056261424 -0.028467122 0.0020594532 -0.07445909 -0.050987795 -0.056783322 -0.0488121 0.027415907
0.15083963 -0.0760773 -0.121878125 -0.11478339 -0.09082338 -0.20595567 -0.1505292 -0.020371683
0.14997005 0.14809336 0.014579642 0.1566317 -0.077752605 -0.10521056 -0.030838387 0.100900866
-0.042163823 0.03871212 0.057197634 -0.024787901 0.0935951 0.07483992 0.074655116 -0.10894773
0.08324795 -0.033878602 -0.034704186 0.012464285 0.015283534 0.066429414 -0.047495537 -0.05203897
-0.006250139 0.09969257 -0.06309658 -0.2012334 -0.014640483 -0.015322138 0.019515807 0.06717208
0.0018805903 -0.091430984 0.09134167 0.17674805 -0.023925558 -0.11823289 -0.10829134 -0.02410755
0.063971035 0.061854847 0.11783219 -0.037468147 -0.015166548 -0.006194148 -0.008709081 0.013606626
-0.10520858 -0.1878743 0.073513396 -0.009268789 -0.2150257 -0.07569962 -0.0074193194 -0.08327744
-0.122512646 -0.1627048 0.0017262456 0.013107021 0.01720693 -0.033493176 -0.072885744 0.014660254
0.021860885 0.0047494015 -0.043188278 0.00030599005 -0.20914929 -0.010391615 0.10317464 0.119394675
0.17297184 0.15257668 0.08381973 0.028665984 0.022518512 -0.040133737 0.07691755 0.15571249
-0.08037351 -0.006906605 -0.14907068 -0.13886324 -0.23842582 -0.19332525 -0.39832547 -0.28010806
-0.00014043716 0.0018934404 0.124429695 -0.022325514 0.020611068 0.030639803 0.09161311 -0.05385957
0.038631875 -0.0062146136 -0.097798765 -0.02544772 -0.054338425 0.0027119934 -0.070193805 -0.061157987
0.14331959 0.106406935 0.13490933 -0.005373841 0.022811128 0.04499698 0.033961993 -0.093365856
0.014144046 -0.06277329 0.023014806 -0.0775129 -0.28350678 -0.25659817 -0.08130373 -0.10862921
-0.13803828 -0.08827608 -0.012255731 0.07615963 -0.008754363 0.035285424 0.17473638 -0.08041398
0.0047023287 -0.00031338877 -0.03565501 -0.04008738 0.11978453 0.025058223 -0.02235995 -0.021807548
0.07941609 0.122411735 0.14526893 -0.00028291869 0.042927112 0.039776567 0.022944035 0.025429424
-0.06447028 0.059265424 0.024754139 -0.0018672615 -0.11356335 -0.06396894 -0.25177264 -0.4536029
0.050821245 0.10431989 0.15962017 0.023954013 0.02435298 0.06251598 0.009767712 -0.10110841
-0.04305924 -0.012379209 0.009745473 0.020426478 -0.001927793 -0.045723017 -0.24599105 -0.33569604

bias f4 [50]
00000000: a65d 123c 6bc8 843e fb10 713e 35d3 6abd
00000010: 4a7b 20be daef b23e a0b8 863e 680b 443d
00000020: bb5e c5be f9cb 103d 0edb 47bc 3231 a9be
00000030: 25cd 663d 7433 77bd 8f1f a93e c75e d8bd
00000040: f182 153e a067 93bd 7d46 8b3e 78d7 203e
00000050: 3d40 063e c4d7 1a3d 57e3 0c3e c6e6 29bd
00000060: 4591 893c 97e5 d1bd 2ead 1abe 4e96 e83d
00000070: aa76 11be 65dc 0cbe 015a f03c b7e8 803e
00000080: b0d3 c4bd a9cd 24be 4237 43bd fae0 aa3d
00000090: 7e7d 8c3e fdb6 d0bd 68b9 a93d 78e4 01be
000000a0: baef ccbb e16f 99bd e15e 7ebe 7677 383e
000000b0: 3179 b43e 8c1b c4bd 444e b6bd 42bb aebe
000000c0: ef86 e7bd 1bcf 8abd
0.00893346 0.25934157 0.23541634 -0.05733033 -0.15672031 0.34948617 0.26312733 0.04786244
-0.38548836 0.035350773 -0.012198223 -0.33045346 0.056347985 -0.060351804 0.3303189 -0.10564952
0.14600731 -0.07197499 0.27202216 0.15707195 0.13110442 0.037803426 0.13758598 -0.04147985
0.016792903 -0.10248869 -0.15105125 0.11356793 -0.14205423 -0.13755949 0.029339792 0.25177547
-0.09610689 -0.16094078 -0.04766012 0.08343692 0.27439493 -0.10191152 0.082873166 -0.1268481
-0.0062541636 -0.07492042 -0.24840881 0.1801432 0.35248712 -0.09575567 -0.08901647 -0.3412724
-0.113050334 -0.067777835

weight f4 [10, 50]
00000000: 1198 fcbd 5ec6 00bf 9cc4 99bc dbd8 14be
00000010: 4f7e 85be fe97 a0bd efe5 b13d 3444 a3be
00000020: c30c c1be 4c4b 67be 4267 63be 54c1 6dbe
00000030: 9c9f e7bd 6576 043d 8f17 14be e3da 54be
00000040: 86b7 ddbc eab1 4e3e 5534 c2be c8ce b3bd
00000050: 48b1 6ebe 83da eabd 6b9e 413e fa96 c33d
00000060: 3382 443e 2528 bcbd 9037 273e ef18 87be
00000070: ce6a 753e be1c 353e 8da1 2fbe 2a95 a2be
00000080: 02ba bb3d 3393 c23d 4b92 2f3e bb1d b43d
00000090: ed40 11be d1a2 5fbe 20bf e2bc 483b 0ebd
000000a0: fab5 46be ef32 2c3e 1da7 1d3e 5951 f7be
000000b0: d248 c8be 555e 393e faa7 de3d 2b93 c93d
000000c0: e050 373d 08e7 dabe a884 cdbe 65f6 3d3e
000000d0: 55b2 de3d 21c9 2dbe 3905 843c c3ed 413e
000000e0: cbd6 f43d c15c e8bd b418 fdbd d687 98be
000000f0: 0508 b8be 59d8 5cbe 3d40 183e a6d5 a0be
00000100: 04aa 293e 43c5 2dbe b828 593e 081e b5be
00000110: c3a6 513e 0b84 4b3e eaf7 053e ba7d 4abe
00000120: bcc7 763d 8d72 b9be 9887 bd3d 79bb 4cbe
00000130: 46bb 84be bced 2a3e bed9 93be ddad dfbe
00000140: 93eb 6b3e cdc2 063e b951 dbbe a0f8 71be
00000150: 9614 e2be 4812 bf3d 4b00 653e 1960 8abe
00000160: a25e 933d cd4a 6f3c e46b 8ebe 566f 24be
00000170: 0964 f0bd fbb3 703d 9a88 3f3e daf8 b6be
00000180: f1c3 dfbd f6d9 e7bd f351 5fbd b96a 83be
00000190: 8edf 52be 2403 ca3d 7e52 53be ea4e 57be
000001a0: 2954 043e ab1e 03be de8e 94be 9ed2 64be
000001b0: ac9a ac3d 0f6b 3ebe a9ff 253e a012 2f3d
000001c0: 1ea6 173e d7fb a0be 14a7 7cbe f141 7ebd
000001d0: ce38 bdbd 3cf8 21be baea 4a3e 22de 253e
000001e0: 2c72 79be e5ff 51be df7d 98bd be19 66be
000001f0: 6beb e7bd 508a 263e b9db fabd 56e0 4d3c
00000200: bc00 653e b0fe afb7 ffdb 31be 943f 3fbe
00000210: 69f4 58be 8eaa 8c3d 8a0d f63d 0cae c33d
00000220: 81d9 4d3e e2d1 a93d 6b65 843d f97c 163e
00000230: 97a5 0f3e 9e37 013e 723e 163e bdc7 bbbe
00000240: 26d3 76be 2c5c 1c3e 735b 0c3d 5a84 973d
00000250: e824 9ebc 9da6 94be 71d0 9dbd 1c5b 493e
00000260: 2cf7 e6be ca92 55be 1a01 043e 2bb4 fdbd
00000270: de60 7fbe c111 ef3d a9d2 d93d dfd9 babe
00000280: 5185 17bd a8bf f33d 1390 f03d fc4e af3c
00000290: fa4e aebe 1666 1b3e 7680 dbbd e35e 2f3e
000002a0: 0a54 88be 5ef8 373d b568 353e c8d2 603d
000002b0: dd1f 91be 4f5c 4cbd bfe3 3a3e 25ec 83be
000002c0: c237 ccbe e70e 1d3e 7b22 81be 6de5 813d
000002d0: 7325 703e e9f0 91be bb2f 00be 1e48 863d
000002e0: e5c9 42be 97f0 a33d 2daa 123c edd4 3c3e
000002f0: bc27 d6be c8d2 19bd 0a3b 213d 5451 a5be
00000300: 8fa0 cb3d 324b 9ebd d3c6 62bd fa42 b7be
00000310: d841 273e f28f d83d aa40 ccbd f2b2 abbd
00000320: 598f 82be 0100 5fbe d5d7 173e 7d70 ce3d
00000330: ee4b a3be 2a50 6d3e 4147 0f3e 38e7 283e
00000340: 43a3 5dbd b971 383e 1c03 7c3e d53e 96be
00000350: d775 40be 509c 073e 5093 2d3d 6e70 0e3e
00000360: 877a a4bd 20e4 8dbe 624d 1dbe 89b9 27be
00000370: 7a90 0cbe fc3a edbd 26b3 62be e2f8 cebe
00000380: e9da 443e 8f4e 3ebe 23b5 0dbe 751f a0be
00000390: 74cc 72be 2ef4 e3be ee9f eebd 1b39 f63c
000003a0: efec 95be 67c9 f8be dcf2 303e f084 c1be
000003b0: bbd1 5dbe 312d 5a3e d984 863d 6519 143e
000003c0: 23f0 363e aaa3 8f3d d03e d8be 89fa e93d
000003d0: b90c 1a3e 4ae4 34bd c98a 96be 23a1 f8be
000003e0: a5ff 6cbd ec28 f13d 0b65 37be cd91 9abe
000003f0: 51d8 26be 84ae 153e cebf c3be 2755 87be
-0.12333692 -0.50302684 -0.018770508 -0.14535849 -0.26072928 -0.0784149 0.086864345 -0.31887972
-0.3770505 -0.22587317 -0.22207358 -0.2321828 -0.1130974 0.032339472 -0.14462112 -0.20786624
-0.02706505 0.20185056 -0.3793055 -0.08779675 -0.23309815 -0.11467459 0.18908088 0.09550281
0.19190292 -0.091873445 0.16329789 -0.2638621 0.23966524 0.17686746 -0.1715147 -0.31754428
0.091663375 0.09500732 0.1714565 0.08794733 -0.14184923 -0.21839453 -0.027679026 -0.034724504
-0.19405356 0.16816305 0.1539578 -0.4830425 -0.39118057 0.18102391 0.10871883 0.09842523
0.044754863 -0.42754388 -0.4014027 0.18551023 0.10873858 -0.16971256 0.016115772 0.18938355
0.11955031 -0.113458164 -0.12358227 -0.29791135 -0.35943618 -0.21566905 0.14868255 -0.31413
0.16568762 -0.1696978 0.21206939 -0.35374475 0.20473771 0.19874589 0.13082853 -0.19774523
0.060249075 -0.36220208 0.09254378 -0.1999339 -0.25924128 0.16692251 -0.28877062 -0.43687335
0.23039083 0.13160248 -0.42835787 -0.23629999 -0.4415633 0.09329659 0.22363393 -0.27026442
0.07195784 0.014605236 -0.2781669 -0.16058096 -0.1173783 0.058765393 0.18704453 -0.35736734
-0.10926045 -0.113208696 -0.054521512 -0.2566736 -0.20593092 0.0986388 -0.20636937 -0.21026197
0.1292273 -0.12804668 -0.2901525 -0.22345969 0.08427939 -0.18595527 0.16210808 0.04274237
0.14809462 -0.3144214 -0.2467311 -0.062074605 -0.0923935 -0.1581735 0.19816104 0.16198018
-0.2435996 -0.20507772 -0.07445883 -0.22470757 -0.11324199 0.162637 -0.1224894 0.012565693
0.22363561 -2.0980224e-05 -0.17369078 -0.18676597 -0.21186985 0.06868468 0.12014301 0.09554681
0.20102502 0.08291985 0.064646564 0.14696111 0.14028011 0.12618873 0.14672258 -0.36675826
-0.24103984 0.15269536 0.0342669 0.07398291 -0.019304708 -0.29033366 -0.07705773 0.19663662
-0.45110452 -0.20856777 0.12891045 -0.1238788 -0.24939296 0.11673308 0.10635883 -0.36494347
-0.036992375 0.1190179 0.1174623 0.021399967 -0.3404463 0.15175661 -0.10717861 0.1712604
-0.26626617 0.044914596 0.17715724 0.054888517 -0.28344622 -0.04989272 0.1825094 -0.257661
-0.3988629 0.15337716 -0.2522162 0.063425876 0.23451786 -0.28504112 -0.12518208 0.06556724
-0.19022329 0.08004873 0.008951706 0.184406 -0.4182719 -0.037554532 0.039362945 -0.3228861
0.099427335 -0.07729186 -0.055365395 -0.35793287 0.16333711 0.105743304 -0.09973271 -0.083837405
-0.2549999 -0.21777345 0.14828427 0.10080049 -0.31893867 0.23175111 0.13992025 0.16494453
-0.054110777 0.18012132 0.24610561 -0.29344812 -0.18794952 0.13243222 0.042376816 0.13910076
-0.08031183 -0.27713108 -0.1536155 -0.1637937 -0.13726988 -0.11583516 -0.22138652 -0.40424258
0.19224133 -0.18584655 -0.1383863 -0.31274 -0.23710805 -0.44522232 -0.11651598 0.030056527
-0.29282328 -0.48591158 0.17280143 -0.37796736 -0.21662037 0.21306302 0.065683074 0.14462812
0.17865042 0.07013638 -0.42235422 0.11424739 0.15043916 -0.044163026 -0.2940276 -0.48560438
-0.05786099 0.11775383 -0.17909639 -0.30189362 -0.16293456 0.14617354 -0.38232273 -0.26432154

bias f4 [10]
00000000: 9040 a13e 1fab 873f da9a 34bf 0343 9cbe
00000010: ae91 3f3d 988e a4bd 3b42 30bd 9291 8cbe
00000020: 7e30 6abe 8123 c53a
0.3149457 1.0599097 -0.70548785 -0.30519876 0.04676979 -0.0803501 -0.043031912 -0.2745481
-0.22870061 0.0015040488
