model2_CNN1/model2_CNN1_Scripted_cifar10.pt (torch, 141500 bytes, 8 tensors)

weight f4 [10, 1, 5, 5]
0	0xbc91833d	-0.017762775
1	0x3e5e18de	0.21689174
2	0x3eb8ddb0	0.36106634
3	0xbe74eb6c	-0.23917931
4	0xbdbb5b8c	-0.091483206
5	0x3df63a5e	0.120228514
6	0x3ee91b9c	0.45528877
7	0xbd396e91	-0.04527146
8	0xbec1670d	-0.37773934
9	0xbe47d43f	-0.19514559
10	0x3e941c96	0.2892806
11	0x3da7aa95	0.08186833
12	0xbedd261b	-0.43193135
13	0xbe93aef3	-0.28844413
14	0xbc02e442	-0.007988991
15	0x3c01b6a4	0.00791708
16	0xbeb35db2	-0.3503242
17	0xbe98ef3e	-0.29870027
18	0x3e4899f2	0.19589975
19	0x3ecd0e8c	0.4005016
20	0xbe073987	-0.13205539
21	0xbea4646b	-0.32107863
22	0x3d788e41	0.06068254
23	0x3ed68725	0.41899982
24	0x3e25dd3a	0.16197672
25	0x3e2fe37b	0.1717662
26	0x3ea442a5	0.32082096
27	0xbc938a01	-0.018010141
28	0x3e9967ba	0.2996195
29	0x3e36f7ad	0.17867918
30	0x3e96f177	0.29481098
31	0x3dc4f9ce	0.09617959
32	0xbd2b5f98	-0.041839212
33	0xbdfc9bc6	-0.12334399
34	0x3da455e1	0.080241926
35	0xbd24cca7	-0.040234234
36	0xbd49e790	-0.0492931
37	0x3e30efa7	0.1727892
38	0xbc16a4a3	-0.009194526
39	0xbe3a7ba3	-0.18211226
40	0x3e658e28	0.2241751
41	0xbe4d9ad0	-0.20078588
42	0xbdaf9cff	-0.085748665
43	0xbe9d91ab	-0.30775198
44	0xbddbe15f	-0.107363455
45	0xbe933a13	-0.28755245
46	0xbe9b453a	-0.30326253
47	0xbe983ab3	-0.29732284
48	0xbe5c7820	-0.21530199
49	0x3dd9c2be	0.10632847
50	0xbe5db69d	-0.21651693
51	0xbe1b19fa	-0.15146628
52	0xbd97a860	-0.07405162
53	0x3dd6bcb4	0.10485211
54	0xbcb6b7a8	-0.022304371
55	0xbe8e341e	-0.27774137
56	0xbea2fadd	-0.31832018
57	0xbee1b6b7	-0.44084713
58	0xbe81ae4c	-0.2532829
59	0xbe87f788	-0.2655604
60	0x3e2b2f10	0.16717172
61	0xbd44cf99	-0.048049543
62	0xbd17019a	-0.03686676
63	0xbe570e99	-0.21001662
64	0x3d7ba5fa	0.061437584
65	0x3e9918bf	0.29901692
66	0x3e229853	0.1587842
67	0x3d5ca1d6	0.053865276
68	0x3d84e1e5	0.064883985
69	0xbd9ba805	-0.076004066
70	0x3e4aeb1a	0.19816247
71	0x3e9cabe0	0.3059988
72	0x3ece4d49	0.4029334
73	0x3e8083dd	0.25100604
74	0x3e201446	0.15632734
75	0xbe2b5002	-0.1672974
76	0x3e6871bf	0.2269964
77	0x3e58c3f7	0.21168505
78	0x3e4105a9	0.18849815
79	0xbdb20009	-0.08691413
80	0xbe95995e	-0.29218572
81	0x3e10c050	0.14135861
82	0x3e2a3af6	0.16624054
83	0x3e9977f6	0.29974335
84	0x3cc3b5ca	0.023890395
85	0xbee814a2	-0.45328242
86	0xbe9ff502	-0.31241614
87	0xbcd583df	-0.026063858
88	0x3ebb8daa	0.3663152
89	0x3e2b7cfd	0.16746898
90	0xbe302200	-0.1720047
91	0xbee4d21f	-0.4469156
92	0xbe3ecb2f	-0.18632196
93	0xbd074622	-0.03302587
94	0x3d2b244e	0.04178267
95	0x3eba7fa3	0.36425504
96	0xbc851b8a	-0.016248483
97	0xbc34ffdd	-0.011047331
98	0xbd2cd34d	-0.0421937
99	0x3dfe16c9	0.1240669
100	0x3e877f17	0.2646415
101	0x3ea69d88	0.32542062
102	0x3ec43602	0.38322455
103	0x3ed0ff07	0.4081957
104	0x3e8b1566	0.27164763
105	0xbd772ff2	-0.06034846
106	0x3df4ca57	0.11952656
107	0xbdfee797	-0.12446516
108	0xbd6f0eb2	-0.058363624
109	0x3d5d3854	0.054008797
110	0xbea5a1ac	-0.32349908
111	0xbedbf65b	-0.42961392
112	0xbec82cee	-0.3909678
113	0xbe71653e	-0.23573777
114	0xbd7da0de	-0.061920993
115	0x3e39bfa2	0.18139508
116	0x3dd45694	0.10368076
117	0x3dd92b15	0.1060392
118	0x3db2ff82	0.087401405
119	0xbcefa5ca	-0.02925386
120	0xbdab0963	-0.083514
121	0xb952a819	-0.00020089782
122	0xbe553f92	-0.20825031
123	0xbd79aa26	-0.06095328
124	0xbe16a814	-0.14712554
125	0x3e2d5faa	0.16931024
126	0x3d4f0a90	0.050547183
127	0xbdcf3228	-0.101169884
128	0xbdd653bd	-0.104651906
129	0xbe5d736c	-0.21626061
130	0x3ed4a149	0.415293
131	0x3db3f0d8	0.08786172
132	0xbe8275a3	-0.25480375
133	0xbe303965	-0.17209394
134	0xbe0ebe6d	-0.13939829
135	0x3eaac668	0.33354497
136	0x3e19e551	0.15028884
137	0xbd1f5c45	-0.038906354
138	0xbea3c3c7	-0.31985304
139	0xbe35f326	-0.17768535
140	0x3ead48c8	0.3384459
141	0x3e3a4983	0.18192105
142	0xbe171508	-0.14754117
143	0xbe473343	-0.19453149
144	0xbd9f1f16	-0.07769601
145	0x3e1ec238	0.15503776
146	0x3e8e630b	0.2780994
147	0xbdc8fa85	-0.09813408
148	0xbad31418	-0.0016104011
149	0xbd996d8e	-0.07491599
150	0xbdc1bcbf	-0.094598286
151	0x3d8ef594	0.06980434
152	0xbeaed721	-0.34148505
153	0xbe8ed4f0	-0.27896833
154	0xbeb76c04	-0.35824597
155	0xbd2c4633	-0.042059135
156	0x3e0f9871	0.14022996
157	0x3eaf3ea4	0.34227479
158	0x3e55d084	0.20880324
159	0x3e6908fb	0.22757332
160	0x3e0f72d6	0.1400865
161	0x3e000a59	0.12503947
162	0x3e5acb43	0.213666
163	0x3eb6adbd	0.35679427
164	0x3e6c12c9	0.23054041
165	0xbe1cf3e5	-0.15327413
166	0xbe99b0a4	-0.3001758
167	0xbe7d0dee	-0.24712345
168	0x3d920bc7	0.071311526
169	0xbe265267	-0.16242371
170	0x3df030c8	0.11728054
171	0xbd3b049b	-0.04565869
172	0xbd19bc8d	-0.03753333
173	0xbec46e89	-0.38365582
174	0x3d2fbc31	0.042904083
175	0x3d67d02e	0.05659502
176	0xbdaf8859	-0.08570928
177	0xbe8498cd	-0.25897828
178	0x3e4432d7	0.19160019
179	0xbd1b156c	-0.037862226
180	0x3ec5e9f1	0.38655046
181	0xbeae2a55	-0.34016672
182	0xbeeb44f2	-0.4595104
183	0x3e87a03b	0.26489434
184	0x3df31e7c	0.11871049
185	0x3e42a7c1	0.19009306
186	0x3c8d3160	0.017235458
187	0xbf24589c	-0.6419771
188	0x3da07cba	0.0783629
189	0x3e9bfd86	0.3046686
190	0x3ed9d434	0.4254471
191	0xbe94a83e	-0.2903461
192	0xbebbd0cb	-0.36682734
193	0x3dd6c33c	0.10486457
194	0x3e280a3a	0.16410151
195	0x3eb711d5	0.35755792
196	0xbe9391e6	-0.2882225
197	0xbe9f24b7	-0.310827
198	0x3e703639	0.23458184
199	0x3d373bea	0.044734873
200	0x3da3ab1b	0.0799162
201	0x3e118f6b	0.14214866
202	0x3c8cda3a	0.017193902
203	0x3d17772c	0.036978886
204	0xbd8d3b27	-0.06896048
205	0x3e1c160f	0.1524279
206	0x3dd606b5	0.10450498
207	0x3c2b8a4d	0.010469985
208	0xbdbcba29	-0.09215195
209	0xbdd402d8	-0.10352105
210	0xbc205b20	-0.009787351
211	0x3df68cd2	0.12038578
212	0x3e042674	0.12905294
213	0x3d1546f7	0.03644463
214	0x3dd51f57	0.10406368
215	0x3e4fa730	0.2027862
216	0xbe2e2809	-0.1700746
217	0x3df1f187	0.11813646
218	0x3d3b412f	0.04571646
219	0xbd272cef	-0.040814336
220	0xbdef9ad3	-0.11699452
221	0x3e4a1de4	0.19737965
222	0xbd540eb2	-0.051771827
223	0x3c295771	0.010335789
224	0x3da636ad	0.08115897
225	0xbe17d173	-0.14825992
226	0x3e929e1c	0.28636253
227	0xbd4ca76a	-0.049964346
228	0xbd22c83f	-0.03974175
229	0xbdb73e5b	-0.0894744
230	0xbdc6f2b4	-0.09714261
231	0xbdee8c3a	-0.1164784
232	0xbeff2fa7	-0.49841043
233	0xbd91cc7d	-0.07119081
234	0x3e8ba92d	0.27277508
235	0xbd6179b4	-0.055047706
236	0xbe32ef22	-0.17474034
237	0x3e3b2b3e	0.18278214
238	0x3ed6a53a	0.41922933
239	0x3e2202bd	0.15821357
240	0x3e1bb31f	0.15205048
241	0x3eb60765	0.35552517
242	0x3ea1ee7d	0.31627265
243	0x3e90b5fa	0.28263837
244	0xbee200e8	-0.44141316
245	0xbd1cd4ff	-0.038289066
246	0xbdabb124	-0.08383396
247	0xbdc87c5a	-0.09789343
248	0xbeeafae3	-0.45894536
249	0x3d294199	0.041322324

bias f4 [10]
0	0x3c7d5a5e	0.01546344
1	0x3dd39fd6	0.10333221
2	0x3be8b554	0.007101694
3	0xbcc0ccaa	-0.023535091
4	0xbe264a9c	-0.16239399
5	0xbd26cb5d	-0.040721286
6	0x3c33d23f	0.01097542
7	0xbc9fd015	-0.019508401
8	0xbe32a0d3	-0.17444162
9	0x3c042a7e	0.008066772

weight f4 [20, 10, 5, 5]
0	0xbf369313	-0.7131817
1	0xbf15ae9d	-0.58469564
2	0xbe6a79f7	-0.22898088
3	0xbe20304b	-0.15643422
4	0x3ec7a775	0.38994947
5	0xbf003db0	-0.5009413
6	0xbf0d5b84	-0.55217767
7	0xbf0bd019	-0.54614407
8	0xbef0736f	-0.4696307
9	0x3ed90172	0.42383915
10	0xbf46247d	-0.77399427
11	0xbf3492d7	-0.7053656
12	0xbf2b86e3	-0.67002696
13	0xbe005595	-0.12532647
14	0x3eff9da2	0.49924952
15	0xbf25ad4b	-0.6471755
16	0xbeba2f90	-0.36364412
17	0xbd0fef4a	-0.035140313
18	0x3ea9e792	0.33184487
19	0x3efcbcc4	0.49362767
20	0xbefbaf20	-0.49157047
21	0xbe1c650d	-0.15272923
22	0x3eedfc00	0.46481323
23	0x3f0662b8	0.5249438
24	0x3d819177	0.06326573
25	0xbd8ce488	-0.068795264
26	0x3d643596	0.055715166
27	0x3e7143c5	0.23561008
28	0x3d8779d3	0.06615033
29	0xbba2c22a	-0.004966994
30	0x3e1e8564	0.15480572
31	0x3b66d0cd	0.003521967
32	0x3d1d7ff4	0.038452104
33	0x3dd80971	0.10548676
34	0x3eb33ed0	0.3500886
35	0x3de194b6	0.110146925
36	0x3bca8143	0.00617996
37	0x3dc7b0b9	0.09750504
38	0x3e4c463c	0.19948667
39	0x3e3569b9	0.17716111
40	0xbebe3d80	-0.37156296
41	0xbeb5f2cc	-0.35536802
42	0xbd0ef949	-0.034905706
43	0x3e074783	0.13210873
44	0x3dde12ad	0.10843406
45	0xbe75c013	-0.23999052
46	0xbe1824e6	-0.14857826
47	0xbd3b1df5	-0.045682866
48	0xbe048d84	-0.12944609
49	0xbe00cbad	-0.12577696
50	0xbea8fdb5	-0.33006063
51	0xbee52aec	-0.4475931
52	0xbeafbaa9	-0.34322098
53	0xbec94008	-0.39306664
54	0xbe3b4e33	-0.1829155
55	0xbe5f30c4	-0.21795946
56	0xbe833123	-0.25623426
57	0xbe55b91d	-0.20871396
58	0xbd60036a	-0.054690756
59	0xbced336b	-0.028955182
60	0xbe1a03ba	-0.15040484
61	0xbda091bc	-0.078402966
62	0xbe6c1d58	-0.23058069
63	0xbe8d39ff	-0.2758331
64	0x3da771b8	0.08175987
65	0x3e31425b	0.17310469
66	0x3e0c3dbf	0.1369543
67	0x3dfacf88	0.12246615
68	0x3dc4f599	0.096171565
69	0x3e8ebd08	0.27878594
70	0x3da20fc4	0.07913163
71	0x3dc773d5	0.0973889
72	0x3e7b9e31	0.24572064
73	0x3e8f5712	0.27996117
74	0x3d7d4ac4	0.06183888
75	0xbf183b61	-0.59465605
76	0xbd09ae58	-0.033613533
77	0xbd3a131a	-0.045428373
78	0xbec77a3a	-0.3896044
79	0xbf33ae8c	-0.7018821
80	0xbef35cb6	-0.4753167
81	0xbe8e3518	-0.27774882
82	0xbe5b7e62	-0.2143493
83	0xbf51ed6c	-0.820029
84	0xbed76be5	-0.42074504
85	0xbdf69021	-0.12039209
86	0xbe73ccca	-0.2380859
87	0xbe5aee35	-0.21379931
88	0xbeddb1a1	-0.43299583
89	0xbf1893e3	-0.5960066
90	0x3da3d4b2	0.07999553
91	0x3d8921d2	0.06695904
92	0xbe04e3f3	-0.1297758
93	0xbec75061	-0.38928512
94	0xbe9751cd	-0.29554597
95	0x3e330520	0.17482424
96	0x3e738705	0.23781975
97	0x3d79b80a	0.06096653
98	0xbea4169d	-0.32048503
99	0xbe5a845a	-0.2133955
100	0xbecce3cf	-0.40017554
101	0xbe850ff1	-0.25988725
102	0xbd88cdd3	-0.06679883
103	0xbed4193a	-0.41425496
104	0xbf224014	-0.63379025
105	0xbe9632ab	-0.29335532
106	0xbdf5d0e9	-0.12002737
107	0xbe6d73f3	-0.23188762
108	0xbe9fbe9f	-0.3120012
109	0xbe510160	-0.20410681
110	0xbd7766fa	-0.06040094
111	0xbe0ba75f	-0.13638066
112	0xbe31743e	-0.17329499
113	0xbe7b8e6d	-0.2456605
114	0xbe9e6206	-0.3093416
115	0xbd72ba68	-0.059259802
116	0xbe6b4131	-0.22974087
117	0xbe78ac19	-0.242844
118	0xbe9d4901	-0.3071976
119	0xbe874e27	-0.26426813
120	0xbe0ba3b8	-0.13636672
121	0xbe391f0c	-0.1807825
122	0xbe45fc53	-0.19334535
123	0xbee60cc3	-0.4493161
124	0xbe9a773e	-0.301691
125	0xbe7efe58	-0.24901712
126	0xbe831634	-0.25602877
127	0xbf09029d	-0.5351961
128	0xbee58e47	-0.44835111
129	0xbca211b7	-0.019783838
130	0x3d8486ca	0.064710215
131	0xbdf3ed01	-0.11910439
132	0xbf3a888f	-0.7286462
133	0xbede67b2	-0.43438488
134	0xbdbd0096	-0.092286274
135	0xbccc7c1f	-0.02496153
136	0xbe1a40e4	-0.15063816
137	0xbf1af1fa	-0.60525477
138	0xbe0606c0	-0.13088512
139	0xbe2d5656	-0.16927466
140	0x3d9eea2f	0.07759511
141	0x3dec9533	0.11551895
142	0xbd2ba741	-0.041907553
143	0xbe0ff3e4	-0.1405788
144	0xbeaab3d0	-0.3334031
145	0x3e30abdd	0.1725306
146	0xbdc846b9	-0.09779114
147	0x3e22074c	0.15823096
148	0x3ddccb55	0.1078097
149	0xbe0e4557	-0.13893639
150	0xbf437595	-0.7635129
151	0xbf233ff3	-0.63769454
152	0xbf60261f	-0.8755817
153	0xbf0b0b19	-0.5431381
154	0xbd00c559	-0.031438205
155	0xbe83c276	-0.257343
156	0xbe06c829	-0.13162293
157	0xbe3e2a77	-0.18570887
158	0xbe90eee3	-0.28307256
159	0xbd2f61ed	-0.042818
160	0xbeab188a	-0.3341716
161	0xbed952e3	-0.4244605
162	0xbecb4abe	-0.3970546
163	0xbee234e0	-0.44180965
164	0xbee6a989	-0.4505122
165	0xbe99720f	-0.29969832
166	0xbec3da8f	-0.38252684
167	0xbee2330d	-0.44179574
168	0xbf1a3293	-0.6023342
169	0xbe3f717c	-0.18695635
170	0x3e3cda91	0.18442751
171	0x3e33bda4	0.17552811
172	0xbd78b781	-0.060721878
173	0xbe96f70f	-0.29485366
174	0x3c949612	0.018137965
175	0xbea3bb96	-0.31979054
176	0xbd8d8aa7	-0.069112115
177	0xbe245994	-0.16049796
178	0xbf07ed0e	-0.5309609
179	0xbe99e7ff	-0.3005981
180	0xbee6b996	-0.45063466
181	0x3d9ae095	0.07562367
182	0xbec20429	-0.378938
183	0xbf2c675c	-0.67345214
184	0xbe867635	-0.2626206
185	0xbea67340	-0.32509804
186	0x3e2bbf69	0.16772236
187	0xbe954426	-0.29153556
188	0xbf1b4e0f	-0.6066598
189	0xbe8b875b	-0.27251706
190	0xbceff592	-0.029291902
191	0x3e0d7417	0.13813816
192	0xbee6c71d	-0.45073786
193	0xbeab6562	-0.33475786
194	0xbe5404bd	-0.20704933
195	0x3d6ef9cc	0.058343694
196	0x3e16ae40	0.14714909
197	0xbe82017e	-0.25391763
198	0xbdfc2c8b	-0.123131834
199	0x3e06a0b2	0.13147238
200	0x3dc238bc	0.094834775
201	0x3b6ab863	0.003581547
202	0x3db48218	0.08813876
203	0x3d21b615	0.039480288
204	0x3db50afc	0.08839986
205	0x3dc1a3d2	0.09455074
206	0x3da8f9fe	0.08250807
207	0x3c3ba3e7	0.011452652
208	0x3d98397b	0.074328385
209	0x3d6b02ff	0.057375904
210	0x3d30fd54	0.043210343
211	0x3dac4956	0.08412425
212	0x3d279f60	0.040923476
213	0x3df42650	0.1192137
214	0x3de2e7a6	0.1107934
215	0x3e393c23	0.18089347
216	0x3dd3c05b	0.10339423
217	0x3e0237c7	0.1271659
218	0x3d9fbd4a	0.07799776
219	0x3e069d3e	0.1314592
220	0x3e1f693f	0.15567492
221	0x3df6ac38	0.12044567
222	0x3e01b5be	0.12666985
223	0x3e333247	0.17499648
224	0x3dc87a67	0.097889714
225	0xbf06eb51	-0.52702814
226	0xbef9f40b	-0.48819003
227	0xbf0e07d0	-0.5548067
228	0xbee1c3dc	-0.4409474
229	0xbd9512d5	-0.072789825
230	0xbf2db0c4	-0.6784785
231	0xbf398df8	-0.7248225
232	0xbd2aa1bd	-0.041658152
233	0xbce45f46	-0.027877461
234	0x3dad983a	0.084763005
235	0xbf5a84e5	-0.8535903
236	0xbede3aa0	-0.43404102
237	0xbeb6ba8e	-0.35689205
238	0xbe4dadba	-0.20085803
239	0xbd58d155	-0.05293401
240	0xbf23e4c2	-0.6402093
241	0xbeebd8f0	-0.46063948
242	0x3e288908	0.16458523
243	0x3e0c5091	0.13702609
244	0x3f0b4d7a	0.54415095
245	0xbe98ebbe	-0.29867357
246	0xbd32d43b	-0.04365943
247	0x3e146ca9	0.14494576
248	0x3eb69750	0.35662317
249	0x3f19948e	0.599923
250	0x3e0a4e28	0.13506377
251	0xbe181d11	-0.14854838
252	0xbe6da91c	-0.23209041
253	0xbe2287f3	-0.15872173
254	0x3b201aba	0.0024429993
255	0x3daf27fa	0.08552547

bias f4 [20]
0	0x3edfc043	0.43701372
1	0xbf0228ae	-0.5084332
2	0xbc6388e4	-0.013887618
3	0xbd64faa6	-0.0559031
4	0xbd2a0e56	-0.041517578
5	0xbed1c99e	-0.40974134
6	0x3ef85f73	0.48510322
7	0x3e2984df	0.16554593
8	0xbe3f3818	-0.18673742
9	0x3e0b9f3a	0.13634959
10	0xbeb5c636	-0.35502785
11	0xbcb5de43	-0.02220071
12	0xbd80fcba	-0.06298204
13	0xbd09de18	-0.03365907
14	0xbe291479	-0.16511716
15	0x3e3d86a3	0.18508391
16	0xbebc2a75	-0.36751142
17	0xbd7bd093	-0.06147821
18	0xbd8c275d	-0.068434455
19	0xbd11f32f	-0.03563231

weight f4 [50, 500]
0	0xbe5f9a6d	-0.21836253
1	0x3d7c9367	0.06166401
2	0xbc55ce50	-0.013049677
3	0x3dbdfc5f	0.092766516
4	0xbdb8d0ff	-0.09024238
5	0x3cf8093b	0.030277839
6	0x3e130dca	0.14360729
7	0xbbbcdd61	-0.005763695
8	0x3dbfe119	0.09369106
9	0x3de7a364	0.11310461
10	0x3e965142	0.2935887
11	0xbcb9939d	-0.022653395
12	0xbf09fb93	-0.53899497
13	0xbebe7b8d	-0.37203637
14	0x3ce796c8	0.02827014
15	0x3dda22a7	0.10651141
16	0x3df45498	0.119301975
17	0xbcc62587	-0.024187816
18	0x3c458046	0.012054509
19	0x3e0b3e03	0.13597874
20	0x3eaf17f0	0.3419795
21	0x3e04f3b3	0.12983589
22	0xbda34b72	-0.079733744
23	0x3bf32ec5	0.007421347
24	0x3e5c8ae8	0.21537364
25	0x3e327c42	0.17430213
26	0xbe2d1edc	-0.16906303
27	0xbda1fbe2	-0.07909371
28	0xbeb98b2a	-0.36238986
29	0xbf377b0a	-0.7167212
30	0x3e3077e0	0.17233229
31	0x3df5c69f	0.120007746
32	0x3def667f	0.116894715
33	0x3e85ac96	0.26108235
34	0xbe0a0b1f	-0.13480805
35	0xbd88619a	-0.06659241
36	0xbdd8e7fb	-0.10591122
37	0x3df52af7	0.119710855
38	0x3c41daa8	0.011831917
39	0xbde80b49	-0.113302775
40	0xbe59eea4	-0.2128244
41	0x3dc2b3a2	0.095069185
42	0x3e395da9	0.18102135
43	0x3dae3166	0.08505516
44	0x3da21c3e	0.07915543
45	0xbf3ea156	-0.7446493
46	0xbe6f4800	-0.2336731
47	0x3ce912b5	0.028451303
48	0x3e84ae2d	0.25914136
49	0x3eace566	0.33768767
50	0xbeaeb76f	-0.34124324
51	0xbd9d91db	-0.07693835
52	0xbd905e82	-0.07049276
53	0xbd5987b1	-0.05310792
54	0x3c94f2c5	0.018182168
55	0xbeda3d5a	-0.42624933
56	0xbc9ae53a	-0.018908132
57	0x3dc1e590	0.09467614
58	0xbc7019c4	-0.0146545805
59	0xbd33f4c4	-0.0439346
60	0xbdc6ee16	-0.0971338
61	0x3dbefd2f	0.09325635
62	0x3e02e074	0.12780935
63	0x3d1f33fb	0.03886793
64	0x3d3ec5a9	0.046575222
65	0x3e048e31	0.12944867
66	0x3e03175d	0.12801881
67	0x3db678c9	0.08909757
68	0xbcf21330	-0.029550165
69	0xbd66a87e	-0.05631303
70	0x3e651cd7	0.22374283
71	0x3e880071	0.26562837
72	0x3ded807f	0.11596774
73	0xbe091389	-0.13386358
74	0xbea94869	-0.33063057
75	0xbf129da4	-0.5727179
76	0xbee462b2	-0.4460655
77	0x3b8afca3	0.0042415424
78	0xbda54b22	-0.08070971
79	0x3e3b0ab2	0.18265799
80	0xbf0c39ab	-0.54775494
81	0x3c186692	0.009301798
82	0x3edb3cce	0.42819828
83	0xbdfad7b2	-0.12248172
84	0x3d3dcbbc	0.046336874
85	0xbee09285	-0.43861786
86	0xbdbb61ed	-0.09149537
87	0x3da47c7e	0.080315575
88	0x3e37af85	0.17938049
89	0x3e4c6123	0.1995893
90	0xbeb047af	-0.3442969
91	0xbd82ab77	-0.063803606
92	0x3ba0a155	0.004902045
93	0x3eaf7b62	0.3427382
94	0xbe214453	-0.1574872
95	0xbe20317e	-0.1564388
96	0x3e06c377	0.13160501
97	0x3d59d00a	0.053176917
98	0x3e26020a	0.16211715
99	0xbe661c1b	-0.22471659
100	0xbd077c6b	-0.03307764
101	0xbbefe330	-0.007320784
102	0x3d2f1b81	0.04275084
103	0xbcb3f6df	-0.021968303
104	0xbc173bcc	-0.009230565
105	0xbc75fe06	-0.015014177
106	0x3d07044b	0.03296308
107	0xbaa0c260	-0.001226496
108	0x3c75729c	0.014980938
109	0x3c26bb98	0.010176562
110	0x3d243457	0.040088978
111	0x3c65da28	0.014029063
112	0xbd339f85	-0.0438533
113	0xbd0b47ee	-0.034004144
114	0x3d19d22d	0.037553955
115	0x3c466538	0.012109093
116	0xbc9de1ed	-0.019272769
117	0x3c040348	0.008057423
118	0x3ce5d27a	0.028054465
119	0xbccb77b8	-0.02483736
120	0xbd297dc8	-0.04137972
121	0xbd33740a	-0.043811835
122	0xb9362500	-0.00017370656
123	0x3b933cb0	0.0044933185
124	0x3c2ab374	0.0104187615
125	0xbe57ab20	-0.21061373
126	0xbe0eb423	-0.13935904
127	0xbdeb4151	-0.114870675
128	0xbe88cf5a	-0.26720697
129	0xbd8415f2	-0.06449498
130	0x3c86b5f6	0.016444188
131	0x3c609cab	0.013709228
132	0x3d5bf21f	0.0536977
133	0xbdde4d3e	-0.108545765
134	0xbe230a45	-0.15921886
135	0x39eeb4ee	0.000455297
136	0x3e4c80ef	0.1997106
137	0x3e556b66	0.2084175
138	0xbcb39759	-0.021922754
139	0xbecb2e90	-0.39683962
140	0xbe556487	-0.2083913
141	0x3d420856	0.04737123
142	0x3e0bee0e	0.1366503
143	0x3c5c02cf	0.013428404
144	0xbec1d02a	-0.3785413
145	0xbc7d7668	-0.015470125
146	0x3e18f4fe	0.14937207
147	0x3e4d3af6	0.20042023
148	0x3d173d66	0.03692379
149	0xbe36576b	-0.17806785
150	0xbd165c36	-0.036709033
151	0x3e123783	0.14278989
152	0x3d6a1735	0.05715104
153	0xbd9956c0	-0.074872494
154	0xbdcda30f	-0.100408666
155	0x3e391490	0.1807425
156	0x3c95c07b	0.018280258
157	0xbd9955a5	-0.074870385
158	0xbe0af2a7	-0.13569127
159	0x3c9e1dfe	0.01930141
160	0x3d88fa76	0.06688397
161	0xbe1068b5	-0.14102443
162	0x3d26cb62	0.040721305
163	0xbd8e53f8	-0.069496095
164	0x3dcb921f	0.0993998
165	0xbc12127b	-0.008915539
166	0x3d6b7494	0.057484224
167	0x3e426c1a	0.1898655
168	0x3d0ec2b6	0.03485366
169	0x3dc0cc8b	0.094140135
170	0xbd7274ab	-0.059193294
171	0x3d32e91b	0.043679338
172	0x3e77866d	0.24172373
173	0x3e35552f	0.17708276
174	0xbbd9ec6a	-0.006650497
175	0x3d9f6fe9	0.07785017
176	0x3c2a4e4f	0.010394647
177	0x3d5335f2	0.051565118
178	0x3c10f5c0	0.008847654
179	0xbeec6694	-0.4617201
180	0xbd0441bf	-0.032289263
181	0x3e5d731c	0.21625942
182	0x3e72ef0d	0.23724003
183	0x3e8d3b07	0.27584097
184	0xbe294cc4	-0.1653319
185	0x3e042adc	0.12906975
186	0x3e71d130	0.23614955
187	0xbd318ca8	-0.04334703
188	0x3d8bb577	0.06821721
189	0x3c8e41da	0.017365385
190	0xbd7ef008	-0.06224063
191	0xbe2b67e9	-0.16738857
192	0xbe8e5465	-0.27798763
193	0xbe0cd9fe	-0.13755032
194	0x3edc1457	0.42984268
195	0xbdc476eb	-0.09592994
196	0xbf02e171	-0.51125246
197	0xbed25911	-0.41083577
198	0x3e4e4859	0.20144786
199	0x3f2ff22b	0.68728894
200	0x3a31a8e9	0.0006777184
201	0x3b98e3ec	0.0046658423
202	0x3d412e91	0.04716355
203	0xbe179f3d	-0.14806838
204	0xbea831cd	-0.32850495
205	0x3e0fd9e8	0.14047968
206	0x3e9158f2	0.28388172
207	0x3e61216f	0.2198541
208	0x3e982baf	0.29720828
209	0x3d57226f	0.052523073
210	0x3c967c4d	0.018369818
211	0x3c1ced0d	0.009578002
212	0xbe1cb016	-0.15301546
213	0x3e46bf40	0.19408894
214	0xbd1b4b5a	-0.037913658
215	0xbcdf6a64	-0.02727241
216	0x3d30dd9e	0.0431801
217	0xbcdcaaf0	-0.026936978
218	0xbd862682	-0.065503135
219	0xbdaf4c94	-0.08559528
220	0xbef42405	-0.4768373
221	0xbe7381dc	-0.23780006
222	0xbd3dee19	-0.046369646
223	0xbe7977a2	-0.24362043
224	0xbe29127a	-0.16510954
225	0xbf02a7b0	-0.5103712
226	0xbda3be8a	-0.07995327
227	0xbdfb9e04	-0.122859985
228	0x3cb6aeb9	0.022300111
229	0x3d0b4aec	0.034006998
230	0xbec4ece7	-0.38461992
231	0x3cd1556f	0.025553433
232	0x3daa184b	0.08305415
233	0xbdb2d451	-0.087319024
234	0x3eba59b1	0.36396554
235	0xbe7e71da	-0.24848118
236	0x3db54ecd	0.08852921
237	0x3de3d364	0.11124304
238	0xbc961582	-0.018320803
239	0x3df367f9	0.118850656
240	0xbde1aa8d	-0.11018858
241	0x3ddc652d	0.10761485
242	0x3e4bd387	0.1990491
243	0x3dc8ba3f	0.098011486
244	0xbe87c42e	-0.2651686
245	0xbd02113e	-0.031754725
246	0x3e42dc06	0.19029245
247	0x3daa1884	0.08305457
248	0xbe090093	-0.13379125
249	0xbf42a545	-0.7603343
250	0xbeb4772d	-0.35247174
251	0xbe54d067	-0.20782624
252	0xbd3ff72f	-0.046866592
253	0xbe7f53cd	-0.24934311
254	0xbebc5298	-0.36781764
255	0xbbe5bab4	-0.007010782

bias f4 [50]
0	0x3f2fc041	0.6865273
1	0xbf87a457	-1.0597028
2	0x3d0d6034	0.034515575
3	0x3fee6a92	1.8626273
4	0xbf41fcd4	-0.7577641
5	0xbef432ad	-0.47694913
6	0x3dfaca7c	0.12245652
7	0xbe8f2e68	-0.27965093
8	0x3ead59f5	0.33857694
9	0x3f880d1a	1.0628998
10	0x3f85390e	1.0408037
11	0xbf0b7723	-0.54478663
12	0xbed12081	-0.4084511
13	0x3f1b6955	0.607076
14	0x3faad509	1.3346263
15	0xbdc06909	-0.09395034
16	0x3ec40f11	0.38292745
17	0x3ed6a124	0.41919816
18	0xbde9abf3	-0.1140975
19	0xbc25fbdc	-0.010130849
20	0x3f80b472	1.0055068
21	0xbf0c140d	-0.54718095
22	0xbe8ea629	-0.27861145
23	0xbf6e54e4	-0.9309828
24	0xbf2c9ed7	-0.6742987
25	0x3ec88545	0.39164177
26	0xbf13e9be	-0.5777854
27	0xbf502d65	-0.81319267
28	0x3e6c190d	0.23056431
29	0x3f1e52c6	0.6184505
30	0x3fec1b5c	1.844585
31	0xbe07f5f6	-0.1327742
32	0xbf5b6001	-0.85693365
33	0x3ecef755	0.40423074
34	0x3fdfa907	1.7473458
35	0x3ee68ebe	0.4503078
36	0x3e8b79f9	0.27241495
37	0x3d9aa036	0.07550089
38	0xbf91ea6a	-1.1399662
39	0xbf8577d2	-1.0427191
40	0xbeda7528	-0.42667508
41	0x3eec1f83	0.46117792
42	0xbf995173	-1.1977981
43	0xbebaf77d	-0.36516944
44	0x3e9a3902	0.30121619
45	0xbf4c568f	-0.7981958
46	0x3e48172f	0.19540094
47	0xbe998850	-0.2998681
48	0xbcd21c7c	-0.025648348
49	0xbf240a88	-0.6407857

weight f4 [10, 50]
0	0x3ed34037	0.4125993
1	0xbcb4df2f	-0.022079078
2	0x3ccb07d3	0.024784004
3	0x3eb6237c	0.35573947
4	0x3e994b66	0.29940337
5	0xbe0e03c9	-0.13868631
6	0xbe400172	-0.18750551
7	0xbe8b7165	-0.2723495
8	0x3e7800a2	0.24218991
9	0xbdc4de89	-0.09612758
10	0xbee74784	-0.4517175
11	0x3e5e16cc	0.21688384
12	0x3ec4aeb0	0.38414526
13	0xbe392471	-0.18080308
14	0xbf2113c1	-0.6292077
15	0x3e2bbb91	0.1677077
16	0x3d855103	0.065095924
17	0x3e8132c8	0.25234056
18	0x3f2c7002	0.6735841
19	0xbc5bc9e4	-0.013414834
20	0x3eb893c2	0.3605023
21	0x3dfe7b05	0.12425808
22	0x3dfb6c12	0.12276472
23	0x3e37a441	0.17933752
24	0xbe190872	-0.14944628
25	0xbf17e37b	-0.5933148
26	0xbe179e8a	-0.14806572
27	0xbeab194e	-0.33417743
28	0x3e67202f	0.22570871
29	0xbf1799ac	-0.5921886
30	0xbe9146b7	-0.28374264
31	0xbf22252c	-0.6333797
32	0x3e74fd5c	0.23924774
33	0x3e91d35c	0.28481567
34	0xbe8101dd	-0.25196734
35	0x3ce6c75d	0.028171236
36	0x3e0ad2a2	0.13556913
37	0xbf4f37a0	-0.8094425
38	0x3e7c29c9	0.24625315
39	0x3e19999a	0.15
40	0x3e174de9	0.14775814
41	0xbecaf95e	-0.39643377
42	0xbcadd168	-0.021218017
43	0xbef1f566	-0.47257537
44	0x3e18523b	0.14875118
45	0xbe3a7ffb	-0.18212883
46	0xbf20942d	-0.627261
47	0x3eb90efd	0.36144248
48	0x3ea52a04	0.32258618
49	0xbec627ed	-0.38702336
50	0xbf02f632	-0.51156914
51	0x3e9f7c3a	0.31149465
52	0xbeccc386	-0.39992923
53	0xbe46e84f	-0.19424556
54	0xbf16ef64	-0.5895903
55	0xbf3db408	-0.7410283
56	0x3e6ba45c	0.23011917
57	0xbf418c4d	-0.75604707
58	0xbf0ca1ef	-0.5493459
59	0xbee6743f	-0.45010564
60	0x3e74b3fb	0.23896782
61	0x3e92c979	0.28669336
62	0xbdfd2837	-0.12361186
63	0xbed9b00e	-0.42517132
64	0x3e7b7847	0.24557601
65	0xbf07366c	-0.52817416
66	0xbf2c3325	-0.6726554
67	0xbef2025f	-0.47267434
68	0xbeb8eb61	-0.3611708
69	0x3e815c6a	0.2526582
70	0xbe24b4ca	-0.1608459
71	0xbee5ba2e	-0.44868606
72	0x3e4b4600	0.19850922
73	0x3e26dd3f	0.16295336
74	0xbe5090fc	-0.20367807
75	0xbef0cf52	-0.47033173
76	0x3eb15a6a	0.34639293
77	0x3ec70e03	0.38877878
78	0xbf244080	-0.6416092
79	0xbe674a8b	-0.2258703
80	0xbecab4eb	-0.39591154
81	0x3e9b8127	0.30371973
82	0xbece303d	-0.40271178
83	0xbed2b06b	-0.4115022
84	0xbf17af7a	-0.5925213
85	0xbf40a442	-0.7525064
86	0xbf652a92	-0.8951808
87	0xbe5f5b25	-0.21812113
88	0xbe9198e3	-0.28436956
89	0x3e3be8ee	0.18350574
90	0x3ef31d9c	0.47483528
91	0xbe8242ad	-0.25441495
92	0x3e83ea24	0.25764573
93	0x3e93423f	0.2876148
94	0xbf13d144	-0.5774119
95	0x3e1a7f7b	0.15087692
96	0x3e88a8c4	0.26691258
97	0xbf096ceb	-0.5368182
98	0x3e764853	0.24051027
99	0xbf1d3105	-0.6140292
100	0x3ec49598	0.3839538
101	0xbec74c81	-0.38925555
102	0xbe1d2f3a	-0.15350047
103	0xbd006924	-0.03135027
104	0xbeabe7ae	-0.33575195
105	0x3e63e05c	0.22253555
106	0xbf261a32	-0.6488372
107	0x3e322457	0.17396675
108	0x3ea35226	0.31898612
109	0xbf262d6f	-0.64913076
110	0xbf849e4e	-1.0360811
111	0xbe1d1bf5	-0.15342696
112	0xbe3e890a	-0.18606964
113	0x3e000a4f	0.12503932
114	0xbf459daa	-0.771937
115	0x3e496dd6	0.19670805
116	0xbe85c9a9	-0.26130417
117	0x3e40fecc	0.18847197
118	0xbe5f97f6	-0.21835312
119	0xbf20dd03	-0.6283724
120	0x3e986bf7	0.2976987
121	0xbec99d1d	-0.3937768
122	0xbf330e95	-0.69944125
123	0xbeee2ee6	-0.46520156
124	0xbc94891c	-0.018131785
125	0x3d8b042b	0.06787904
126	0x3e9deb9b	0.30843815
127	0xbea5c826	-0.32379264
128	0x3e97c065	0.29638973
129	0x3ddc6a1a	0.10762425
130	0x3d99d3e7	0.0751112
131	0xbee0f535	-0.43937078
132	0xbe37f43b	-0.1796426
133	0x3e9ba0d2	0.30396134
134	0xbe8a13d2	-0.26968247
135	0x3dad2177	0.084536485
136	0x3e81d80b	0.2536014
137	0xbe6cc078	-0.23120296
138	0xbcc31e54	-0.023818173
139	0xbef2de0a	-0.47435027
140	0x3d1f06a0	0.038824677
141	0x3e0d5443	0.13801675
142	0xbef7ea2a	-0.4842084
143	0xbeba59d0	-0.36396646
144	0x3e23fda1	0.1601472
145	0xbef55398	-0.4791534
146	0xbecde004	-0.40209973
147	0xbebbed39	-0.36704424
148	0xbe80f614	-0.25187743
149	0xbec48184	-0.38380063
150	0xbecbaeac	-0.39781702
151	0xbefc7e53	-0.49315128
152	0xbf0be1f4	-0.5464165
153	0xbeaf18bb	-0.34198555
154	0xbf01f246	-0.50760305
155	0x3e45de69	0.19323124
156	0xbe744415	-0.23854096
157	0x3e003587	0.12520419
158	0xbe564c00	-0.20927429
159	0xbdccc9dc	-0.09999439
160	0x3e481f8d	0.19543286
161	0x3e2f0d09	0.17094816
162	0xbeca43aa	-0.3950475
163	0x3ed9adab	0.4251531
164	0x3e53b0b5	0.20672877
165	0xbe8ef2c0	-0.2791958
166	0xbddb6b80	-0.107138634
167	0xbecebe9e	-0.40379804
168	0xbe3ecae8	-0.1863209
169	0xbf15cafd	-0.5851286
170	0xbeb82472	-0.35965306
171	0x3e5c46af	0.21511339
172	0xbebe6541	-0.37186626
173	0xbef460cd	-0.47730103
174	0xbe3f5c17	-0.18687473
175	0x3e84d19c	0.2594117
176	0xbe47768b	-0.19478814
177	0xbdad7315	-0.08469216
178	0xbf325e05	-0.6967471
179	0x3e12c5c9	0.14333262
180	0x3d411a32	0.047144122
181	0x3e6715b1	0.22566868
182	0xbe0d2992	-0.13785389
183	0xbeeb5773	-0.45965156
184	0xbd1ec715	-0.03876408
185	0x3e1e9bbe	0.15489098
186	0xbc956c7a	-0.018240202
187	0x3e8fdc35	0.28097692
188	0xbd6dd695	-0.05806597
189	0xbf01592d	-0.50526696
190	0xbed39d46	-0.41330928
191	0x3e82230a	0.25417358
192	0xbf102d3a	-0.5631901
193	0xbec5d94b	-0.38642344
194	0x3cd73791	0.026271613
195	0xbe44daa0	-0.19224024
196	0x3e8e1dee	0.2775721
197	0xbefcee1e	-0.4940042
198	0xbee6b6bd	-0.45061293
199	0x3dd737a7	0.10508662
200	0x3e8b9eed	0.27269688
201	0xbf0d9e12	-0.5531932
202	0xbf238c2c	-0.6388576
203	0x3ed6cf6f	0.41955134
204	0xbe32dbb8	-0.17466629
205	0xbedaac57	-0.4270961
206	0xbf88fd86	-1.0702369
207	0xbe2913ed	-0.16511507
208	0x3e4ec1fe	0.2019119
209	0xbe924b67	-0.28573152
210	0x3e452605	0.19252785
211	0x3d6aebb6	0.057353698
212	0xbf34fcb2	-0.7069808
213	0xbe0e94c1	-0.13923933
214	0x3e6a6cc9	0.2289306
215	0x3cbf4511	0.023348363
216	0xbf523fc6	-0.8212856
217	0xbc9d8e83	-0.019232994
218	0x3d4e0209	0.05029491
219	0xbf340c73	-0.70331496
220	0x3edb8c77	0.42880604
221	0xbe36119c	-0.17780155
222	0xbf389e7c	-0.7211683
223	0xbd8cf755	-0.06883112
224	0xbf445fe1	-0.767088
225	0xbeb468be	-0.35236162
226	0xbf077b6e	-0.52922714
227	0x3b74c414	0.0037348317
228	0xbedc67f2	-0.43048054
229	0x3df55592	0.11979212
230	0x3eb35796	0.3502776
231	0x3d96cf91	0.07363809
232	0xbec5d78a	-0.38641006
233	0x3d8e5646	0.06950049
234	0x3defff30	0.11718595
235	0x3d3b577e	0.045737736
236	0x3de26dbe	0.11056088
237	0xbd5cce78	-0.05390784
238	0xbf149f6f	-0.58055776
239	0xbf3259bb	-0.6966817
240	0xbdf70db2	-0.12063159
241	0xbd1dd315	-0.03853138
242	0xbf1da627	-0.61581653
243	0xbf76622f	-0.96243566
244	0x3e375327	0.17902814
245	0xbe549b00	-0.20762253
246	0xbf5342ea	-0.8252398
247	0x3db0f0c9	0.08639676
248	0x3e8eea3e	0.27913088
249	0xbe8305e5	-0.25590435
250	0xbe7abbf7	-0.24485765
251	0xbf0b6859	-0.54456097
252	0xbf021055	-0.5080617
253	0xbed7c0c9	-0.4213927
254	0xbeb35c19	-0.35031202
255	0x3e47068e	0.19436094

bias f4 [10]
0	0xc0006472	-2.0061307
1	0xbf35ed8d	-0.710656
2	0x3f43a808	0.7642827
3	0x3ee708fe	0.45124048
4	0x401dc648	2.4652271
5	0xbf8ef891	-1.1169606
6	0x4012656c	2.2874403
7	0xbf1a333c	-0.6023443
8	0xbf4196d2	-0.7562076
9	0xbecd2eef	-0.4007487
