ensemble_model/model1_Linear1_cifar10.pt (torch, 4296 bytes, 4 tensors)

weight f4 [10, 20]
000000 c8 d8 4f 3f 90 03 05 bf 15 51 dd be 9a de ca be
       0.81190157 -0.5195856 -0.43225923 -0.39622957
000010 a6 ec e1 be a9 ad d5 be 84 5e ad be 17 cb 1f bf
       -0.4412586 -0.41734055 -0.33861172 -0.62419266
000020 03 e7 0e be d2 10 0a bf 7c 19 ef 3e d6 d6 22 bf
       -0.13955311 -0.53931916 0.4669913 -0.63609064
000030 98 a1 63 be 1a a4 e1 be c5 7a d5 be 36 91 21 bf
       -0.22229612 -0.44070512 -0.41695228 -0.631122
000040 7c 8a 0c bf 2b 3b 10 bf 73 cd 08 bf 42 87 1a bf
       -0.5489881 -0.56340283 -0.5343849 -0.6036264
000050 d0 62 0e bf 2d ca 07 3f 25 8c 16 bf 63 64 71 be
       -0.55619526 0.5304287 -0.58807594 -0.2357345
000060 44 df 16 bf 8a 4c c6 be 6e 2c 0c bf f0 3c e1 be
       -0.58934426 -0.3873027 -0.54755294 -0.43991804
000070 a5 ef 68 be d7 cc f7 be de 65 62 be 90 fb 24 3f
       -0.22747667 -0.48398468 -0.22109172 0.64446354
000080 61 3b 9c be 2f ee 1a bf aa c5 ee be 80 e9 fd be
       -0.30514053 -0.6051969 -0.4663518 -0.4959221
000090 af 4d 85 be ec 32 f4 be 13 da 77 be c3 84 b9 be
       -0.2603583 -0.476951 -0.24204282 -0.36234102
0000a0 3a 84 f6 be 9e 0a 0e bf b5 7b cf 3e bf 1d d5 be
       -0.48147756 -0.5548495 0.40524068 -0.41624257
0000b0 37 95 dc be ef 16 d5 be 2a 54 be be 98 a4 bc be
       -0.43082592 -0.4161906 -0.37173587 -0.36844325
0000c0 f6 59 ae be 32 cc f8 be fa 1c 0a bf e2 76 da be
       -0.3405301 -0.4859329 -0.53950465 -0.42668825
0000d0 f1 6c 33 3f bb f3 ae be 9a 3b b3 be b6 d3 a7 be
       0.70088106 -0.34170327 -0.3500641 -0.3277871
0000e0 9b b2 81 be 51 cb e7 be ec e6 7a be 84 f1 a9 be
       -0.25331578 -0.45272306 -0.24502152 -0.33192074
0000f0 79 c5 c4 be 92 76 be be 2a 7d 76 be b5 24 07 3f
       -0.3843191 -0.37199837 -0.24071184 0.52790385
000100 48 dd 54 be d1 6a 8d be fa 1e b9 be 6e 90 e6 be
       -0.20787537 -0.27620557 -0.36156446 -0.45032066
000110 4e e0 b6 be 02 3d 56 be 68 9f 46 be 87 71 63 be
       -0.35718006 -0.2092171 -0.19396746 -0.22211276
000120 28 f8 cb be ae 2b 37 3f 95 77 d0 be 9a 58 fe bd
       -0.39837766 0.71551025 -0.40716234 -0.12419243
000130 95 2b 84 be 6d 19 40 be 25 f8 81 bc 89 fe a2 be
       -0.258145 -0.18759699 -0.015865395 -0.3183482
000140 08 a4 e8 be b8 3d cc be 27 9d 8d be 20 3d d0 be
       -0.45437646 -0.39890838 -0.2765896 -0.40671635
000150 66 09 cf 3e 6f 61 3c be 10 29 f7 be a6 c6 b9 be
       0.40436858 -0.18396543 -0.48273516 -0.3628437
000160 98 bc b2 be 77 da 2d be 43 5a 14 bf c4 2a c9 be
       -0.3490951 -0.16977869 -0.5795023 -0.3929044
000170 86 3c c3 be 2f 46 ac be dd 2d 1d 3f b2 d5 d1 be
       -0.38132113 -0.33647296 0.61398107 -0.4098335
000180 c4 97 8f be bb 49 26 bf ec fc 61 be c3 76 e7 be
       -0.28045475 -0.64956254 -0.22069138 -0.45207796
000190 80 f3 8b be 51 96 09 bf bf 43 fe be 6c 8f 8b be
       -0.27334213 -0.5374499 -0.4966106 -0.2725786
0001a0 85 ae 06 bf 26 a2 0a 3f 0e 3d 17 bf d2 a6 bc be
       -0.52610046 0.5415367 -0.5907754 -0.36846024
0001b0 77 4f bf be d3 07 c3 be 4d 96 fb be b9 e6 b5 be
       -0.37365314 -0.38091907 -0.49138108 -0.3552759
0001c0 94 f7 d7 be a1 de cc be 5d 1e a1 be 65 94 2a 3f
       -0.42181075 -0.40013602 -0.31468478 0.6663268
0001d0 c7 18 a3 be cf 3e 95 be ea 1c a2 be 8b 62 f7 be
       -0.3185484 -0.29149482 -0.31662685 -0.4831737
0001e0 0f eb a4 be f3 ae b1 be a6 d0 48 be e7 c8 a0 bd
       -0.32210585 -0.34703788 -0.19610843 -0.07850819
0001f0 4b 53 cb be e2 7c 40 be 6a 15 33 3f 03 89 fd be
       -0.39711985 -0.18797639 0.6995455 -0.49518594
000200 8c ee a5 be 7a db d5 be e8 3d e7 be 9b 7e ff be
       -0.3240856 -0.4176901 -0.45164418 -0.4990128
000210 bc 35 f3 be 69 9d cc be 67 d0 77 be 19 eb ab be
       -0.47501934 -0.39963844 -0.24200593 -0.33577803
000220 1c 53 2e 3f 2e 27 a7 be 92 27 06 bf e4 11 0b bf
       0.68095565 -0.3264708 -0.5240413 -0.54324174
000230 14 ad 7b be 8b 38 ea be 7f e2 d1 be 33 23 a6 be
       -0.24577743 -0.45746264 -0.40993115 -0.3244873
000240 24 e9 c7 be 66 55 e6 be 23 9a 97 be 94 72 e4 3e
       -0.3904506 -0.4498703 -0.29609784 0.44618666
000250 25 f2 01 bf 38 75 09 bf e4 5b b5 be 75 99 9b be
       -0.5076011 -0.53694487 -0.3542167 -0.30390516
000260 3d 42 ca be 76 d3 bf be c2 49 30 be f8 6a 1e be
       -0.3950366 -0.3746602 -0.17215636 -0.15470493
000270 62 6f 12 bf 44 cc 47 3f cc ad 39 be a1 94 c4 be
       -0.57201207 0.7804606 -0.18132704 -0.38394645
000280 15 30 05 bf 66 3c f0 be b2 9c b8 be ba a5 7a be
       -0.5202649 -0.4692108 -0.3605705 -0.24477282
000290 e6 02 e4 be 14 b8 e8 be a4 e7 9d be 07 85 06 bf
       -0.4453346 -0.4545294 -0.3084079 -0.52546734
0002a0 5f 21 2e 3f 45 e2 1b bf 39 c0 a9 be 7e b7 22 bf
       0.6801967 -0.60892135 -0.33154467 -0.63561237
0002b0 e2 72 cd be 39 64 e3 be 74 cc dc be 4c a8 86 be
       -0.4012671 -0.444124 -0.43124735 -0.26300275
0002c0 93 a8 57 be 95 81 30 be 5c 30 2d 3f 5c 90 02 bf
       -0.210604 -0.17236932 0.67651916 -0.51001525
0002d0 d7 81 93 be 9a 73 de be 00 03 16 bf c5 8c bc be
       -0.28809997 -0.43447572 -0.5859833 -0.3682615
0002e0 27 cd 0e bf 90 4b 04 bf 15 c1 2a bf 99 fa b4 be
       -0.5578179 -0.516778 -0.6670087 -0.3534744
0002f0 c0 a0 8b be 39 3e 10 3f 1a df ea be e3 fd ec be
       -0.2727108 0.56344944 -0.45873338 -0.4628745
000300 11 7f 11 bf a0 2a d2 be cf 0b 10 bf a9 8c 14 bf
       -0.5683451 -0.41048145 -0.5626802 -0.5802713
000310 c1 5f d3 be f9 82 0e bf 21 9e c2 be 66 f2 1f 3f
       -0.41283992 -0.556686 -0.38011268 0.62479246

bias f4 [10]
000000 51 da 5a 3e 27 54 0a 3e 49 09 41 3b e8 ac 6b bd
       0.21372344 0.13508664 0.0029454997 -0.057537943
000010 f7 b5 46 be be 24 82 be 1e 53 4e bd 61 9c 87 3d
       -0.19405352 -0.25418657 -0.050372235 0.06621624
000020 7c 70 ff 3d 9a 01 b1 3d
       0.124726266 0.086428836

weight f4 [20]
000000 ac fc e8 3f 90 2b e8 3f 6a 8b ca 3f 33 11 d4 3f
       1.8202109 1.8138294 1.5823796 1.6567749
000010 4d 0b d1 3f a7 bd d0 3f a0 0e d1 3f 03 84 de 3f
       1.6331574 1.6307877 1.6332588 1.7384037
000020 e5 b7 cd 3f 57 4d db 3f 4e b3 d5 3f 35 9a d7 3f
       1.6071745 1.7132977 1.6695344 1.6843935
000030 c3 82 e1 3f fe 8c df 3f d4 15 d9 3f 49 62 ef 3f
       1.761803 1.7464902 1.6959786 1.8701869
000040 39 e0 ed 3f 40 fa db 3f 80 df e7 3f e5 66 ec 3f
       1.8584052 1.7185745 1.8115082 1.8468901

bias f4 [20]
000000 cf a3 f8 3d 9f e3 2b 3e 12 66 30 bd 0a 74 8f be
       0.12140619 0.1678605 -0.04306609 -0.28018218
000010 61 a3 e8 bd b7 76 74 bd cd 4d c3 bc 99 52 0f 3d
       -0.11359287 -0.059683528 -0.02384081 0.03499088
000020 c3 8a 9c 3d 5f 4d 30 3e dc f6 53 3d 93 56 a5 bc
       0.07643654 0.17217015 0.051749095 -0.020182883
000030 6b ba 0c bd 49 c9 6a be 15 92 6f bd d3 43 3b be
       -0.03435747 -0.22928347 -0.058488924 -0.18287592
000040 95 90 96 bd a6 03 70 bd 90 96 2c be de df cb 3d
       -0.073517956 -0.05859723 -0.1685431 0.09954809
