ensemble_model/model1_Linear1_Scripted_cifar10.pt (torch, 10145 bytes, 4 tensors)

weight f4 [10, 20]
00000000: 48a4 2d3f 620d 02bf 630a 85be ec26 b3be
00000010: fe74 b0be 40ab c7be 1494 c4be 71e5 f8be
00000020: 7063 8bbe dcce 79be 2bef 563f 1187 0cbf
00000030: e26c c2be 108c adbe 6f7a 56be 8d5f 0cbf
00000040: 7cea 0bbf fece 14bf 15e7 14bf 541e 17bf
00000050: d43a 0ebf 7514 3a3f 65f4 e1be 5d40 dabe
00000060: ec08 44bf 2b6d c7be be60 1fbf a3a8 0bbf
00000070: 3057 3ebe 44a9 12bf ce8b e5be cd85 213f
00000080: 2c8b 1dbf 401d 11bf fefa 20bf 7e73 15bf
00000090: c3bb cabe 414f 14bf c011 29bf 6a21 eabe
000000a0: 0a82 1ebf 7959 bebe 26b2 163f e512 f6be
000000b0: 7e1b bcbe 302f a9be 5bfb d0be 85c9 1ebf
000000c0: 8b7f 0fbf 7783 72be baf8 a7be c5b2 ebbe
000000d0: 2fa4 253f 0a60 dbbe ec2c cdbe ae53 49be
000000e0: 3db9 b6be 7a41 53be 6008 c9be 0099 4dbe
000000f0: 8c4e dcbe a808 82be 4ba1 78be c0b7 f33e
00000100: 59f6 adbe bdea 1ebe 931b 79be ac9b d0be
00000110: 151d d6be 9cd6 b8bd d8f7 1abe 4cf7 33be
00000120: efc2 45be 529b 6a3f 3b99 19be cfc8 ecbd
00000130: ad3e c7be 5859 47be db02 09be 4dec e8be
00000140: bb8e 0dbf b13c ccbe 97c9 53be 5b91 fbbe
00000150: f7fe 113f 7b5c 6bbe 599d c8be dd20 e8be
00000160: eb04 84be 5aed 7ebe 289a 32bf f650 85bd
00000170: 1b79 b0be 3670 4cbe 14c2 383f d39b 97be
00000180: caa5 14bf 0a91 03bf 02f1 0bbf e0a4 78be
00000190: 68e1 ffbe de06 b4be 8e0b e6be 806e fcbe
000001a0: 5b94 debe 2226 253f aba1 85be b0c8 eebe
000001b0: 35e2 b4be 7d18 bcbe 8109 e9be 8a56 bbbe
000001c0: d723 06bf 4586 e9be 1bcb 86be 021a 2f3f
000001d0: 054d 1dbf 08e0 efbe 5eef 16bf ccba e4be
000001e0: 3add 31bf 7a9f 0abf 6971 80be 0640 7bbe
000001f0: 22fe 63be 11e9 34be 572f 413f e569 10bf
00000200: 9e11 11bf f168 d7be a986 1cbf e5ac febe
00000210: 5898 e6be 5ed4 bbbe 746a c2be 069e e5be
00000220: 8f1a 243f 4807 c0be 32bf 15bf fe80 e1be
00000230: 70d7 bebe 11fe bdbe 88e1 78be 0de8 c6be
00000240: b7e2 9abe 997d 2fbe 48c3 b8be 30da 433f
00000250: f113 05bf 4cd8 c5be 537f ecbe 7c97 c7be
00000260: 7fb4 0ebf 5d96 1abf 9e5e acbe c756 b0be
00000270: 5f19 4cbf 88b3 1c3f e331 26bf a52d 24bf
00000280: e742 dfbe 0b03 32bf 42f3 c6be 05b7 a3be
00000290: ea4f a2be 57c2 00bf 5011 a7be 5285 1bbf
000002a0: 64a5 1f3f d26f 4ebf 9c15 05bf 0269 11bf
000002b0: b1bb 87be 1105 f5be d74f 08bf 068e bbbe
000002c0: e22c 04bf 2872 b5be 6e4c 1a3f d1f7 0ebf
000002d0: ec59 fdbe 063e c5be 4f29 f8be 9b00 6abe
000002e0: 4285 f7be bfc9 8ebe bc7a 1bbf e972 b7be
000002f0: d87f edbd 8675 623f 6142 febe 6b70 a7be
00000300: ef97 2dbf b7dc 05bf 18fb 10bf 3db5 0abf
00000310: eec3 d7be cdf0 c4be cfce dfbe 1aeb 663f
0.678288 -0.5080167 -0.25984487 -0.34990633 -0.34464258 -0.3899784 -0.38394225 -0.4861255
-0.27224302 -0.24395317 0.8395869 -0.54893595 -0.37973696 -0.33895922 -0.20945142 -0.548333
-0.5465467 -0.58128345 -0.58165103 -0.5903065 -0.55558515 0.72687465 -0.4413177 -0.4262723
-0.76576114 -0.38950476 -0.6225699 -0.54554194 -0.18587947 -0.5728953 -0.44833225 0.6309479
-0.61540484 -0.56685257 -0.62882984 -0.5837935 -0.39596376 -0.5793343 -0.6604271 -0.45728618
-0.61917174 -0.37177637 0.5886558 -0.4806129 -0.36739725 -0.33043814 -0.4081677 -0.62026244
-0.5605399 -0.23682962 -0.3280695 -0.46034828 0.6470365 -0.4284671 -0.40073335 -0.19660828
-0.356882 -0.20630446 -0.39264202 -0.20077896 -0.43028677 -0.2539723 -0.24280278 0.47601128
-0.3397701 -0.15519233 -0.24326925 -0.40743768 -0.41819063 -0.090253085 -0.15133607 -0.17574805
-0.19312643 0.9164325 -0.14999859 -0.11561739 -0.38915005 -0.19467676 -0.13379996 -0.45492783
-0.55295914 -0.39890054 -0.20682369 -0.49134335 0.5702967 -0.22984497 -0.39182547 -0.45337573
-0.25785002 -0.2489523 -0.69766474 -0.06509583 -0.34467396 -0.1996468 0.7217114 -0.29611072
-0.58065474 -0.5139319 -0.54664624 -0.24281645 -0.4997666 -0.3516149 -0.4493069 -0.49303055
-0.4347256 0.6451131 -0.26099905 -0.46637487 -0.35328832 -0.36737433 -0.45515063 -0.36589462
-0.5239844 -0.45610252 -0.26326832 0.6839906 -0.6144565 -0.4685061 -0.58958995 -0.44673765
-0.6947819 -0.5414959 -0.25086525 -0.24536142 -0.22264913 -0.17667033 0.7546286 -0.5641158
-0.56667507 -0.4207225 -0.61142975 -0.49741283 -0.45038104 -0.3668546 -0.37971842 -0.44847125
0.64103025 -0.37505555 -0.58494866 -0.44043726 -0.3727374 -0.371079 -0.24304783 -0.38848916
-0.30251095 -0.17137755 -0.36086488 0.765048 -0.51983553 -0.38641584 -0.4619089 -0.3898276
-0.55744165 -0.60385686 -0.33665937 -0.34441206 -0.79726213 0.6121144 -0.6491987 -0.6413215
-0.4360573 -0.69535893 -0.38857466 -0.3197557 -0.31701595 -0.5029654 -0.32630396 -0.60750306
0.6236174 -0.80639374 -0.519861 -0.56800854 -0.26510385 -0.47855428 -0.53246826 -0.36631793
-0.51630986 -0.35438657 0.6027287 -0.5584689 -0.49482667 -0.38523883 -0.48469016 -0.22851793
-0.48343855 -0.27888295 -0.6073415 -0.35829857 -0.1159665 0.88460577 -0.49660018 -0.32702956
-0.6780996 -0.5228991 -0.5663314 -0.541828 -0.4214167 -0.38464966 -0.4371247 0.90202487

bias f4 [10]
00000000: 3cea 8f3d d999 923e 5ebf 98be d454 623c
00000010: 3d30 9e3d 60e4 a5be 1a75 9f3d 5dfd 9d3d
00000020: 74c3 353e 3cfb dd3e
0.070270985 0.28633 -0.29833502 0.01381417 0.077240445 -0.324008 0.07786007 0.07714341
0.1775034 0.4335574

weight f4 [20]
00000000: 4d90 0540 478e f73f 4447 d33f 29c2 c83f
00000010: 7ec2 cd3f 0f6f db3f a4a3 dd3f 7906 f23f
00000020: a205 e33f a201 ed3f 699a e03f dc6b ec3f
00000030: b2dd ec3f d843 ee3f b5ba e93f 8c77 f13f
00000040: e9e9 f83f fd62 e33f 20fd ee3f e40a f83f
2.0869324 1.9340295 1.6506124 1.5684253 1.6074979 1.7143267 1.7315564 1.8908225
1.7736094 1.8516123 1.7547122 1.8470416 1.8505156 1.8614454 1.8260103 1.8864608
1.9446384 1.7764584 1.8670998 1.9378324

bias f4 [20]
00000000: b66a f53d f3e6 b73d 7dd6 cc3b 478e 02be
00000010: d758 11be 8c82 4cbd 3220 70be f94d 8b3d
00000020: 887c 223e affa 033e a301 d0bb 8d0a 4cbd
00000030: c0f7 24bd db34 67be d7d0 76be d3ab 2fbe
00000040: 8ac1 a6bd e6bc 86bc ddde 25be 4543 283e
0.11983244 0.08979597 0.006251155 -0.12749587 -0.14194046 -0.049929187 -0.23449782 0.068019815
0.15867817 0.12888597 -0.0063478514 -0.04981475 -0.040275335 -0.22578757 -0.24103104 -0.1715539
-0.081423834 -0.016447496 -0.16198297 0.16431911
