ensemble_model/model1_Linear1_Scripted_mnist.pt (torch, 10111 bytes, 4 tensors)

weight f4 [10, 20]
00000000: 65c7 2b3f f5d7 88be f20b d8be 491a 3abf
00000010: 9907 09bf bf76 1abf c443 d8be 8225 9ebe
00000020: 73bc c6be c07e ddbe f003 413f 4305 06bf
00000030: 9cea 00bf c046 e9be d441 e0be f9f4 f9be
00000040: 0f48 d4be 5558 f5be d2d7 bbbe abbb 13bf
00000050: 8eb6 e3be 4879 143f b2d2 cbbe f834 efbe
00000060: 1337 37bf 13ca 0cbf f770 26bf d8e8 9fbe
00000070: 317d 32bf 8f3e 15bf 3613 18bf 7f0f 023f
00000080: d0e3 34bf e894 32bf 6d12 1bbf 2bb9 0fbf
00000090: b1ce 2fbf d6c3 26bf 24fb 21bf fcfc 1abf
000000a0: f5e3 c9be 38f2 3ebf 7cb8 1d3f b763 cdbe
000000b0: a1bc f9be 4d66 b9be 2e9f 33be 9870 edbe
000000c0: 7dac ebbe 74a5 24bf 4ab3 d2be 04d3 eebe
000000d0: 4e85 473f ee33 40bf 7742 06bf c425 1dbf
000000e0: 765f a5be ae9d cdbe 0e17 e4be 9b92 02bf
000000f0: b5be 36bf 9978 1ebf 7a75 aabe 7b78 083f
00000100: 202e 20bf d652 83be 0ac3 b7be f73b 14bf
00000110: effc 683e 5248 31bf 39cd fbbe be72 26bf
00000120: a925 aebe b4f8 353f 7709 42bf 37f4 9dbe
00000130: 5524 34bf d1c7 1bbf 0519 1bbf 18d2 14bf
00000140: a535 e7be b3d1 e7be b587 fabe 0b96 39bf
00000150: 78ba 443f 177b 0bbf 958b bcbe d028 fdbe
00000160: 95ad febe 0083 693e 9fd2 26bf b439 39bf
00000170: 5dd3 24bf 9851 2ebf 3324 0f3f ef2b 0ebf
00000180: 6939 40bf b362 29bf afff 1ebf 531a 11bf
00000190: f102 17bf b5fe 13bf 51eb 1ebe 30fa f7bd
000001a0: 74a2 49bf cf25 093f e582 9dbe d149 10bf
000001b0: e6df 19bf ab08 afbe d62c e1be 8c75 21bf
000001c0: be9c 9abe 45c8 2dbf 24dc febe fc5c 4f3f
000001d0: 1e42 0cbf 27b4 f3be 1a0b 0abf cdaa 17bf
000001e0: 2170 16bf 48ce debe f65b 6dbe 435c 1cbf
000001f0: 70fa 20be 6a51 cfbe 9d61 353f 2ab8 acbe
00000200: 9e60 c5be 7946 b4be bbd3 8ebe 3883 10bf
00000210: 46d6 20bf 991e debe d4fa f3be f4e1 e6be
00000220: d87e 383f dccc 13bf 6f35 c4be 41b3 16bf
00000230: 53d1 92be 5845 f6be e0ce dbbe 67ea 1abf
00000240: 61eb 1ebf 13e8 33bf 371d c1be 0624 393f
00000250: 283f f0be d7b7 8fbe 61ba 10bf d17e 25bf
00000260: 9972 e8be bf4e 26bf 3314 fabe 5a42 ebbe
00000270: d76a 05bf cd5b 1d3f ed8f cbbe 2f9a debe
00000280: f799 abbe 8a9c 1abf 5773 ebbe a873 a0be
00000290: 81fb d2be 2698 b2be ca2e 7ebe 5683 c0be
000002a0: 9a2e 1e3f 73ee 3bbf e912 0cbf 2999 0bbf
000002b0: 7174 f7be 0f89 1cbf 795d 25bf b3f6 ddbe
000002c0: 8984 1bbf 74cd 2dbf 18ea 533f a116 03bf
000002d0: 8fc1 cdbe 88a0 d7be 10e6 16bf aece c2be
000002e0: 743f afbe 2c1b eebe 99e4 6dbe d6da 92be
000002f0: 1e22 bebe d025 f03e 7e59 09bf 325e 18bf
00000300: af06 ebbe 349b 39bf 19de 75bf 3f17 1cbf
00000310: 4ee5 11bf 7ffd 49bf 423f 49bf 0ddd 033f
0.67101127 -0.26727262 -0.42196614 -0.7269636 -0.5352722 -0.6033744 -0.422392 -0.3088799
-0.3881565 -0.43260765 0.75396633 -0.5235178 -0.50357985 -0.4556179 -0.43800223 -0.48819712
-0.41461226 -0.47918954 -0.36688095 -0.57708234 -0.44475216 0.5799756 -0.39809185 -0.467201
-0.7156841 -0.5499584 -0.6501612 -0.31232333 -0.69722277 -0.5829858 -0.59404314 0.50804895
-0.70660114 -0.6975846 -0.6057499 -0.5614192 -0.6867476 -0.6514257 -0.63273835 -0.60542274
-0.3943173 -0.74588346 0.61609626 -0.4011514 -0.48776725 -0.36210862 -0.17541191 -0.46374965
-0.46030036 -0.6431496 -0.41152412 -0.46645367 0.7793778 -0.7507924 -0.5244517 -0.6138575
-0.32299393 -0.40159363 -0.4454884 -0.5100495 -0.71384746 -0.6190277 -0.33292753 0.5330884
-0.6257038 -0.25649136 -0.3589099 -0.57904 0.22752737 -0.6925098 -0.4918001 -0.6501883
-0.34013107 0.71082616 -0.7579569 -0.30850384 -0.7036794 -0.6085177 -0.6058505 -0.5813308
-0.45158115 -0.45277175 -0.4893166 -0.7249457 0.7684703 -0.54484695 -0.36825243 -0.494452
-0.49741808 0.22803879 -0.6516513 -0.72353673 -0.64385015 -0.6809325 0.5591461 -0.5553579
-0.750876 -0.6616623 -0.6210889 -0.5668079 -0.58988863 -0.5781053 -0.15519454 -0.12108266
-0.7876351 0.53573316 -0.30763927 -0.56362635 -0.60107267 -0.341863 -0.4397952 -0.6306999
-0.3019771 -0.6788371 -0.4977733 0.8100126 -0.54788387 -0.47598383 -0.5392319 -0.59244996
-0.58764845 -0.43516755 -0.23179612 -0.6107828 -0.15720534 -0.40491802 0.7085207 -0.33734256
-0.38550276 -0.35210016 -0.27895913 -0.56450224 -0.62826955 -0.4338272 -0.47652304 -0.45094264
0.7206855 -0.57734466 -0.38322017 -0.5886727 -0.28675327 -0.4809978 -0.4293127 -0.6051392
-0.6207791 -0.7027599 -0.37717602 0.7232059 -0.46923184 -0.28069946 -0.5653439 -0.6464663
-0.4539993 -0.64963907 -0.48843536 -0.4594906 -0.5211615 0.614682 -0.39758244 -0.43477008
-0.33515903 -0.6039511 -0.45986435 -0.3133824 -0.41207507 -0.34881705 -0.24822536 -0.376002
0.6178986 -0.7341072 -0.54716355 -0.5453058 -0.48331025 -0.61146635 -0.6459575 -0.4335228
-0.6074911 -0.6789162 0.82779074 -0.51206404 -0.40186736 -0.42114663 -0.589448 -0.3804831
-0.34228098 -0.46505105 -0.23231734 -0.28682584 -0.37135404 0.4690385 -0.5365218 -0.5951873
-0.45903537 -0.72502446 -0.9604202 -0.6097297 -0.56990516 -0.7890243 -0.7861215 0.5150917

bias f4 [10]
00000000: 17b4 02be bf48 b7bd 592a f03d 1b43 bb3d
00000010: 0037 b03d eeb2 0b3e 2a20 ba3d 01f2 2bbd
00000020: 99a8 323e 8e31 a1be
-0.12764011 -0.08949422 0.11726827 0.09143659 0.086042404 0.13642475 0.09088166 -0.04197884
0.17447127 -0.3148312

weight f4 [20]
00000000: 4047 ea3f 844f e73f ded8 dc3f 343e e73f
00000010: 131b e03f b64a e13f fe79 dc3f 7cdf e83f
00000020: 5dc6 f13f e400 e53f 9f57 e73f 4f77 e23f
00000030: 9e14 f43f 251c ff3f 75a0 ef3f 4652 f43f
00000040: 409e ef3f f1ca ee3f 8d75 fd3f 1833 dd3f
1.8302994 1.8071141 1.7253683 1.8065858 1.7508262 1.7600925 1.7224729 1.8193202
1.8888661 1.7890897 1.8073615 1.769266 1.9068792 1.9930464 1.8720843 1.9087608
1.8720169 1.8655683 1.9801499 1.7281218

bias f4 [20]
00000000: 078e cabd b117 54bd 5abf 4fbd 7560 423e
00000010: 3e47 1b3c 19de b53d 9863 8c3b 1c97 c2bd
00000020: dd42 5b3e 3b2c 2cbe 6bf3 853a f6f6 86bc
00000030: a720 14bd ea09 533e 1a5f 4e3d b5e3 b83d
00000040: 6c12 18bd d642 533c 3406 293e be22 99bd
-0.09890371 -0.051780406 -0.050719596 0.18982108 0.009477435 0.088802524 0.0042843334 -0.09501478
0.21412225 -0.16813748 0.0010219639 -0.016475182 -0.036163952 0.2060925 0.050383665 0.09027807
-0.037126943 0.012894353 0.16506273 -0.0747733
