model1_Linear/model1_Linear_Scripted.pt (torch, 130302 bytes, 6 tensors)

weight f4 [36, 784]
-0.01024377 0.017652139 0.0009665713 0.029782597 -5.298108e-05 0.0248872 0.031036254 0.019672781
-0.016784912 0.03144944 -0.005168073 -0.022563986 0.004443139 -0.008959694 0.010643262 0.015651759
-0.003760852 -0.016101671 -0.02701757 0.0095800385 -0.017037738 -0.017752482 0.030720163 -0.025220085
-0.030565953 -0.01368372 0.029690687 0.016637512 -0.01613502 0.026132528 0.006254807 -0.017720738
-0.008672535 -0.004245065 -0.005416058 -0.035104662 0.018891837 -0.018046146 -0.017964048 -0.0261401
0.0073998496 -0.013830701 -0.020581841 -0.0021779202 -0.0026341379 -0.028715897 0.002169598 0.004473496
-0.019150339 -0.012617154 0.020272348 0.01581584 -0.026506811 -2.1006912e-05 0.011912681 0.031277444
0.006809227 0.024005197 -0.009818759 0.02849203 -0.023540894 -0.008156756 -0.0018679015 -0.033057947
-0.022496369 -0.031844355 0.0069507323 0.018918362 -0.0068917014 -0.013053145 0.013335519 0.029237967
0.03245398 0.030464087 0.008998588 0.02322264 0.0070093907 -2.3640692e-05 0.0077151023 -0.007377982
-0.00065604225 -0.0233671 0.009398494 -0.0060007237 0.008876719 -0.023586955 -0.00978498 -0.031835597
0.009909682 -0.020455021 0.015873775 0.03114799 -0.021079073 -0.0013423897 0.016955707 0.023242254
-0.029011145 -0.030732352 0.009014066 -0.0018387325 0.0065943785 -0.028353471 0.02685852 0.006460935
0.029107187 -0.005598251 0.009559352 0.017847683 -0.013058484 -0.027613262 0.017364547 0.031600703
0.013323307 -0.023362007 0.013271231 -0.0014049783 0.014681552 0.023343846 0.005583819 -0.0012348965
-0.008825835 -0.012419932 -0.014175818 0.023954932 -0.03948685 0.01955402 0.020326115 -0.039074384
0.017912049 0.008481051 -0.039572507 0.005119469 -0.0034704097 -0.017253412 0.035514 -0.026947776
-0.017214946 0.031217549 0.016117565 0.0012545958 -0.000809025 -0.03198196 -0.024481948 -0.012292795
0.016323306 0.032537717 0.0013258755 0.013258725 -0.009712594 -0.019912526 -0.03621164 0.015749687
-0.03596433 0.02733465 -0.028208243 0.02322577 0.022274625 -0.03439055 -0.025984874 -0.0054688286
-0.007366786 -0.032699134 -0.01893807 0.02062139 -0.03263087 0.012430862 -0.013283206 0.006123662
-0.011673523 -0.025363203 -0.019948075 -0.004207138 0.012605783 0.010057498 -0.014530467 0.015986077
-0.025577875 0.0051759547 0.021250645 -0.03997688 -0.029538399 0.015138845 0.022866307 0.0038872329
-0.018342271 0.01142623 -0.031762645 -0.0115013085 0.034563433 -0.016546527 0.030440006 0.013198946
-0.020678122 -0.0073458552 -0.01687391 0.013922602 -0.0028573312 -0.016289074 -0.010675209 0.02720024
0.009471305 0.007179424 -0.018748887 -0.020732066 -0.0088156015 -0.013975906 -0.03409501 -0.025677804
-0.038741473 0.011691967 0.005901686 -0.036311895 -0.029953228 0.025007641 -0.007853414 0.034421805
-0.017609354 0.013985038 -0.006951345 -0.022887494 0.011230681 0.004263688 -0.017944802 -0.0050444994
-0.010864459 -0.0019151829 -0.008577798 -0.029390737 0.003113065 -0.005350897 0.0066130105 -0.008802132
-0.03427787 0.0029449686 0.0024712496 0.0135669345 -0.022285525 -0.013363382 0.023240298 -0.022735758
-0.042018313 -0.03154542 -0.023637472 0.023686018 0.0051910393 -0.028795347 0.030173969 0.02384847
-0.01637475 -0.0089594 0.035411555 -0.013045566 -0.025824506 -0.009327633 0.0022328533 -0.00022703782
00000000: 7cd5 27bc 389b 903c 8061 7d3a a2fa f33c
00000010: 0038 5eb8 3ee0 cb3c be3f fe3c d028 a13c
00000020: 8380 89bc 21d1 003d f058 a9bb 1cd8 b8bc
00000030: c097 913b aecb 12bc 1461 2e3c 1e38 803c
00000040: a078 76bb a7e7 83bc f353 ddbc 98f5 1c3c
00000050: ba92 8bbc a76d 91bc daa8 fb3c 5a9a cebc
00000060: 7365 fabc ae31 60bc e239 f33c 644b 883c
00000070: 972d 84bc e213 d63c 20f5 cc3b 152b 91bc
00000080: 4017 0ebc 301a 8bbb 3079 b1bb e8c9 0fbd
00000090: 0ec3 9a3c 83d5 93bc 5729 93bc c323 d6bc
000000a0: 707a f23b 2a9a 62bc 409b a8bc 70bb 0ebb
000000b0: 80a1 2cbb 9a3d ebbc d02f 0e3b 6896 923b
000000c0: 2ce1 9cbc 2eb8 4ebc 3212 a63c 3890 813c
000000d0: d024 d9bc 0038 b0b7 682d 433c c71c 003d
000000e0: f01f df3b 8ca6 c43c dcde 20bc 1e68 e93c
000000f0: d5d8 c0bc eaa3 05bc 60d4 f4ba c567 07bd
00000100: 4e4a b8bc 3a6f 02bd f8c2 e33b aefa 9a3c
00000110: c8d3 e1bb dcdc 55bc 387d 5a3c 7684 ef3c
00000120: 77ee 043d d28f f93c d06e 133c 683d be3c
00000130: 08af e53b 0050 c6b7 f8ce fc3b 00c3 f1bb
00000140: 40fa 2bba 5c6c bfbc 24fc 193c b8a1 c4bb
00000150: a86f 113c 6e39 c1bc 2e51 20bc 0b66 02bd
00000160: 385c 223c 4a91 a7bc b809 823c 122a ff3c
00000170: 05ae acbc 20f3 afba b2e6 8a3c 8a66 be3c
00000180: c8a8 edbc 6ac2 fbbc bcaf 133c a001 f1ba
00000190: a815 d83b 8a45 e8bc 6606 dc3c 40b6 d33b
000001a0: 3272 ee3c 8871 b7bb d49e 1c3c 4e35 923c
000001b0: 40f3 55bc 3535 e2bc 1840 8e3c bd6f 013d
000001c0: 004a 5a3c ae61 bfbc 946f 593c 4027 b8ba
000001d0: e48a 703c 983b bf3c 78f8 b63b 40dc a1ba
000001e0: 3c9a 10bc f87c 4bbc b141 68bc 223d c43c
000001f0: f7bc 21bd c12f a03c f482 a63c 760c 20bd
00000200: 4abc 923c 1bf4 0a3c c816 22bd 38c1 a73b
00000210: d06f 63bb 0757 8dbc 2177 113d 95c1 dcbc
00000220: 5c06 8dbc f2bb ff3c fc08 843c 4071 a43a
00000230: c014 54ba 84ff 02bd 5e8e c8bc b867 49bc
00000240: 74b8 853c 4546 053d 00c9 ad3a 203b 593c
00000250: 9221 1fbc 981f a3bc a852 14bd 7d05 813c
00000260: 554f 13bd eaec df3c f914 e7bc f843 be3c
00000270: 4679 b63c 1bdd 0cbd 3bde d4bc dc33 b3bb
00000280: 1465 f1bb 87ef 05bd 0324 9bbc 30ee a83c
00000290: f2a7 05bd d0aa 4b3c cea1 59bc 00a9 c83b
000002a0: 4e42 3fbc 7ec6 cfbc 256a a3bc 08dc 89bb
000002b0: 7c88 4e3c 34c8 243c 3211 6ebc 3cf5 823c
000002c0: b188 d1bc 0e9b a93b d515 ae3c ccbe 23bd
000002d0: 83fa f1bc eb08 783c 1f52 bb3c f2c0 7e3b
000002e0: 8842 96bc 1535 3b3c 8c19 02bd fc6f 3cbc
000002f0: 6392 0d3d 958c 87bc 525d f93c 6440 583c
00000300: 2a65 a9bc 80b5 f0bb 273b 8abc a01b 643c
00000310: 1042 3bbb aa70 85bc 12e7 2ebc 0ad3 de3c
00000320: 882d 1b3c 6041 eb3b 4497 99bc 4bd6 a9bc
00000330: 506f 10bc 33fb 64bc 36a7 0bbd 425a d2bc
00000340: 61af 1ebd aa8f 3f3c ee62 c13b c8bb 14bd
00000350: 7960 f5bc d3dc cc3c 9bab 00bc e1fd 0c3d
00000360: 7e41 90bc 8021 653c 1cc8 e3bb 8e7e bbbc
00000370: e400 383c 68b6 8b3b fa00 93bc 544c a5bb
00000380: d800 32bc e006 fbba e489 0cbc d8c4 f0bc
00000390: 9004 4c3b 9456 afbb f4b1 d83b d136 10bc
000003a0: f466 0cbd 6000 413b b0f4 213b d947 5e3c
000003b0: 2290 b6bc 16f2 5abc 7062 be3c 5740 babc
000003c0: 651b 2cbd c535 01bd 5fa3 c1bc 2e09 c23c
000003d0: 9819 aa3b 38e4 ebbc 662f f73c de5d c33c
000003e0: 5724 86bc 72ca 12bc b50b 113d 12bd 55bc
000003f0: ea8d d3bc eed2 18bc 1055 123b 0011 6eb9

bias f4 [36]
-0.0017090142 0.35853043 0.39030388 0.25809824 0.11245989 -0.3184683 -0.22214577 0.08404054
-0.30200064 -0.0030239047 0.15711266 -0.16601188 0.10649672 0.31850064 0.16655329 0.12489551
-0.2722912 0.018787188 -0.11306522 -0.016152067 -0.06604355 0.5397722 -0.1545421 0.059249267
-0.36075845 0.017544946 -0.03790669 -0.1355156 -0.1290626 -0.028023921 0.45452267 -0.050794244
-0.20310585 0.19533007 0.09329436 -0.0041951044
00000000: 0001 e0ba 4d91 b73e e9d5 c73e 7425 843e
00000010: 5f51 e63d 470e a3be 2e7a 63be 721d ac3d
00000020: d49f 9abe b42c 46bb 24e2 203e 05ff 29be
00000030: f41a da3d 8412 a33e f28c 2a3e 38c9 ff3d
00000040: c169 8bbe 97e7 993c bd8e e7bd 5751 84bc
00000050: d741 87bd 832e 0a3f 4940 1ebe 5caf 723d
00000060: 55b5 b8be 6bba 8f3c 0c44 1bbd 9ac4 0abe
00000070: fc28 04be 6c92 e5bc 32b7 e83e a00d 50bd
00000080: fbfa 4fbe 9b04 483e 1d11 bf3d 1677 89bb

weight f4 [36, 36]
0.028687004 -0.1236265 -0.53996587 0.17913526 -0.4211172 0.1986472 0.25121972 -0.052246626
0.39508823 0.4757474 -0.25468487 0.013709971 0.69905746 -0.30542967 0.14580476 0.059382603
0.9922626 0.10722953 0.7707195 -0.021759901 -0.14773282 -0.010155697 -0.050933905 0.7266744
0.34009555 0.3419342 -0.005633075 -0.3615373 0.06537347 -0.13031988 0.29819116 -0.14706182
0.08233699 -0.18636756 0.44653642 0.43053415 -0.0146207865 0.150258 -0.7805125 0.50500476
0.28734323 0.3512597 0.3650312 0.6281589 -0.3205295 0.5157962 -0.11305716 0.07666318
-0.18395889 0.31584412 0.10054853 0.36880133 0.35683975 -0.31818762 0.30199495 -0.105842724
0.36079994 0.02040371 0.18007372 0.107987195 0.20613222 0.32048497 0.18754168 -0.07891675
0.32419536 -0.07959644 -0.15992177 -0.08579632 -0.24182649 -0.8455665 -0.31229287 0.2300013
0.021243617 -0.39668167 -0.24378005 -0.015275349 0.38167214 0.28711993 0.184082 -0.21793686
-0.08559628 -0.13321777 0.5488216 0.049683597 0.043223996 0.17208068 -0.38530117 0.25611305
0.73746663 -0.019845953 -0.4878324 -0.12935218 -0.6292841 0.48820972 0.18952914 -0.07643728
0.91606116 -0.24439709 -0.688496 0.38038185 -0.27054265 -0.028120771 0.010586381 -0.2413305
-0.22114676 0.075888276 -0.52893305 -0.6772598 -0.03674767 -0.030886516 0.2748419 -0.3168411
0.1133337 -0.5820165 -0.16436054 0.27234358 -0.10799338 0.06107045 0.18251742 0.12966652
0.103120744 -0.18626818 -0.05483624 0.14583606 0.19641463 0.25679576 0.22652888 -0.049405575
-0.09086937 0.36299238 0.29531306 -0.6822623 -0.12753645 0.028936572 0.8677946 0.10121788
-0.16984361 0.12889017 -0.3135534 0.25044647 0.42147785 0.21489492 -0.13663796 0.08066722
-0.09257686 -0.3676547 -0.5446749 0.6253252 0.36215046 0.39445212 0.1900325 0.44059265
-0.18767004 0.27536806 -0.4366465 -0.21123162 -0.39957803 0.27278748 -0.0656539 0.30801177
0.187441 -0.81522346 -0.238727 0.07434232 0.2990161 0.40752387 0.24235775 -0.2703074
0.1270637 -0.40502065 -0.07301478 0.14389774 0.3269052 -0.14115629 -0.051078267 0.41526338
-0.18640046 -0.049393937 0.2334193 0.5351954 -0.056275953 0.28432444 -0.18054111 0.26557618
0.6104723 -0.13279451 -0.030202655 0.37260985 -0.2476965 0.36520895 0.01335602 0.4032152
0.0012672741 0.40191638 -0.015989667 -0.06717831 0.21673568 0.0312588 -0.0712666 0.1139684
0.43484274 0.08565408 -0.05980865 0.030486152 -0.1193763 0.7819757 -0.28553027 0.11518913
0.30400386 -0.097670615 0.13490348 -0.51329136 -0.115386985 0.014276823 -0.43367085 -0.09168105
0.13659368 0.48020276 0.11239287 0.6489984 -0.14834887 0.33133966 0.17221348 -0.074058324
0.364658 -0.1292172 -0.18977535 -0.09493926 0.44877806 -0.14937374 0.45522103 0.20347574
-0.10700899 -0.40032953 -0.21165168 0.12503122 0.1463908 0.21494941 0.2017669 0.120586224
0.4979488 -0.49584106 0.46374196 -0.008171387 0.101909414 0.13902147 0.043957666 1.2906197
0.15828034 -0.42105916 0.13291048 0.108422995 -0.094091535 0.26889935 0.4246901 0.34211162
00000000: 0201 eb3c e42f fdbd 343b 0abf 3c6f 373e
00000010: ac9c d7be 2c6a 4b3e df9f 803e 8f00 56bd
00000020: 0149 ca3e 2a95 f33e 0e66 82be c99f 603c
00000030: 6ef5 323f 4761 9cbe d84d 153e 2c3b 733d
00000040: ec04 7e3f 289b db3d e04d 453f d241 b2bc
00000050: 4647 17be 1564 26bc 12a0 50bd 5507 3a3f
00000060: 0121 ae3e 0012 af3e a895 b8bb 6b1b b9be
00000070: 87e2 853d 9372 05be 83ac 983e 6097 16be
00000080: 4ca0 a83d 23d7 3ebe 6ca0 e43e f96e dc3e
00000090: 068c 6fbc 3cdd 193e abcf 47bf fe47 013f
000000a0: a71e 933e 50d8 b33e 5fe5 ba3e 06cf 203f
000000b0: 711c a4be 380b 043f 838a e7bd 9601 9d3d
000000c0: b85f 3cbe 52b6 a13e 63ec cd3d 87d3 bc3e
000000d0: b3b3 b63e 7de9 a2be 159f 9a3e 12c4 d8bd
000000e0: c5ba b83e ae25 a73c 3f65 383e 6428 dd3d
000000f0: 5314 533e 9b16 a43e ed0a 403e 1b9f a1bd
00000100: effc a53e 7503 a3bd 88c2 23be fbb5 afbd
00000110: 5da1 77be 0c77 58bf dae4 9fbe 7685 6b3e
00000120: 1807 ae3c dc19 cbbe 7aa1 79be 7545 7abc
00000130: 886a c33e 6201 933e fe7f 3c3e d72a 5fbe
00000140: 1a4d afbd 3d6a 08be 937f 0c3f 0781 4b3d
00000150: a50b 313d eb35 303e 3246 c5be 4021 833e
00000160: 9dca 3c3f fb93 a2bc 2bc5 f9be e674 04be
00000170: c318 21bf a0f6 f93e ed13 423e 268b 9cbd
00000180: fc82 6a3f 3b43 7abe 4641 30bf 69c1 c23e
00000190: 9184 8abe 885d e6bc 8072 2d3c 581f 77be
000001a0: 4c74 62be 506b 9b3d 2868 07bf e660 2dbf
000001b0: ba84 16bd b805 fdbc 14b8 8c3e ff38 a2be
000001c0: 801b e83d 09ff 14bf 214e 28be 9e70 8b3e
000001d0: a22b ddbd 0225 7a3d d9e5 3a3e 4dc7 043e
000001e0: f830 d33d 16bd 3ebe f79b 60bd 0c56 153e
000001f0: eb20 493e bc7a 833e 30f7 673e 805d 4abd
00000200: b819 babd 23da b93e 4633 973e bea8 2ebf
00000210: ea98 02be 640c ed3c c927 5e3f 524b cf3d
00000220: 7ceb 2dbe c9fb 033e 128a a0be 853a 803e
00000230: f2cb d73e 6a0d 5c3e d2ea 0bbe db34 a53d
00000240: f098 bdbd 3d3d bcbe d06f 0bbf 5015 203f
00000250: c96b b93e a1f5 c93e e197 423e 5c95 e13e
00000260: 932c 40be 0bfd 8c3e 2190 dfbe 1a4d 58be
00000270: 7e95 ccbe cdaa 8b3e 8d75 86bd b8b3 9d3e
00000280: 89f0 3f3e 7cb2 50bf da74 74be c940 983d
00000290: a318 993e f8a6 d03e a12c 783e bb65 8abe
000002a0: fd1c 023e de5e cfbe c688 95bd ee59 133e
000002b0: 1e60 a73e 468b 10be 7237 51bd 679d d43e
000002c0: c3df 3ebe 4c51 4abd 7805 6f3e 9102 093f
000002d0: 9d81 66bd f992 913e c5df 38be 9af9 873e
000002e0: ea47 1c3f 49fb 07be 8f6b f7bc b8c6 be3e
000002f0: 27a4 7dbe abfc ba3e 35d3 5a3c 3972 ce3e
00000300: aa1a a63a fcc7 cd3e c3fc 82bc c894 89bd
00000310: f5ef 5d3e 3a09 003d 39f4 91bd 4468 e93d
00000320: b5a3 de3e 686b af3d eaf9 74bd 18be f93c
00000330: 907b f4bd 8f2f 483f 0631 92be 47e8 eb3d
00000340: 65a6 9b3e 8807 c8bd 2324 0a3e 1067 03bf
00000350: 0350 ecbd 56e9 693c 1b0a debe 46c3 bbbd
00000360: 37df 0b3e 23dd f53e 3c2e e63d c224 263f
00000370: c4e8 17be 5aa5 a93e bb58 303e e4ab 97bd
00000380: 74b4 ba3e 8451 04be 7854 42be 846f c2bd
00000390: 3dc6 e53e 6ef5 18be bb12 e93e f25b 503e
000003a0: 8827 dbbd fef7 ccbe 38bb 58be 2f08 003e
000003b0: 78e7 153e b31b 5c3e fb9b 4e3e e9f5 f63d
000003c0: 25f3 fe3e e1de fdbe 966f ed3e 48e1 05bc
000003d0: e2b5 d03d a55b 0e3e f40c 343d 0733 a53f
000003e0: 3e14 223e 1195 d7be af19 083e e00c de3d
000003f0: 10b3 c0bd 2dad 893e fb70 d93e 4129 af3e

bias f4 [36]
-0.011912753 -0.1395318 -0.08143556 0.1952363 0.07865921 0.3048469 -0.09561657 0.056368098
-0.41700464 -0.059002273 0.20504926 0.41177705 0.26646817 0.11863674 0.5611206 0.10967579
0.18190351 -0.3919439 0.028929837 0.0923559 -0.030145673 0.089602545 0.05395566 -0.086635426
-0.00882255 0.51845616 0.051132776 0.0323283 0.20151417 0.048854746 -0.10700324 0.27554455
0.7187268 0.0769299 -0.43177077 0.21853462
00000000: b52d 43bc 6de1 0ebe b0c7 a6bd 06ec 473e
00000010: 1418 a13d e514 9c3e 9fd2 c3bd 3ce2 663d
00000020: a281 d5be 5eac 71bd 6ff8 513e 71d4 d23e
00000030: 846e 883e d2f7 f23d 9aa5 0f3f b39d e03d
00000040: ea44 3a3e dfac c8be 44fe ec3c 1725 bd3d
00000050: 0ff4 f6bc 8a81 b73d 9c00 5d3d ea6d b1bd
00000060: 758c 10bc 8bb9 043f 9a70 513d ae6a 043d
00000070: bb59 4e3e ea1b 483d 8424 dbbd 2d14 8d3e
00000080: 7bfe 373f 6c8d 9d3d 0f11 ddbe 8ac7 5f3e

weight f4 [10, 36]
0.008900748 -0.26640016 0.028976051 0.10584327 -1.257624 0.17418635 -0.44050184 -0.42047283
0.24728811 0.2077944 0.19950639 -1.0525938 0.48116258 0.40683517 -0.3855355 -0.143973
-1.2568653 0.18198018 0.15469089 -0.71359736 0.01723603 -1.0685236 -0.42974737 0.2844994
0.13104591 0.14709193 -0.48646724 -0.00042070454 -0.43124405 -0.5421887 0.4445905 -0.30853102
-0.43444273 -0.36902556 0.5735717 0.19907832 0.19660905 0.276069 -1.1146191 0.3829937
0.2393812 -0.1924144 -0.07615361 -0.7451423 -0.05556732 0.21868306 -0.6078435 -1.0397782
-0.28109568 -0.78233546 0.33535442 -0.2009834 -0.20000131 -0.7792151 0.20932834 0.44747457
-0.2420039 -0.08984404 -0.01764323 0.26776612 -0.029619388 -1.2506862 -0.56330115 -0.6020012
0.6868958 -0.12182484 0.25181127 -0.47317058 0.6446699 0.2722445 -0.6512976 0.219962
0.29348025 -0.82923996 0.05240232 0.18180314 -0.5041729 -0.8017526 0.0888049 0.46538922
-0.1267374 0.34092116 0.30526024 -0.1101632 0.3968245 -0.483672 0.017329501 -0.6609129
0.22406814 0.1579068 0.14262271 0.39575747 0.036389183 0.490222 -0.23613529 0.32436922
0.052948922 0.59055907 -0.84114385 -0.057625283 -0.1673143 -0.42554775 0.33818835 0.1514688
-0.7211709 0.047709905 -0.39494076 0.4872662 0.18096438 0.27218604 -0.32679224 -0.25683147
0.404314 -0.32981348 0.34514263 0.19940576 0.24030772 0.022212887 -0.64219296 -0.14803047
-0.5199309 0.053521506 -1.2513044 0.13921805 0.23930937 0.14419107 0.3034986 -0.12955245
0.23749603 0.14375782 -0.06088375 -0.22513252 0.03427659 -0.1690459 -0.06961703 0.09644099
-0.5660372 0.5008605 0.34859926 -0.6701366 -0.96037614 -0.33496925 -0.084060974 -0.12503117
-1.3363761 -0.19716606 -1.2211393 -0.41927958 -0.1425116 0.14517121 0.087523006 -0.74346167
-0.8334105 -0.40193394 0.21650293 0.31938735 0.25648472 0.08613691 0.25995377 0.08332052
0.48832643 -0.1978346 -0.0668545 -0.66976285 -0.9279963 -0.36138728 0.35221726 -0.9388166
0.09649239 0.55819786 0.5381617 -0.33378366 0.68144834 0.1363528 0.0025859233 0.760464
0.20291755 -0.16638406 0.106513724 0.03364004 0.22423859 0.15611143 1.0006096 -0.6347176
0.124319404 0.30733976 -0.43030623 0.3071717 0.06313829 -0.21168089 -0.38312846 0.408201
-0.24325088 0.2497704 0.09353218 0.0074222405 -0.17526677 -0.18592633 -1.7460066 -0.007657101
0.38481063 -0.066462725 -0.8207136 0.0134204915 -0.12247337 -0.43687758 0.49941772 0.12705898
-1.2753587 0.9010964 -0.36290374 0.1161121 0.8745911 0.02085702 -0.03173676 0.14648277
0.12893839 -0.050045315 0.29234326 0.2747313 -0.27925286 0.35788807 -1.2308263 -0.7650574
0.18195578 -0.65665334 0.24846521 -0.09104922 0.34018108 0.23431183 0.5475983 -0.9068218
-1.0253834 -0.6466711 -0.34564465 0.26280123 0.26546016 -0.4439706 0.27756414 -1.1249596
-0.12584744 0.30529538 0.4312348 -1.2198812 -0.043837525 -0.69062763 0.05174282 -0.23457138
0.3646589 0.37292516 0.033247184 -0.39299384 -0.3807326 -0.18985187 -0.026346099 -0.10459324
00000000: 71d4 113c 9a65 88be 2f5f ed3c 5bc4 d83d
00000010: d3f9 a0bf e85d 323e 7589 e1be 3748 d7be
00000020: 1839 7d3e 0ec8 543e 674b 4c3e 65bb 86bf
00000030: f15a f63e b34c d03e e964 c5be a86d 13be
00000040: f6e0 a0bf 0359 3a3e 4a67 1e3e 51ae 36bf
00000050: 9332 8d3c 62c5 88bf d907 dcbe e8a9 913e
00000060: e630 063e 449f 163e 3c12 f9be 0292 dcb9
00000070: 05cc dcbe e1cc 0abf 5ea1 e33e c7f7 9dbe
00000080: 476f debe ebf0 bcbe 98d5 123f 30db 4b3e
00000090: e253 493e ea58 8d3e d7ab 8ebf c017 c43e
000000a0: 5820 753e 4808 45be 6df6 9bbd a5c1 3ebf
000000b0: 8f9a 63bd 74ee 5f3e a29b 1bbf 7417 85bf
000000c0: c6eb 8fbe 2347 48bf 93b3 ab3e 98ce 4dbe
000000d0: 25cd 4cbe a47a 47bf 2b5a 563e 631b e53e
000000e0: dfcf 77be 2700 b8bd 8988 90bc a418 893e
000000f0: 5ca4 f2bc 7c16 a0bf 8134 10bf c01c 1abf
00000100: 67d8 2f3f 4d7f f9bd 68ed 803e 6a43 f2be
00000110: 1609 253f a263 8b3e 71bb 26bf b83d 613e
00000120: 0b43 963e 1249 54bf d1a3 563d 9a2a 3a3e
00000130: 7a11 01bf a93f 4dbf 58df b53d 7f47 ee3e
00000140: 73c7 01be 388d ae3e 124b 9c3e 3e9d e1bd
00000150: 952c cb3e dba3 f7be 99f6 8d3c 9631 29bf
00000160: 1e72 653e 52b2 213e b00b 123e b9a0 ca3e
00000170: d30c 153d 61fe fa3e 73cd 71be b913 a63e
00000180: f8e0 583d e12e 173f 3455 57bf 7d08 6cbd
00000190: 7154 2bbe 65e1 d9be 0627 ad3e a31a 1b3e
000001a0: a89e 38bf 766b 433d ad35 cabe f57a f93e
000001b0: ba4e 393e f85b 8b3e 5051 a7be 6a7f 83be
000001c0: 3f02 cf3e 50dd a8be 89b6 b03e 0631 4c3e
000001d0: 3a13 763e cdf7 b53c c266 24bf 4d95 17be
000001e0: 311a 05bf 5e39 5b3d be2a a0bf 2d8f 0e3e
000001f0: 840d 753e d3a6 133e 2b64 9b3e 66a9 04be
00000200: 2932 733e 4035 133e 3d61 79bd 2489 66be
00000210: 9c65 0c3d 5e1a 2dbe 6093 8ebd db82 c53d
00000220: d0e7 10bf 6538 003f 9a7b b23e 128e 2bbf
00000230: 36db 75bf 1781 abbe 2928 acbd 2c08 00be
00000240: 5f0e abbf e6e5 49be 4b4e 9cbf d0ab d6be
00000250: 90ee 11be c3a7 143e 433f b33d 8153 3ebf
00000260: 645a 55bf 49ca cdbe f2b2 5d3e bd86 a33e
00000270: f751 833e 8c68 b03d a918 853e f3a3 aa3d
00000280: ec05 fa3e 2795 4abe 03eb 88bd 9475 2bbf
00000290: 2a91 6dbf c107 b9be d255 b43e 4956 70bf
000002a0: cd9d c53d 0ee6 0e3f f7c4 093f b1e5 aabe
000002b0: 6673 2e3f 12a0 0b3e 9878 293b c5ad 423f
000002c0: 9ec9 4f3e 9560 2abe de23 da3d 23ca 093d
000002d0: cd9e 653e addb 1f3e fa13 803f da7c 22bf
000002e0: 2c9b fe3d a35b 9d3e 1951 dcbe 9c45 9d3e
000002f0: a64e 813d e0c2 58be 6a29 c4be b9ff d03e
00000300: c216 79be d0c3 7f3e cd8d bf3d 4436 f33b
00000310: 2279 33be 7963 3ebe 257d dfbf 6be8 fabb
00000320: e605 c53e 9c1d 88bd 491a 52bf 9fe1 5b3c
00000330: 51d3 fabd 6bae dfbe aeb3 ff3e c01b 023e
00000340: f43e a3bf 41ae 663f 85ce b9be 2ecc ed3d
00000350: 34e5 5f3f 57dc aa3c 68fe 01bd 94ff 153e
00000360: 6d08 043e 51fc 4cbd 04ae 953e 95a9 8c3e
00000370: 3bfa 8ebe 1b3d b73e b78b 9dbf cdda 43bf
00000380: 9e52 3a3e 6f1a 28bf aa6d 7e3e 0378 babd
00000390: 372c ae3e 71ef 6f3e 672f 0c3f 7925 68bf
000003a0: c33f 83bf 3d8c 25bf 56f8 b0be e28d 863e
000003b0: 65ea 873e 1d50 e3be e31c 8e3e adfe 8fbf
000003c0: 27de 00be ad4f 9c3e cfca dc3e 1125 9cbf
000003d0: fa8e 33bd f9cc 30bf 47f0 533d 7b33 70be
000003e0: 92b4 ba3e 0cf0 be3e 332e 083d 7d36 c9be
000003f0: 62ef c2be 8768 42be c6d3 d7bc fb34 d6bd

bias f4 [10]
-0.12553693 0.12416105 0.15566854 -0.16138373 0.2887148 0.21718916 0.089556135 -0.023005258
-0.4826621 0.1995314
00000000: c18c 00be 2648 fe3d 9367 1f3e c741 25be
00000010: 6dd2 933e d666 5e3e 3569 b73d 8675 bcbc
00000020: 7d1f f7be f651 4c3e
