model1_Linear/model1_Linear_Scripted.pt (torch, 130302 bytes, 6 tensors)

weight f4 [36, 784]
-0.0038536575 0.017174453 -0.029514918 0.03556426 -0.007827478 -0.025166411 0.0046878844 -0.023929287
-0.017454965 0.024996214 -0.03351159 0.0076237367 -0.014979736 0.01747053 0.028944887 0.013801373
0.024383951 0.016529119 4.5095174e-05 0.027867267 -0.02014622 0.017133977 -0.008061937 -0.02341543
0.016967285 0.032506865 0.026981492 -0.035650544 0.017224593 -0.009950298 0.026216248 0.008663604
0.02077051 -0.018778192 -0.1246354 -0.09483106 -0.069403335 -0.0023791324 0.01013664 -0.02919727
-0.0075707817 0.013434897 0.043626744 -0.0900895 -0.13774106 0.039588124 0.107410334 0.049777977
-0.06692215 -0.054961517 -0.15680578 -0.13469331 0.02906381 -0.01690599 -0.009085128 -0.030628713
0.02711552 0.010155359 -0.027345477 -0.13418704 -0.15639143 0.05584348 0.037515767 -0.004979346
-0.08988111 -0.057998993 -0.043929636 0.047751877 0.091780245 0.13678962 0.115579695 0.07891465
-0.022387935 0.16476618 0.18011768 0.1514821 0.08646497 0.1968435 0.16806498 0.018689608
-0.12191153 -0.07280421 -0.030394122 -0.027375452 0.004852921 0.009148947 -0.06626586 -0.13460225
0.061468262 0.03995065 -0.04403215 0.13979432 -0.01585986 0.120784156 0.124121845 0.054531105
-0.06598688 -0.08854025 -0.043213237 -0.048809055 -0.08385777 0.030914526 0.19243811 0.13098392
0.09684554 0.1954933 0.25560042 0.21915944 0.19708006 -0.0067020464 0.1345 0.007673477
-0.009248278 -0.015375637 -0.06813196 -0.218622 0.17135018 0.124941744 0.08995296 0.15841585
0.015427588 0.13462742 0.09913535 0.004568628 0.1672165 0.10659313 0.052781135 -0.018103775
0.08486051 0.22086118 0.13346076 0.16994505 0.18597421 0.11614037 0.14170617 0.26993743
0.08991321 -0.09158118 -0.11692 0.018269392 -0.0063800644 -0.035203096 -0.017885173 -0.051913664
0.08824773 0.0929123 0.15002018 0.05596989 0.055070877 0.124970995 0.029943205 -0.029562363
0.102440305 -0.0525962 0.004652134 0.016877431 0.09430906 0.15436763 0.13976045 0.20698823
0.23971024 0.103709474 0.068717375 0.12911999 0.112185426 0.061352123 0.07350368 0.121288456
-0.028121175 -0.046719708 -0.09866969 -0.25959954 0.01708874 -0.035014313 0.009296305 0.11121723
0.024591707 0.06204872 -0.00898246 -0.08169617 -0.06545096 -0.09644337 -0.1173696 -0.034788065
-0.07464372 -0.07349368 -0.12120003 -0.017200265 0.014335045 -0.059211023 0.01431744 0.07393031
0.028940238 0.04497037 0.12079343 0.06624051 -0.024626782 -0.107570566 -0.11107369 -0.27475595
-0.011860328 0.11045046 -0.0023424677 0.10406766 0.118434 0.049029868 0.08620482 -0.037727024
-0.12515032 -0.13542628 -0.07208801 -0.08145108 -0.12425515 -0.071014084 -0.14293496 -0.056793272
-0.11523448 -0.049909316 -0.06822908 -0.049647205 0.08175667 0.11183402 0.24164388 -0.053394478
-0.04337058 -0.13832214 -0.14623566 -0.20383513 -0.08277053 0.06897762 0.03681885 0.03660451
-0.017917262 0.1135291 -0.015833313 -0.09945067 -0.060526524 -0.0546947 -0.21819912 -0.22168072
-0.15993445 -0.08413263 -0.1106649 -0.0016193371 -0.025191322 -0.094802536 -0.13682018 -0.12578289
-0.005473136 0.17039977 0.039716396 -0.10153458 -0.052241083 -0.11711785 -0.16116533 -0.24148855
00000000: a58d 7cbb 70b1 8c3c 45c9 f1bc d4ab 113d
00000010: d33e 00bc ca29 cebc d39c 993b 5a07 c4bc
00000020: b7fd 8ebc dcc4 cc3c 7343 09bd 8ad0 f93b
00000030: 916d 75bc 5b1e 8f3c d41d ed3c 271f 623c
00000040: dac0 c73c 1368 873c 9324 3d38 e549 e43c
00000050: b009 a5bc 8e5c 8c3c 3716 04bc b7d1 bfbc
00000060: fafe 8a3c eb25 053d 4a08 dd3c 4e06 12bd
00000070: 971a 8d3c 9306 23bc 75c3 d63c caf1 0d3c
00000080: eb26 aa3c b9d4 99bc d840 ffbd c936 c2bd
00000090: 5623 8ebd 38eb 1bbb 2614 263c 1d2f efbc
000000a0: 5214 f8bb 0b1e 5c3c f5b1 323d d880 b8bd
000000b0: fe0b 0dbe 2827 223d f3f9 db3d fee3 4b3d
000000c0: 7b0e 89bd 541f 61bd b291 20be 0bed 09be
000000d0: 3a17 ee3c 6e7e 8abc cad9 14bc 11e9 fabc
000000e0: 5e21 de3c aa62 263c 9f03 e0bc 5468 09be
000000f0: 1325 20be 22bc 643d 22aa 193d c829 a3bb
00000100: 9613 b8bd 5a90 6dbd 90ef 33bd 7997 433d
00000110: 48f7 bb3d 9412 0c3e 0cb5 ec3d 019e a13d
00000120: e766 b7bc 77b8 283e c570 383e 201e 1b3e
00000130: 8c14 b13d 5891 493e 3a19 2c3e f31a 993c
00000140: c1ac f9bd 601a 95bd 18fd f8bc 7c42 e0bc
00000150: 4005 9f3b 77e5 153c 65b6 87bd 2cd5 09be
00000160: 25c6 7b3d 4ba3 233d 0e5b 34bd 3e26 0f3e
00000170: 8aec 81bc af5d f73d 9833 fe3d 025c 5f3d
00000180: 2124 87bd 9754 b5bd 5d00 31bd 01ec 47bd
00000190: 9fbd abbd 7640 fd3c 7f0e 453e a620 063e
000001a0: f456 c63d 652f 483e 0fde 823e 556b 603e
000001b0: 5bcf 493e d79c dbbb 5eba 093e ca71 fb3b
000001c0: 1786 17bc 19ea 7bbc c588 8bbd 72de 5fbe
000001d0: 6c76 2f3e 75e1 ff3d 4239 b83d c437 223e
000001e0: fec3 7c3c c5db 093e 7907 cb3d 6eb4 953b
000001f0: cd3a 2b3e 804d da3d 0831 583d 5e4e 94bc
00000200: 59cb ad3d 6f29 623e f0a9 083e 1306 2e3e
00000210: 0670 3e3e 01db ed3d 6c1b 113e 3d35 8a3e
00000220: 6b24 b83d ea8e bbbd c173 efbd b1a9 953c
00000230: dc0f d1bb 1f31 10bd ed83 92bc 6ca3 54bd
00000240: 3abb b43d ce48 be3d e49e 193e af40 653d
00000250: 0092 613d cbf0 ff3d 744b f53c c52c f2bc
00000260: 39cc d13d 1d6f 57bd ee70 983b 8a42 8a3c
00000270: 1c25 c13d 8c12 1e3e 5d1d 0f3e b9f4 533e
00000280: 9a76 753e a265 d43d b2bb 8c3d 0838 043e
00000290: 79c1 e53d 5d4c 7b3d 1989 963d 1566 f83d
000002a0: 615e e6bc 2a5d 3fbd 5613 cabd 3bea 84be
000002b0: affd 8b3c 2b6b 0fbd 874f 183c dcc5 e33d
000002c0: 8c74 c93c cc26 7e3d 2b2b 13bc 5250 a7bd
000002d0: 270b 86bd 1a84 c5bd 795f f0bd ee7d 0ebd
000002e0: cfde 98bd db83 96bd b937 f8bd 92e7 8cbc
000002f0: 89dd 6a3c 4287 72bd b293 6a3c c668 973d
00000300: 1414 ed3c da32 383d 8c62 f73d 1ba9 873d
00000310: 1bbe c9bc f54d dcbd 9a7a e3bd d0ac 8cbe
00000320: d251 42bc da33 e23d 1684 19bb 6d21 d53d
00000330: 868d f23d 8bd3 483d 278c b03d a787 1abd
00000340: 6827 00be 30ad 0abe e1a2 93bd d3cf a6bd
00000350: 7c79 febd d56f 91bd 8b5d 12be 10a0 68bd
00000360: 0e00 ecbd b66d 4cbd b0bb 8bbd de5a 4bbd
00000370: 0a70 a73d 3c09 e53d 7e71 773e 2bb4 5abd
00000380: 59a5 31bd 52a4 0dbe cdbe 15be 28ba 50be
00000390: 9883 a9bd 2344 8d3d 5dcf 163d 9cee 153d
000003a0: 39c7 92bc f281 e83d ddb4 81bc cbac cbbd
000003b0: a9ea 77bd 8d07 60bd 976f 5fbe 4500 63be
000003c0: dbc5 23be ba4d acbd 47a4 e2bd f03f d4ba
000003d0: 085e cebc d527 c2bd 971a 0cbe 3bcd 00be
000003e0: fe57 b3bb 477d 2e3e a9ad 223d 5df1 cfbd
000003f0: bffa 55bd 7cdb efbd 8608 25be c648 77be

bias f4 [36]
0.08576253 -0.051112738 0.28636152 -0.17760293 0.0911707 -0.24736479 -0.093787044 0.0047758636
0.026784608 -0.0023407694 -0.113132134 0.027223818 0.019278072 -0.001807169 0.093524754 0.0883698
0.24102207 -0.020188924 0.21393058 0.059950665 0.05685159 0.08138743 -0.08640413 0.18034387
0.024720797 -0.100398004 0.0025089192 0.14656165 -0.22968899 -0.03850328 0.1264766 0.376524
0.37136987 0.16328765 0.05193507 0.054680713
00000000: 44a4 af3d 975b 51bd fa9d 923e 8bdd 35be
00000010: b4b7 ba3d 324d 7dbe 6c13 c0bd d97e 9c3b
00000020: 656b db3c 9867 19bb d2b1 e7bd 7c04 df3c
00000030: 0ced 9d3c 88de ecba e889 bf3d 3afb b43d
00000040: 7dce 763e 3e63 a5bc 9e10 5b3e d48e 753d
00000050: 36dd 683d 74ae a63d a6f4 b0bd 10ac 383e
00000060: 4583 ca3c 789d cdbd ae6c 243b 4214 163e
00000070: 9733 6bbe 9eb5 1dbd 1583 013e c1c7 c03e
00000080: 3124 be3e e134 273e deb9 543d e2f8 5f3d

weight f4 [36, 36]
0.19198152 0.22490112 0.42448246 -0.13513644 -0.017410403 -0.2571022 0.09022199 0.12746544
-0.16339345 0.18917306 -0.034687094 -0.10631459 -0.07988907 0.043677974 -0.071326904 0.14057036
0.30156526 0.15343457 0.22319342 -0.11010044 -0.07327803 0.22840147 0.16571014 0.14874868
0.04577165 -0.2793297 -0.16029988 -0.17877118 -0.58687717 -0.26296207 0.1480667 0.013079081
0.21149553 -0.037096106 0.03855663 0.26100364 0.06308056 -0.08449737 -0.00035989916 0.2743069
-0.2175065 -0.01557418 -0.21862304 -0.21507788 0.37499946 0.29151705 -0.093770005 0.08888313
0.42925364 0.024009049 0.63489354 0.125614 0.15778196 -0.006646511 -0.13484341 0.36396527
0.44393718 -0.101256885 -0.33486846 0.36305398 -0.29002163 0.34795117 0.1941635 0.34918407
0.28084826 0.38327917 -0.08170022 0.31025362 -0.25410783 0.2969623 -0.13893734 -0.002445289
0.26710752 0.3419567 -0.20096964 0.1642193 0.27604157 -0.039060052 0.23601563 0.18864252
0.20090356 -0.18158795 -0.033827454 -0.44894373 -0.33110118 -0.043711897 -0.22673863 0.20556009
-0.19856055 -0.14252813 0.18242833 0.0063146856 0.024914762 0.3467085 0.001868317 0.29002294
-0.171213 0.07559492 0.09623278 -0.0059799156 0.7433506 0.38998106 0.18015082 0.038760062
-0.0024979548 -0.07452763 -0.059924208 0.0313429 -0.14034055 0.2139691 -0.35028484 -0.07952887
0.09608602 0.08488166 -0.010646885 0.07806312 0.06593549 -0.14262569 0.12164293 -0.090959765
-0.25905567 -0.06022664 0.37642038 -0.011525358 -0.061433718 0.073389225 -0.093549535 -0.23447299
-0.14477158 0.049208786 0.11046882 0.103962876 0.3490394 -0.03209686 -0.2533906 -0.011978872
0.272855 -0.07564641 0.21751173 0.3800304 -0.33230937 0.059965648 -0.18725842 -0.019274473
0.10419601 0.08264269 -0.17510083 0.11766712 0.09125786 -0.14437775 0.04644963 0.14839225
0.8082902 0.031832967 0.40440226 0.19471803 0.30942696 0.14747863 0.40923962 0.19129662
-0.10716735 0.32915437 -0.20715638 -0.074379794 -0.25581276 -0.10682117 -0.2091444 0.6542351
0.067217 -0.29955646 0.09221938 -0.12028945 0.5979251 0.31724417 -0.10161931 -0.41171974
0.09027658 -0.18491863 0.2311453 0.27746385 0.13273114 -0.13003749 0.13208488 0.03843549
0.07811508 -0.10681973 -0.019512936 0.024080824 0.15048325 0.10729771 -0.100697234 -0.015309914
0.11746636 0.0413665 0.05528 -0.08072605 0.10811542 0.022140086 0.011380839 -0.028100643
0.2169222 0.01695223 0.008626902 0.064745225 -0.08793441 -0.22784898 -0.10117709 -0.2129208
0.109374836 -0.0035500599 -0.006361806 -0.0005787519 -0.11377721 -0.02800146 0.047569104 -0.023446854
0.2736213 0.2128515 0.21319912 0.12328283 0.257817 0.22992343 0.08427556 -0.19766629
-0.12302517 -0.17151842 -0.38173297 -0.079853274 -0.04133792 0.16067886 -0.17621866 0.2280546
-0.17872964 0.33354652 0.084853895 -0.21077931 0.38729528 0.43226826 0.23789573 0.4518044
-0.048307583 -0.11986058 0.25643367 0.12890981 0.16270877 0.36028007 0.13469364 0.17631592
0.12124458 -0.13229589 -0.11871751 0.13747795 0.38627174 -0.3481782 -0.11054913 0.10247794
00000000: ce96 443e 7b4c 663e c455 d93e 3561 0abe
00000010: 43a0 8ebc e6a2 83be 4fc6 b83d 4d86 023e
00000020: 9d50 27be 95b6 413e 0e14 0ebd 77bb d9bd
00000030: e19c a3bd ade7 323d d713 92bd adf1 0f3e
00000040: c366 9a3e f41d 1d3e d18c 643e 577c e1bd
00000050: cb12 96bd 13e2 693e ebaf 293e 9351 183e
00000060: 0e7b 3b3d 4d04 8fbe a725 24be cb0f 37be
00000070: 953d 16bf f7a2 86be cc9e 173e a449 563c
00000080: 4992 583e 16f2 17bd 8fed 1d3d 45a2 853e
00000090: 6130 813d f50c adbd d9b0 bcb9 f471 8c3e
000000a0: 06ba 5ebe d82a 7fbc b8de 5fbe 603d 5cbe
000000b0: eeff bf3e b941 953e 7d0a c0bd 5c08 b63d
000000c0: 22c7 db3e a0ae c43c 6288 223f f5a0 003e
000000d0: 9891 213e faca d9bb 6414 0abe a859 ba3e
000000e0: bc4b e33e c55f cfbd e173 abbe 36e2 b93e
000000f0: b77d 94be a826 b23e ccd2 463e 41c8 b23e
00000100: 58cb 8f3e 2b3d c43e 7252 a7bd 90d9 9e3e
00000110: 6c1a 82be 710b 983e 9745 0ebe 2441 20bb
00000120: 51c2 883e f314 af3e fcca 4dbe 1b29 283e
00000130: 5255 8d3e 6ffd 1fbd 15ae 713e 812b 413e
00000140: aab9 4d3e 31f2 39be a88e 0abd f4db e5be
00000150: 1886 a9be 3f0b 33bd 2c2e 68be 587e 523e
00000160: 7553 4bbe e5f2 11be 7ece 3a3e 6ceb ce3b
00000170: 0b1a cc3c c783 b13e 51e2 f43a e37d 943e
00000180: 7652 2fbe 82d1 9a3d b115 c53d 2bf3 c3bb
00000190: 3a4c 3e3f 99ab c73e 7579 383e dfc2 1e3d
000001a0: bab4 23bb f1a1 98bd 1673 75bd 6a61 003d
000001b0: 6fb5 0fbe b71a 5b3e 8958 b3be 08e0 a2bd
000001c0: bfc8 c43d 70d6 ad3d 4670 2ebc 8fdf 9f3d
000001d0: 3009 873d 780c 12be ee1f f93d 1d49 babd
000001e0: f2a2 84be 36b0 76bd 2cba c03e dbd4 3cbc
000001f0: eca1 7bbd 174d 963d e696 bfbd b019 70be
00000200: 003f 14be 278f 493d 7a3d e23d 7dea d43d
00000210: 4bb5 b23e ff77 03bd 6abc 81be 0843 44bc
00000220: a7b3 8b3e 81ec 9abd 65bb 5e3e 5893 c23e
00000230: 7424 aabe 8a9e 753d acc0 3fbe 80e5 9dbc
00000240: b864 d53d 9240 a93d a24d 33be 76fb f03d
00000250: 67e5 ba3d c3d7 13be f841 3e3d 23f4 173e
00000260: 1bec 4e3f 4963 023d d00d cf3e 2a64 473e
00000270: 366d 9e3e a304 173e db87 d13e 43e3 433e
00000280: 8e7a dbbd ec86 a83e cd20 54be 6f54 98bd
00000290: e4f9 82be 0fc5 dabd f329 56be f47b 273f
000002a0: 11a9 893d 775f 99be 84dd bc3d 515a f6bd
000002b0: 9f11 193f d46d a23e c91d d0bd eecc d2be
000002c0: ede2 b83d 4f5b 3dbe 5bb1 6c3e be0f 8e3e
000002d0: acea 073e 8c28 05be 4241 073e 886e 1d3d
000002e0: cdfa 9f3d 4dc4 dabd 98d9 9fbc 2645 c53c
000002f0: 4818 1a3e e7be db3d 5a3a cebd 6fd6 7abc
00000300: 3492 f03d eb6f 293d 486d 623d b353 a5bd
00000310: 9e6b dd3d 205f b53c b376 3a3c 5233 e6bc
00000320: da20 5e3e 67df 8a3c d957 0d3c 2599 843d
00000330: f516 b4bd 3e51 69be ef35 cfbd e907 5abe
00000340: eaff df3d 1fa8 68bb b276 d0bb 62b7 17ba
00000350: 0704 e9bd 5163 e5bc d2d7 423d 9e13 c0bc
00000360: 1718 8c3e bef5 593e df50 5a3e b57b fc3d
00000370: 9700 843e 0c71 6b3e aa98 ac3d 0869 4abe
00000380: 9ff4 fbbd 86a2 2fbe 8172 c3be 1d8a a3bd
00000390: f351 29bd 0089 243e aa72 34be 2587 693e
000003a0: e704 37be 9cc6 aa3e e1c7 ad3d 88d6 57be
000003b0: 914b c63e 4452 dd3e f09a 733e e852 e73e
000003c0: 2cde 45bd 7779 f5bd 464b 833e ef00 043e
000003d0: 219d 263e a176 b83e 21ed 093e 298c 343e
000003e0: 144f f83d 9378 07be 2a22 f3bd 05c7 0c3e
000003f0: 69c5 c53e 6a44 b2be 9567 e2bd f4df d13d

bias f4 [36]
0.24824561 0.17898335 -0.057920113 -0.0043653366 0.08884626 0.051101897 0.28231347 0.25600302
0.31723133 -0.07966107 0.066139385 0.026774691 0.08528307 0.18021181 0.3665969 -0.14532647
-0.04953067 0.054121114 0.23697753 -0.03622844 0.16533034 0.082232974 -0.22954223 -0.3471184
0.18264 0.07569738 0.24653766 -0.09580965 -0.14750853 0.051057328 -0.03718969 0.009771339
0.5751792 0.25404075 0.39783204 0.0051399944
00000000: 1934 7e3e 6947 373e a43d 6dbd 190b 8fbb
00000010: 07f5 b53d 3950 513d 648b 903e d412 833e
00000020: 256c a23e 5825 a3bd 1674 873d 9956 db3c
00000030: e4a8 ae3d 7289 383e 97b2 bb3e 76d0 14be
00000040: ace0 4abd 1aae 5d3d 3daa 723e 4664 14bd
00000050: 5b4c 293e c369 a83d 1e0d 6bbe 81b9 b1be
00000060: fb05 3b3e 3a07 9b3d 5e74 7c3e da37 c4bd
00000070: 7a0c 17be 7d21 513d 3754 18bd f717 203c
00000080: f23e 133f a111 823e a4b0 cb3e 666d a83b

weight f4 [10, 36]
-0.012055119 0.26657894 -0.14869626 0.3450559 -0.4017381 -0.09671224 -0.324516 -0.43736777
0.37412605 0.3939707 0.21218874 -0.2478781 0.12757446 -0.18744275 -0.13163896 0.16860008
-0.5367034 0.14802746 -0.52661586 -0.018730529 0.27993798 -0.21341485 0.42723584 0.030898351
0.051049776 -0.34743214 -0.0066557643 -0.04316292 0.118911564 -0.62953264 -0.08225836 -0.31549868
0.15764713 0.18809846 -0.5470018 -0.3425326 0.051729124 -0.37016812 0.17214109 0.38010404
0.34746265 0.17718266 -0.30410722 -0.42387027 -0.0942877 0.0048507447 -0.2174917 0.16787729
-0.7088149 0.23985249 0.29469842 -0.3243855 -0.03843713 -0.04903725 0.12902375 -0.0057354853
-0.26419613 -0.21525219 -0.32280105 0.2601673 0.31408137 0.20993844 -0.5967274 -0.13708797
-0.4484619 -0.2817398 -0.49945408 -0.48483178 -0.33624038 0.47719252 0.21775831 0.14904508
-0.3442157 0.25401965 -0.10908079 -0.15794387 0.18182199 0.09539686 -0.4455566 0.31692305
-0.40334532 -0.5779228 -0.288141 0.25340068 0.41636658 -0.3056791 -0.46854672 0.2574343
0.733899 -0.13803762 -0.20582327 -0.14549415 0.29187676 0.3882566 0.28369486 0.12876737
0.0019637747 0.12681057 0.21012728 -0.43252358 0.060975574 0.13785999 0.07878488 -0.14123906
-0.23956302 0.10228351 0.1412792 0.05636451 -0.41762304 0.26938903 -0.2231985 -0.08820449
0.18758297 0.09190303 0.1389345 -0.0973944 -0.34652603 -0.05035914 -0.006809165 -0.15451325
-0.71491355 0.24701141 0.26962796 0.098158635 -0.043538317 -0.17741363 0.1061478 -0.123011366
0.01596537 0.07531767 -0.35038924 0.13445404 0.37542656 -0.3458757 -0.42872813 -0.25239193
0.19665302 -0.35934702 0.2752291 -0.13359578 -0.47410563 -0.06357094 -0.4544387 -0.09343107
0.03601325 0.18723631 0.30259842 -0.30000994 -0.51940155 -0.012422622 0.3442324 0.3522128
-0.26816168 -0.10862863 -0.16199218 -0.1507059 0.3463119 0.09203412 0.10520187 -0.29739243
-0.4531428 0.06437566 -0.30172798 -0.40241802 -0.48735794 -0.20953697 0.03496475 -0.063217066
-0.31173176 -0.021590952 0.36985886 -0.115896724 -0.7121339 -0.3694289 0.12160537 0.13648032
0.13804889 -0.1547592 0.13750328 -0.17327872 0.07149053 0.14684469 -0.7774655 0.46944287
-0.2672976 0.19105692 -0.1957947 0.37793094 0.05768241 -0.23980811 0.08941429 -0.19865245
0.33754325 -0.10074557 0.3980369 0.023904484 0.19430704 0.17435285 0.111029565 -0.09972858
-0.05579312 -0.1383906 -0.43457323 -0.7639158 0.06390764 -0.54421705 0.019865094 -0.17240246
0.09881544 0.09972068 0.070233464 0.21581908 0.2478572 0.345516 0.23644371 -0.095101126
0.26665813 -0.043225687 -0.12920867 0.18363689 0.31931448 -0.05614728 0.07602739 0.1785584
-0.1414522 0.3467425 -0.18365815 0.11417507 -0.16382241 -0.6622431 -0.3575358 -0.20803851
-0.59907913 0.05673119 0.18928792 0.47826236 -0.10736353 0.31000713 0.06271374 -0.040620644
-0.5690982 -0.24853013 0.256798 0.2507522 -0.4551769 -0.5156779 -0.5836794 -0.580672
0.23263001 0.27030045 0.32791576 -0.20519304 -0.035380002 -0.118543595 0.2618412 -0.07604013
00000000: d582 45bc 097d 883e d543 18be 2bab b03e
00000010: 9eb0 cdbe 1111 c6bd f626 a6be abee dfbe
00000020: 738d bf3e 87b6 c93e 0148 593e c2d3 7dbe
00000030: e1a2 023e fef0 3fbe 5dcc 06be 80a5 2c3e
00000040: 6565 09bf 8394 173e 4cd0 06bf c470 99bc
00000050: 0854 8f3e 6c89 5abe a8be da3e 8a1e fd3c
00000060: 9219 513d a0e2 b1be 9918 dabb 9acb 30bd
00000070: e887 f33d 0d29 21bf 1277 a8bd 0b89 a1be
00000080: 406e 213e e29c 403e 4f08 0cbf 6f60 afbe
00000090: ebe1 533d ad86 bdbe c145 303e ff9c c23e
000000a0: a0e6 b13e 5f6f 353e f1b3 9bbe 8605 d9be
000000b0: e919 c1bd fff2 9e3b 25b6 5ebe 06e8 2b3e
000000c0: e574 35bf e49b 753e b6e2 963e db15 a6be
000000d0: 4170 1dbd 49db 48bd cd1e 043e bdf0 bbbb
000000e0: b744 87be 126b 5cbe 2e46 a5be a634 853e
000000f0: 46cf a03e 1afa 563e 20c3 18bf ca60 0cbe
00000100: cc9c e5be 3340 90be 72b8 ffbe df3b f8be
00000110: b327 acbe 9452 f43e 09fc 5e3e 469f 183e
00000120: 0a3d b0be dd0e 823e c065 dfbd 0abc 21be
00000130: 8b2f 3a3e 6e5f c33d ff1f e4be bd43 a23e
00000140: 4783 cebe c0f2 13bf 3887 93be bcbd 813e
00000150: 002e d53e f981 9cbe 5be5 efbe 6ece 833e
00000160: cee0 3b3f bc59 0dbe 56c3 52be 6bfc 14be
00000170: df70 953e 92c9 c63e 7440 913e 98db 033e
00000180: acb2 003b a1da 013e 9b2b 573e bb73 ddbe
00000190: 86c1 793d 2b2b 0d3e f859 a13d f9a0 10be
000001a0: 0250 75be 047a d13d 7fab 103e 79de 663d
000001b0: b0d2 d5be 5ced 893e 268e 64be 8ea4 b4bd
000001c0: c015 403e a837 bc3d d844 0e3e b776 c7bd
000001d0: dc6b b1be 6345 4ebd 6a1f dfbb b938 1ebe
000001e0: 9304 37bf 8ff0 7c3e ad0c 8a3e 6507 c93d
000001f0: 3c55 32bd ebab 35be 0564 d93d 62ed fbbd
00000200: cfc9 823c 2740 9a3d 3866 b3be 52ae 093e
00000210: e937 c03e 9f16 b1be 4182 dbbe 8439 81be
00000220: 695f 493e 55fc b7be d4ea 8c3e 55cd 08be
00000230: f9bd f2be 7b31 82bd 30ac e8be ca58 bfbd
00000240: a182 133d e0ba 3f3e 2eee 9a3e e79a 99be
00000250: 80f7 04bf 4188 4bbc 3b3f b03e 3c55 b43e
00000260: 7d4c 89be b078 debd 47e1 25be a652 1abe
00000270: cb4f b13e 627c bc3d 1474 d73d d243 98be
00000280: 5502 e8be 63d7 833d 177c 9abe bc09 cebe
00000290: fb86 f9be dc90 56be 3337 0f3d f377 81bd
000002a0: 4e9b 9fbe 82df b0bc 245e bd3e 435b edbd
000002b0: 684e 36bf c925 bdbe 3c0c f93d 7fc1 0b3e
000002c0: b05c 0d3e 3279 1ebe a9cd 0c3e fa6f 31be
000002d0: a169 923d 745e 163e fb07 47bf d15a f03e
000002e0: 3bdb 88be 6da4 433e 687e 48be 2a80 c13e
000002f0: 6444 6c3d 4290 75be d71e b73d 8c6b 4bbe
00000300: 78d2 ac3e b253 cebd 7ecb cb3e 56d3 c33c
00000310: 6df8 463e 8e89 323e 7863 e33d 7f3e ccbd
00000320: 5487 64bd 44b6 0dbe 6280 debe fc8f 43bf
00000330: 02e2 823d cf51 0bbf 1fbc a23c 458a 30be
00000340: c05f ca3d 5b3a cc3d 90d6 8f3d adff 5c3e
00000350: 47ce 7d3e 79e7 b03e 4d1e 723e 61c4 c2bd
00000360: 6a87 883e 6b0d 31bd 474f 04be 4f0b 3c3e
00000370: 307d a33e b1fa 65bd 40b4 9b3d 03d8 363e
00000380: d8d8 10be 3c88 b13e e210 3cbe 9ed4 e93d
00000390: 10c1 27be c488 29bf ef0e b7be 0c08 55be
000003a0: 405d 19bf f75e 683d b1d4 413e cede f43e
000003b0: 69e1 dbbd 41b9 9e3e 1070 803d d561 26bd
000003c0: 6bb0 11bf af7e 7ebe 077b 833e 9862 803e
000003d0: f20c e9be 7803 04bf 036c 15bf eca6 14bf
000003e0: 9036 6e3e d264 8a3e 93e4 a73e 201e 52be
000003f0: 9fea 10bd fcc6 f2bd 0d10 863e edba 9bbd

bias f4 [10]
-0.070228964 0.09010283 -0.14832655 -0.24359979 0.010743639 0.46228865 -0.072990745 -0.18241519
-0.32079035 0.14603093
00000000: 34d4 8fbd d587 b83d eae2 17be 3972 79be
00000010: 1706 303c 19b1 ec3e 2c7c 95bd 0ccb 3abe
00000020: a23e a4be 2289 153e
